pyt_save/minnow.pt (torch_old, 495157 bytes, 6 tensors)

q.layers.0.weight f4 [400, 4]
00000000: 9c37 95bc abc3 dd3d 398f a9bc fe74 f83c
00000010: 9412 efbd 36a4 afbd 0bb3 04be 085e 5f3e
00000020: c0c7 ee3b bc34 8e3d d0cd 88bd 6022 cdbc
00000030: 98ae 613c 4928 e1be f8ee 0dbd b84f 393e
00000040: 56e3 e53d 986a 4fbf 919a f4bc acf1 b83e
00000050: 4563 9ebd a063 a2be 31c9 f0bc b188 323e
00000060: fa44 54be df9e 083e 54c4 aabc ef61 c2bd
00000070: a435 c73c 1d55 cdbe 5a8e f8bc c8e9 913e
00000080: c086 dd39 133f 55be 12b9 4fbb b1ef b03d
00000090: 1157 423b 5b08 48be 3adb 0fbc e021 df3d
000000a0: 7866 d5be 10d0 b3bd 77e8 853e c248 a2be
000000b0: abc6 013e 4049 29bf 789d 5e3d eb23 623f
000000c0: 2321 aebe 0159 c0be 18ca b03e 3995 a33e
000000d0: 300f a4bd dd7a 9bbc da11 8d3c be02 6a3c
000000e0: 59e0 87bc 16d2 443b 250c 76bd 985b a3bd
000000f0: e7f6 023f c097 a1bd aaf3 35be ae69 b63e
00000100: a7f2 e73f 5d41 9cbc e89f bbba 6b01 44bd
00000110: 7c5c 063e 2d7a c03d 7b8c d3bd b80d bc3d
00000120: 5475 2bbd 9217 1dbe cdd1 fe3c 13a0 2a3e
00000130: e10d f6bc 47c6 c6be 82cd 27bd 0ae5 253e
00000140: 6e80 b8be 59b8 b0bc a6a5 793e ec79 48be
00000150: edf2 ba3d 8b82 05bf a24f 11be b43c 683e
00000160: f3a2 003c cd60 0cbf f00d 97ba 0202 dd3e
00000170: 38c4 013c 4acd d0bf 1452 2bbc 1d2f 7a3c
00000180: 462b b83e 3804 b73d 5f67 81be d7d1 873b
00000190: 281d 803e 6403 71bf 9544 71be 3e01 103f
000001a0: 421e 27be eab3 593b c88b 7b3c b664 363d
000001b0: 05f6 103e df78 14be d1ba 8cbd 3cb6 743e
000001c0: 2667 2abf b704 57be 69da 123e bca2 943d
000001d0: 4389 d5bd bf09 323e af61 733d 3d18 c4bd
000001e0: 5fd2 273d 43c6 eebe 021e 50bc f2b3 7d3e
000001f0: 1393 60bd e9c2 a7bf 2901 94bd 3cfb a93e
00000200: b642 8dbf 3672 82be d75c 263f 9e60 68bf
00000210: 1951 acbe a397 9fbd 47b6 c9bd 0481 b53d
00000220: 80d7 543c 1e1a 503d be45 40bd d534 7c3e
00000230: 903b 763f 123c 56bd 26a8 203c 96e7 ac3b
00000240: 459b cbbe 7805 d9be e85d 88bd fcf5 7e3d
00000250: 4d60 1b3e 30d8 57bf 45c6 9fbd f368 2c3f
00000260: 3d24 2cbd 42c0 08bc d5c7 bebd a129 c53d
00000270: 5aa7 69bd 82e4 1dbe 9bfb a9bc 5575 5d3d
00000280: 08c7 953e b0ac 18bf 9a16 05be 77df 483e
00000290: 7c5f 28bc 533b 1dbf 209d 943b 0f79 7a3e
000002a0: 558d a8bd 6ace aebc 3455 113e 9207 553d
000002b0: a662 d83c c6aa c6be 6f94 a6be 73ac 083f
000002c0: 615f b13c 387f dfbe 9c2e 11bd 64c3 3c3e
000002d0: 2997 cdbc 17e8 3ebf bd67 59bc a3f7 ca3e
000002e0: 5bb8 853c b754 c03d ca1a 94bc 1dd2 103b
000002f0: ef9c a5bc b1c9 18be 1989 8c3b 5d1a 143e
00000300: e772 3b3e 4c3a d7bd b91b 89be fa1a 923d
00000310: f204 0f3d 9492 5ebd 3690 f23b 2505 1d3d
00000320: 5b5b 043d 1fdc 21bf 37c4 b6bd c961 4cbe
00000330: 0a19 cebd 640e f2ba 37eb 96bb a9d9 26bc
00000340: 6151 633e 34b5 3b3c 741e 723d 032c 98be
00000350: 04bf a1bc c50f 0bbf 478f ffbd cac5 143f
00000360: ca87 18bf 81c0 2abc 0288 b63d 5898 41be
00000370: ed30 183b 0e70 38bd 6d48 653c ff8b d93c
00000380: 1567 74bd 500c b4bd cad3 923c 84d9 ce3d
00000390: 43d5 6c3c fed9 ccbe 7d35 63bc 2e47 8d3e
000003a0: 4eab 6f3c 6b27 a2bf 3756 89ba 2231 f83e
000003b0: ba45 0e3e 33fd 36bf aac1 8bbe 254b f93e
000003c0: a402 09bc 3b59 93bf 00ec c73b f383 cc3e
000003d0: 7e39 923e aa3e 74be 1efc 4c3e b9bd 5c3c
000003e0: 57cb 8f3e c5f1 27bf f782 e2bd f3e8 333e
000003f0: 88e1 293f cca8 88be ca3e 0ebe 2682 cc3e
-0.018214993 0.10828336 -0.020698177 0.030329224 -0.11673465 -0.085762426 -0.12958924 0.21813214
0.0072869956 0.06943652 -0.066798806 -0.025040805 0.013774537 -0.43976048 -0.034651726 0.18096817
0.112250015 -0.81022024 -0.02985886 0.3612188 -0.07733778 -0.31716633 -0.02939281 0.17434956
-0.20729437 0.13341855 -0.02084557 -0.094913356 0.02431757 -0.40104 -0.030341316 0.28498673
0.000422528 -0.20824842 -0.0031696004 0.086394675 0.0029653946 -0.19534437 -0.008780295 0.10895133
-0.4167974 -0.08779919 0.2615392 -0.31696135 0.12673442 -0.66127396 0.054349393 0.88336056
-0.34009656 -0.37567905 0.34529185 0.31949785 -0.08010709 -0.018979484 0.017220426 0.01428288
-0.01658647 0.0030032448 -0.060070176 -0.079764545 0.51157993 -0.07890272 -0.17768732 0.35627502
1.8120927 -0.019074136 -0.0014314624 -0.047852915 0.13121217 0.09398303 -0.10329529 0.09182304
-0.04185994 -0.15341023 0.0311059 0.16662626 -0.030035915 -0.3882315 -0.040967472 0.16200653
-0.36035484 -0.021572279 0.24379596 -0.1957776 0.09128366 -0.5215232 -0.14190534 0.22679406
0.00785135 -0.54835206 -0.001152454 0.43165594 0.007920317 -1.6312649 -0.010456581 0.015270022
0.35970515 0.089363515 -0.25274178 0.004144888 0.25022244 -0.941458 -0.23561318 0.56251895
-0.16320136 0.003321881 0.015353151 0.04452964 0.14156349 -0.14499234 -0.0687157 0.23897642
-0.6656364 -0.20997892 0.1434113 0.072576016 -0.10426571 0.1738653 0.05941933 -0.095749356
0.04097211 -0.46635637 -0.012702467 0.24775675 -0.05482776 -1.3106357 -0.07226784 0.3319949
-1.1035984 -0.2547776 0.6498541 -0.90772426 -0.33655623 -0.07792594 -0.0984922 0.088624984
0.012990832 0.050806157 -0.04694151 0.24629529 0.96184635 -0.05230338 0.009805715 0.0052766306
-0.397669 -0.42386985 -0.06658536 0.062246308 0.15173455 -0.8431425 -0.07801489 0.6734764
-0.042026747 -0.008346619 -0.09315459 0.09627081 -0.057044365 -0.154192 -0.020749858 0.054066975
0.2925341 -0.596385 -0.12996903 0.19616495 -0.0102766715 -0.61418647 0.0045353323 0.24460243
-0.08230082 -0.02133866 0.14192659 0.052009173 0.026414227 -0.38802165 -0.3253512 0.53388137
0.021651926 -0.43651748 -0.03544484 0.1843391 -0.025096493 -0.7457289 -0.013269362 0.39642057
0.01632326 0.09391158 -0.01807918 0.0022097894 -0.020216433 -0.14920689 0.0042888043 0.14463182
0.1830555 -0.10509166 -0.26778963 0.071340516 0.034916826 -0.054339007 0.007402445 0.038334984
0.032313686 -0.63226503 -0.08924144 -0.19959177 -0.100633696 -0.0018467424 -0.0046056765 -0.01018373
0.22199012 0.011456776 0.059111074 -0.29721078 -0.019744404 -0.5432094 -0.124785 0.581143
-0.595822 -0.010421873 0.0891266 -0.18905771 0.0023222521 -0.04502874 0.013994318 0.026556013
-0.05966862 -0.08791411 0.017923255 0.101000816 0.014455142 -0.40010065 -0.013867733 0.27593368
0.014628245 -1.266828 -0.0010477965 0.48474985 0.13893786 -0.714801 -0.2729619 0.48690143
-0.008362446 -1.1511606 0.0061011314 0.3994442 0.28559488 -0.2385203 0.2001805 0.013472968
0.28084823 -0.65603286 -0.11060136 0.17569332 0.6635976 -0.26691282 -0.1389114 0.39943045

q.layers.0.bias f4 [400]
00000000: b0bc 34c0 0c78 16c0 326a 3040 5e6c 2a3e
00000010: f004 a0bf 6bfc 933f 522e 3140 ddf1 febe
00000020: 4aff c3bc 162b a0be 71d0 c03f 1fda 2b3e
00000030: f938 c0bf b2f9 3540 b612 3ebf 9930 db3f
00000040: 0629 2bbf 4320 3bc0 53eb efbf 6e1f 1c3f
00000050: e349 1dc0 641c 523f ce95 73bd 48ab 92bf
00000060: 2c72 0f40 ad2a 21bf e33b 4fc0 03fa 1540
00000070: 0082 3a3e 4b18 2ec0 5e8e 9fbe e97f 383d
00000080: 9473 4440 ef54 44c0 ce71 3e40 e05b d43f
00000090: 530d 0740 dfb4 d5be edc3 0e40 fd56 c93f
000000a0: 0f82 29bf 1324 65be 9d01 2640 a05c 8ebf
000000b0: a379 e1be 50fd ccbe f198 60c0 cf47 d0be
000000c0: 8f09 cebf 988f 1540 8a46 18c0 fb7d 1a40
000000d0: a19f 4540 a9c6 d8bd 32fe 1540 049f 00bf
000000e0: 9b6f 1140 fed0 fb3e cfc9 46bd 85e4 23bf
000000f0: 7161 1ebe d8b6 dd3f 121e 6fbf 771e eabf
00000100: ee99 87be 4a6c 4ac0 c41b 00bf ec6b 16c0
00000110: 7367 46c0 2a92 3940 de21 8f3e c390 92bf
00000120: b345 8ebf b9f6 2f40 8f52 0f40 1d47 6dbf
00000130: 1b1b b9be efd4 1e40 968e a2bf 7147 56bf
00000140: dc8c 7abf 75a7 21bf 5651 113f 30f3 0ac0
00000150: d8f1 0a40 8af8 e83d de8d c63f 9a14 2a40
00000160: 3513 e8bf 41f4 6abf e372 10bf 3d83 0abf
00000170: 37af 613f 29fa 7fbf 192e 01be 8187 e3bf
00000180: 485e 96be ceef 1640 baa5 1e3e c130 21bf
00000190: beee b9bf 1fc5 1ebf aef3 1c40 9bf0 babf
000001a0: 0964 e53f 91ba 86bd f240 9e3f d36e 2740
000001b0: 7904 31c0 7058 6440 4fb5 4abf ac79 2240
000001c0: 3064 af3f 261f c2bf e95f 46bf 1a41 16bf
000001d0: 4864 25bf 8889 d3be f9a6 22c0 b2c4 2340
000001e0: a6ab 7dbf 0f33 5bc0 21e2 cabe dee8 cbbe
000001f0: 7ad2 dbbf 549b 1940 b2b3 6cbf 62a1 12bf
00000200: f190 653e 4c56 27c0 44e7 bcbf f2d3 1240
00000210: a53a 71bf 8ca5 b33d 68aa cbbe a467 1040
00000220: c35e a4be b4fa 72c0 4e60 d4be 6342 2b40
00000230: 6fda 2cbf 0eea 02bf ccdf febf df31 19bf
00000240: 257b 963e 1c50 be3f acb8 38bc 5725 46c0
00000250: 0904 0140 1013 1c40 db01 80be c60c acbe
00000260: 3f93 81bf b6b4 dabf 2bc5 963e 9172 923f
00000270: be12 0940 4ec8 babf 6fea 3840 538f 513f
00000280: cb74 2b40 521d 0e3f f5a1 1940 c1cb cb3e
00000290: ba8e ff3f 3150 44bf 5047 84bf d758 ed3f
000002a0: 6dbf c13e b15f 4640 2ddb e83e 6533 b7bf
000002b0: 651f 25bf bd6f 1740 427b 6940 9e5e 3440
000002c0: fdfb 2140 839a 9abf 59bf 0c40 f2b0 17c0
000002d0: a7d5 823d d08b 1bbf 3a41 743f 6ca2 83bf
000002e0: 2c08 7c3f 4a20 b73f cfa9 17c0 a6b2 8cbe
000002f0: a7cc 493f a90a 0240 2d33 1ebf a644 21bf
00000300: d84f d2bf 895c 18c0 cf4b 42bf 454c 30c0
00000310: 6d4f afbe ea59 1140 f442 a73f 81e9 783f
00000320: 56b9 3cbd f89b bb3f e806 4bc0 d4c4 463f
00000330: 2033 debd d823 a6bf 59dc 9ebf 143c 4240
00000340: 5c34 c5be 50fc 2a3d 8876 503f 37e8 ecbf
00000350: 8116 a1bf f936 52bf 3911 23bf fcea 01c0
00000360: 0011 cdbf 6226 49bf 4706 a03e d5fa ec3e
00000370: 3c55 98be ec58 0b40 a6e3 053f 9d0a 21c0
00000380: 3273 da3e a1ff 253f 6642 0740 f403 a9bf
00000390: 9294 3040 8641 03bf 860c d2be a806 2440
000003a0: ffc5 1340 018b 8a3f 74cc 0f40 b45d d1bc
000003b0: 89b0 8dbe 39d1 94bf 080b 1cbf f360 d83f
000003c0: e4ab 58be 974b 14c0 23ba 2840 0eaf 21bf
000003d0: acfd 3fc0 8529 a43f 4c67 893f 9011 0abf
000003e0: 2e8f 56be 6197 ad3f 09e4 d3bd f901 fdbe
000003f0: 2d4b 1dbf 4f7b 0ebf 76d8 febf 063b abbe
-2.8240166 -2.351077 2.7564816 0.16642901 -1.2501507 1.1561407 2.7684522 -0.49793902
-0.023925442 -0.31282872 1.5063611 0.16782425 -1.5017387 2.8433652 -0.742473 1.7124206
-0.6685947 -2.923844 -1.874369 0.6098546 -2.4576347 0.8207457 -0.059469037 -1.1458521
2.2413435 -0.62955743 -3.2380302 2.3433845 0.18213654 -2.7202327 -0.31163305 0.04504386
3.0695543 -3.067684 2.975696 1.6590538 2.1101882 -0.41739556 2.2307084 1.5729672
-0.6621408 -0.22377042 2.5938485 -1.1122017 -0.44038114 -0.40037012 -3.5093348 -0.40679786
-1.6096667 2.3368893 -2.3793054 2.4139392 3.087868 -0.105847664 2.3436399 -0.5024264
2.2724369 0.49182886 -0.048532303 -0.6402057 -0.15466858 1.7321424 -0.9340526 -1.8290547
-0.26484627 -3.1628594 -0.50042367 -2.350337 -3.100064 2.8995461 0.27955526 -1.1450428
-1.111502 2.7494338 2.239414 -0.92686635 -0.36153492 2.4817464 -1.2699764 -0.8370276
-0.97871184 -0.63146144 0.56764734 -2.171093 2.171011 0.1137553 1.5512044 2.6575074
-1.8130862 -0.9177895 -0.56425303 -0.54106504 0.8815798 -0.9999109 -0.12615241 -1.7775728
-0.29368806 2.3583865 0.15492907 -0.6296502 -1.4525983 -0.6201953 2.452373 -1.4604677
1.7921153 -0.065785535 1.236357 2.6161392 -2.765898 3.5678978 -0.79182905 2.5386763
1.370245 -1.5165756 -0.774901 -0.5869309 -0.6460614 -0.41315866 -2.5414412 2.5588803
-0.9909004 -3.4249914 -0.39625648 -0.398261 -1.7173607 2.4001055 -0.92461693 -0.572775
0.22418572 -2.6146421 -1.4758077 2.294186 -0.9423011 0.0877181 -0.39778447 2.2563257
-0.32103547 -3.7965517 -0.41479725 2.675927 -0.67520803 -0.5113839 -1.9912047 -0.5984172
0.29390827 1.4868197 -0.011274498 -3.096029 2.0158713 2.4386635 -0.25001416 -0.33603495
-1.0123061 -1.7086399 0.29447302 1.1441213 2.141769 -1.4592378 2.8893087 0.8185932
2.6790035 0.5551349 2.40051 0.3980389 1.9965432 -0.7668486 -1.0334263 1.8542737
0.3784136 3.0995905 0.45479718 -1.4312559 -0.6450103 2.366195 3.648148 2.818275
2.5310051 -1.2078403 2.199179 -2.370175 0.06388407 -0.6076021 0.9541203 -1.0283942
0.9844997 1.4306729 -2.3697393 -0.27480048 0.788279 2.0319006 -0.6179684 -0.62995374
-1.6430616 -2.380648 -0.75896925 -2.7546551 -0.34240285 2.271113 1.3067307 0.972313
-0.046075188 1.4656973 -3.1722965 0.77644086 -0.10849595 -1.2979689 -1.2410995 3.0349169
-0.3851651 0.04174453 0.81430864 -1.8508366 -1.2584993 -0.8211513 -0.63698155 -2.0299673
-1.6020813 -0.7857419 0.3125479 0.4628512 -0.2975253 2.1773024 0.5230049 -2.5162728
0.42666012 0.64843184 2.1134276 -1.3204331 2.759068 -0.51271856 -0.4102518 2.5629063
2.3089597 1.0823671 2.2468538 -0.025557376 -0.27673748 -1.162635 -0.6095433 1.6904587
-0.21159321 -2.3171136 2.636361 -0.6315774 -2.999858 1.2825171 1.0734649 -0.5393305
-0.20953056 1.3561822 -0.10346229 -0.49415568 -0.61442834 -0.55656904 -1.9909809 -0.3344347

q.layers.1.weight f4 [300, 400]
00000000: e322 0fbc 8df3 66bd 9b61 cfbc 070b f73c
00000010: 846d 243c bb9c 8fbd 2d91 32bc 91e0 5b3a
00000020: a50b f1bc 3707 d23c fbc5 fdbc 0164 d83c
00000030: 545c d6bc bb51 8d3c 5c1c cc3c bd15 22bd
00000040: b904 07bd 5305 a5bc 7685 69bd 9e58 37bd
00000050: bd92 75bd eb26 cfbd 0018 aa3a 6a59 33bd
00000060: bd2d 33bd ce7d 51bd 4423 433c 6a1b 91bd
00000070: 4a6a 06bd 2abf 86bc 0d41 0abd e960 9e3c
00000080: ceef 77bc e270 533c 5a46 8ebc 080f 91bb
00000090: 99a2 d93c a31f dabc b3e7 bc3b 57a3 56bc
000000a0: ea42 0abd 6835 b5bc 267f 223d 5d44 9abb
000000b0: ba4e c73c 8058 0f3c 5321 a0bc 0b1c 2cbd
000000c0: 29b4 3cbd 41b3 38bd 99a0 8cbd f6a6 8b39
000000d0: 29e8 c0bb 6423 8cbc c55c eab9 dd16 b5bc
000000e0: de5f f53c b71f d23c ab21 74bd fa1d 963c
000000f0: 82e7 ecba 3bf7 503c 07c4 e4bc 1f57 29bd
00000100: 76cd 0bbc eaa5 333d 3849 44bd 52a6 91bd
00000110: 16cf afbd 6554 e9bc 026c 44bd 67aa 193c
00000120: 4525 74bd 2ee8 9a3c 5cff 213d 436e 3bbd
00000130: 68fb 0e3c 0948 76bd 3476 2f3c 60e6 bdbc
00000140: 22a3 9fbd 0790 5fbd 2c14 6fbd cde4 993c
00000150: 37b3 37bd a0cf b5ba a522 37bd bdc1 203c
00000160: 6cb1 4bbd 1765 13bd b0de 1fbd f849 81bd
00000170: ed39 bcbc 6898 74bd 8641 ebbc f4a7 33bd
00000180: e77b 37bb 48f1 d5bb 6e4b 49bd 00c7 0ebd
00000190: c973 dcbd 9303 123c 4f96 10bd 9eeb 05bd
000001a0: 8155 f3bb f318 803d 9f91 0c3b 39d4 1dbd
000001b0: 2f02 89bc 3b4d b33c d5cb 09bd 29f9 34bd
000001c0: a59f 6ebb d484 97bc ab8d 80bc d6c7 16bc
000001d0: 23ed 81bd 974f bbbc 6bbb a23b adc1 17bd
000001e0: c436 c8bc f6b6 1dbd 54be 06bd a382 0cbc
000001f0: 5467 66bc c17e 973b 0b50 7ebc 4d72 283c
00000200: e685 f0bb 03e3 39bd 346a 91bc 3f13 9e3b
00000210: 5474 13bd 857a 383b 1e3e 06bd 9c0a 06bc
00000220: 4088 9e3c eff3 d3bd 714c 013d f359 ac3c
00000230: d7c3 dabd 0f15 db3c fa5f 31bd 1ae0 09bd
00000240: 441d 02bd bb05 47bd b4c2 ed3b 68bd 94bd
00000250: e09b 85bd 3987 99bc 5ed0 893c e3ae 1d3d
00000260: e20a cd3c 079a 47bd 6bc8 13bd f75d 9abd
00000270: d770 ee3c 3395 87bd 8af4 f9bc 8c48 57bc
00000280: f3e1 843c c987 63bd 9f95 8cbc bf56 7ebb
00000290: 034c f0bd d7dd b13b f125 eebb 05d9 55bd
000002a0: 2aef d7bc 039f 183d cf3b debd 56e3 3dbd
000002b0: 9b67 883c 2c69 22bc e8c8 00bc fb7b b33b
000002c0: 269a 263c 6769 f1bc f66f 4fbc a32d b1bc
000002d0: f8cc 6bbd b029 d1bb b53f 5cbd e37e 7dbd
000002e0: abe2 f3bc ead9 5d3d bbb9 62bc 85fe 6b3d
000002f0: fa71 14bd 6e2d 6abd f163 28bd fc03 6b3c
00000300: 081d 59bc 0263 11bd cb6d b6bb 5aa3 7ebc
00000310: b20a 9aba e9fd 04be b355 09bd 27e8 75bd
00000320: 0f74 bb3c 825b 82bd abf8 25bc 366c e43c
00000330: 42ee 82bd bb93 7cb9 3167 3fbd 7375 1ebc
00000340: a516 95bd 4e76 96bd 7386 cb3b 95c6 99bd
00000350: d4ab 9b3c cbfe 20bd 19fd 293d b24a 143c
00000360: 6154 7e3b bf63 12bd c9ae 69bd b7c9 aebd
00000370: 1f3b a73d a472 1abd ff65 b4bd 4e5c 99bd
00000380: f158 7ebc 739c 90bd a780 8cbb bc91 75bd
00000390: 0ec0 4d3d 8d38 43bc c3da b6bc ab81 41bc
000003a0: 8cbb c03b e51d e23c 1269 59bd 2abd 5f3b
000003b0: 35c1 e83c ece0 d5bb 73e1 b53d f445 5f3c
000003c0: 7062 80bb 9b3f 7a39 f6f5 8fbd 217d 63bd
000003d0: dc1e 9cbd 5283 ee3c 0ba2 ddbc bfe0 bcbc
000003e0: 008b 30bb 26ed 0bbd 806f 49bc 4684 de3c
000003f0: 45cf 063c 7451 18bc 5cf5 9cbd 9491 36bd
-0.008736345 -0.056384612 -0.025315097 0.030156625 0.010035876 -0.07012316 -0.01089887 0.000838765
-0.029424498 0.025638206 -0.030978194 0.026414873 -0.026167072 0.017250886 0.024915867 -0.039571512
-0.03296349 -0.02014414 -0.057012044 -0.044762246 -0.059954394 -0.10114845 0.0012977123 -0.043786444
-0.04374479 -0.051145367 0.011910263 -0.07085307 -0.03281621 -0.016448576 -0.033753444 0.01933332
-0.0151328575 0.012905331 -0.01736753 -0.0044268407 0.02656679 -0.026626414 0.0057649254 -0.013100467
-0.03375522 -0.022120193 0.03967204 -0.0047078566 0.024329532 0.008749127 -0.01954714 -0.04201893
-0.04607025 -0.045092825 -0.06866569 0.00026636542 -0.0058870506 -0.01710672 -0.00044701077 -0.022105629
0.02995294 0.025649888 -0.05960242 0.01832484 -0.0018074366 0.012754257 -0.027925504 -0.04134285
-0.008532872 0.0438594 -0.04792139 -0.07111801 -0.085844204 -0.028482625 -0.047954567 0.009379006
-0.059605855 0.01890954 0.03955017 -0.04575945 0.008726932 -0.06012729 0.010709334 -0.02318114
-0.07794787 -0.054580715 -0.058368847 0.018785859 -0.044848647 -0.0013871081 -0.044710774 0.009811816
-0.04972975 -0.03598508 -0.03903073 -0.063129365 -0.02297684 -0.05971566 -0.028717767 -0.043861344
-0.0027997436 -0.006529007 -0.0491442 -0.03485775 -0.10764272 0.008911985 -0.035299595 -0.032695405
-0.0074259643 0.06254759 0.0021449102 -0.03853247 -0.016724674 0.021887412 -0.033641655 -0.04418293
-0.0036411074 -0.018495955 -0.015692553 -0.009202918 -0.06344058 -0.0228651 0.0049661896 -0.037049938
-0.024440177 -0.038504563 -0.032896355 -0.008576068 -0.014062721 0.0046232645 -0.015522013 0.010281158
-0.0073401807 -0.04538251 -0.017750837 0.0048240717 -0.03599961 0.00281492 -0.032774083 -0.00818124
0.019352078 -0.10349261 0.03156704 0.021038985 -0.10681885 0.02674344 -0.04330442 -0.033660986
-0.03176619 -0.04858945 0.0072558764 -0.07262689 -0.065238714 -0.018741237 0.01682299 0.038496863
0.025029603 -0.048730876 -0.036079805 -0.075374536 0.02910654 -0.06620254 -0.030512113 -0.013139855
0.016221022 -0.055549417 -0.017161189 -0.003880903 -0.11733248 0.0054280567 -0.0072677066 -0.05220892
-0.02635916 0.03726102 -0.10851251 -0.046359383 0.016650965 -0.00991277 -0.0078604 0.005477426
0.010168588 -0.029469205 -0.012660971 -0.021628207 -0.05756852 -0.0063831434 -0.053771693 -0.061888587
-0.02977117 0.054162897 -0.013838227 0.057615776 -0.03624151 -0.05717223 -0.041110937 0.014344212
-0.0132515505 -0.03549481 -0.0055672876 -0.015541876 -0.0011752455 -0.12987484 -0.033528995 -0.06003585
0.02288249 -0.0636511 -0.010130088 0.02788363 -0.063931 -0.00024087627 -0.04672927 -0.009671557
-0.0727971 -0.073467836 0.006211096 -0.0750858 0.019002832 -0.03930549 0.04150114 0.009051012
0.0038807618 -0.035739657 -0.057051454 -0.08534568 0.08165573 -0.037706986 -0.08808517 -0.07488309
-0.015524135 -0.0706109 -0.0042877975 -0.059953436 0.050231986 -0.011915338 -0.02232111 -0.0118107
0.0058817323 0.027602145 -0.05307872 0.003413985 0.02841244 -0.006527057 0.08880892 0.013627518
-0.0039179847 0.00023865553 -0.07029335 -0.055539254 -0.076230735 0.029115353 -0.027054807 -0.023056386
-0.002693832 -0.03416171 -0.01229465 0.027162682 0.008228128 -0.009296764 -0.07663986 -0.044572428

q.layers.1.bias f4 [300]
00000000: 3f96 e7bc a3ed 92bd dcee d43f 3ac1 8fbc
00000010: 3ccc b4bc e095 88bd 8d02 efbd 0a2a 1ebd
00000020: d4d9 19bd 0942 29bd 59b0 7fbd dc44 3dbd
00000030: 7e22 b73e 36fb f2bc 5e34 3abd 9632 803c
00000040: f7f6 1dbd f551 9c3f e0e2 903c bed3 17bd
00000050: 2a7f 1abd 04a6 6cbd 3892 b3bd fbea b73d
00000060: 750f 2cbd 1379 4bbd 4f57 f53e 1ee4 fc3f
00000070: a6ab 00bd 0abb febc bf00 d7bb 024e 0e3c
00000080: a367 45bd ee3b f0bc 9de1 1bbd 0f68 02bd
00000090: 9a85 593d 89fc 76bd 7e25 15bd db2e 81bc
000000a0: 96e6 3fbd 2070 0abd f53c 23bd dd2c bc3a
000000b0: 688b c7bc 00c1 46bd 7f17 acbc 4f30 ad3f
000000c0: c702 babc 4177 213a fc3c 4fbd f7a2 12bd
000000d0: 1d5b 09bd 5eb8 91bd eada 413e ae30 f6bc
000000e0: f280 cd3f 6966 25bd 7c8b af3f 9b51 11bd
000000f0: 02d3 62bd 40cb 3cbd 3b70 b8bd d023 693b
00000100: 16d9 c7bd 39da 82bd 3f5e 1abd 9181 3ebd
00000110: eb1d 49bd 8562 6dbd 1b18 18bd 92f4 c7bc
00000120: e1fd 8abd 5cb8 bfbc 5293 68bb 9973 14bd
00000130: e80c e7bc bfd9 55bc aa3a 043f 6949 c9bc
00000140: 8190 21bd 8aff 61bd a29c 01bd f645 82bd
00000150: 253c 88bc 2836 17bd daff a73f 171c 663c
00000160: 8c7c 19bd 7e22 3bbd 419d c4bc 3812 173f
00000170: 60d2 d83f cf60 8abc df20 013e a13f 0bbd
00000180: 1acc 12bf d239 09bd 337c 42bd 5811 7ebd
00000190: cb0c 8ebd d4c6 47bd 1734 93bd 2de4 01bd
000001a0: 6c8c 16bd 210b 18bd acad 17bd 2de5 01bd
000001b0: 9c98 1abd ceca 16bd 348f a53e daa4 12bd
000001c0: 373b fcbc 7dcb 16bd 278b 43bd 9a7b 25bd
000001d0: d0af a5bc 1e65 16bd b228 43bd e8e5 e0bc
000001e0: 47fd 24bd 4e05 69be e5ec 4abd cfa4 2cbd
000001f0: be3e f7bc 0354 83bf b99d 1abd 0856 483e
00000200: efc0 19bd 3870 4dbd b1f7 ee3d d824 93bb
00000210: dcb9 71bc 42d7 3dbd 8d2e 70bd 8569 24bd
00000220: 8daa f2bc 5f6b 20bd cebb 02bd d9e9 8fbd
00000230: 8920 973d d225 29bc 297a 1abd 408d 42bd
00000240: 4d61 8dbd a551 abbc 4903 21bd 1bfc 09bd
00000250: 6f9f 8dbd 6048 4fbd ceea 28bd 9723 19bd
00000260: 4863 bebb 9c1b 8f3f e9db c3bd e4bf 01bd
00000270: 148c 1abd bd99 423d 330b ddbc 1481 a3bd
00000280: 8feb 80bc b878 1740 a776 99bd 2b21 ca3f
00000290: 6e09 1abd f5aa dc3e 17a3 8b3f 5f06 d3bc
000002a0: f8d4 01bd d396 aabd d569 21bd 7afd 1ebd
000002b0: 55ce 71bc 2891 fbbc 807e d53d e813 aa3e
000002c0: a4ce 23bd 788d 5dbc 754b 153f 662e 1cbd
000002d0: 9d49 36bd 7a45 c7bc 8a00 a5bd b181 b9bc
000002e0: 14a3 31bd 9ddb 7cbd 2132 1cbd 3ead 1bbd
000002f0: b2b0 0abc 9d7a ccbc d45a b7bc ea6e 0cbd
00000300: 919f 6bbd 7ce1 a8bd 4305 63bc 8ffd 8bbc
00000310: 5fe2 13bd 9e7b 07bd 5912 503d 133f 263d
00000320: 19cf 8cbc 2349 87bd 07cd 9abd 84ad efbb
00000330: 5da5 01bd 2bde 01bd 5de7 dc3b 3778 debc
00000340: e1f6 91bd a569 413f d509 a3bc a829 af3e
00000350: 408e 0fbd ee47 e9bc 74af 10bd 3cdc 1ebd
00000360: dc22 36bd 87e8 05bd 05ee e8bc 3176 a73f
00000370: 551f fbbc 4713 56bd e510 97be d980 56bd
00000380: 9ac6 3abd 3d94 5dbd 37c7 a03f 1f1c d73d
00000390: e13e 15bd 788d 18bd 3613 11bd fdc6 1dbd
000003a0: 5377 bbbc 14aa 4e3f 358b 813e 35cd 16bd
000003b0: 2bf8 80bc 4b5f 31bd 01d8 2bbd 9eb3 6ebc
000003c0: 56bc 8dbd 87dc 12bd 298d ebbc ea25 16bd
000003d0: 5db2 19bd a0b2 2ebd 15b8 12bd 6e2f 12bd
000003e0: 5723 febc 6a63 6fbd 11ad d8bc c9ff edbc
000003f0: 47f0 febc 95ae 24bd 20d1 35bf 4502 08bd
-0.028269885 -0.07174232 1.6635394 -0.017548192 -0.022070043 -0.066692114 -0.116704084 -0.03861431
-0.037561253 -0.04132274 -0.062424038 -0.046208248 0.35768503 -0.029660802 -0.045460097 0.015649121
-0.038565602 1.2212511 0.017686307 -0.037067167 -0.03771893 -0.057775512 -0.087681234 0.08980366
-0.04200693 -0.049676012 0.47918174 1.9757116 -0.031413697 -0.031095047 -0.0065613682 0.008685591
-0.04819454 -0.029325452 -0.03805696 -0.03183752 0.053105928 -0.06029943 -0.03641271 -0.015769413
-0.046850763 -0.033798337 -0.039853055 0.0014356632 -0.024358466 -0.048523903 -0.021007298 1.3530368
-0.022706402 0.0006159433 -0.05059527 -0.035799947 -0.033534158 -0.071152434 0.18931165 -0.03005251
1.6054976 -0.04038087 1.3714442 -0.035478216 -0.055377014 -0.04609227 -0.09005781 0.0035574324
-0.09758203 -0.06389279 -0.037687536 -0.046510283 -0.049100798 -0.057955284 -0.037132364 -0.024408612
-0.06786705 -0.02340334 -0.00354882 -0.036243055 -0.028204396 -0.013052403 0.51652014 -0.024571138
-0.03944445 -0.05517534 -0.031643517 -0.06361 -0.016630242 -0.03691688 1.3124955 0.014044783
-0.037472293 -0.04568719 -0.024000766 0.59012175 1.6939201 -0.016891865 0.12610196 -0.033996228
-0.57342684 -0.033502407 -0.047481727 -0.06202826 -0.06936034 -0.0487736 -0.0718767 -0.031711746
-0.03675501 -0.03711999 -0.03703086 -0.0317127 -0.037743196 -0.036814503 0.32335818 -0.035801746
-0.030789955 -0.036815155 -0.047740128 -0.04040108 -0.020225435 -0.036717527 -0.047646232 -0.027453378
-0.040280607 -0.2275593 -0.049542326 -0.04214936 -0.030181285 -1.0260013 -0.037748072 0.19564068
-0.03753751 -0.05015585 0.11668337 -0.004490476 -0.014753785 -0.046347864 -0.058638144 -0.040139694
-0.02962234 -0.039164897 -0.031917386 -0.07027025 0.073792525 -0.0103239585 -0.037714157 -0.047497988
-0.06903324 -0.020912955 -0.039309774 -0.033687692 -0.06915175 -0.05060613 -0.041239552 -0.037387457
-0.005810175 1.1180301 -0.09563429 -0.03167714 -0.037731245 0.047509898 -0.02698288 -0.07983604
-0.015737323 2.366743 -0.07493334 1.5791372 -0.03760665 0.4309918 1.0909146 -0.025759874
-0.031697243 -0.08329549 -0.03940757 -0.038815953 -0.014758666 -0.030708864 0.104245186 0.33218312
-0.03999199 -0.013522498 0.58318263 -0.038130186 -0.044503797 -0.024325121 -0.080567434 -0.02264485
-0.043368414 -0.061732877 -0.038133744 -0.038007013 -0.008464979 -0.02496081 -0.022382177 -0.034285463
-0.05752522 -0.08246133 -0.013856235 -0.01708868 -0.036104556 -0.033076875 0.050798748 0.040587496
-0.017188596 -0.066057466 -0.07558637 -0.007314386 -0.031651843 -0.031706017 0.006741448 -0.027156932
-0.071271665 0.75551826 -0.01990215 0.3421147 -0.03504777 -0.028476682 -0.035323575 -0.03878425
-0.04446684 -0.03269246 -0.028433809 1.3082944 -0.030654589 -0.052264478 -0.29505077 -0.052368972
-0.045599557 -0.05409645 1.2560796 0.105034105 -0.03643692 -0.03724429 -0.03541871 -0.03851985
-0.022884047 0.8072827 0.2530152 -0.036816794 -0.015743336 -0.04330377 -0.041954044 -0.014569191
-0.06920688 -0.035854843 -0.028753834 -0.03665725 -0.037523616 -0.04265082 -0.035820086 -0.035689764
-0.03102271 -0.058444418 -0.026449712 -0.029052632 -0.031120433 -0.040205557 -0.71022224 -0.03320529

q.layers.2.weight f4 [4, 300]
00000000: 73e7 5b3c dcf7 23bc 11ed c6bd 9f8d f2bc
00000010: 9555 29bd ae7e b03b a581 7ebd 20f1 543d
00000020: cce4 e23b 6b4e f4bc 3a04 813a e4d8 2ebd
00000030: 62c6 13bf 3e0a 09bd b8a1 363c 30fb d9bc
00000040: a858 eabc 6ae3 ff3d af92 2cbd a973 33bd
00000050: 9b06 503d f231 00bd 6343 70bd c791 ac3c
00000060: 6e97 363c 4958 e4bb 9ef4 5cbc 5e0f 603e
00000070: f7c6 9bbd 6a5c 2fbd 0ae2 19bd 7d2f 473c
00000080: e3a0 243d b147 5b3c 43a2 61bd 0403 873c
00000090: f8f5 4cbd 6197 31ba 82e8 a43b 90c6 85bc
000000a0: 4daf e1bc 0e91 913c bb15 1ebc 2b67 0ebd
000000b0: 36b0 0c3a 1fba 603b 4c35 88bd fe1f ad3d
000000c0: 6939 10bc 6239 42bc 112d 0f3c 6473 a1b9
000000d0: 229a 66bb a031 8bba b8e3 39bd 43e2 60bd
000000e0: e364 7f3c afaf 09bd 9fd1 033e 8fe1 02bc
000000f0: 439a d4bc b970 f3bc a565 033d cf2a 2bbd
00000100: 538b 75bb bc72 753d 3ccf ab3c 410e af3b
00000110: 194f 503d b92b 8bbb b576 cd3c eeee 18bd
00000120: 8450 ccbc 96a2 083d 5342 ffbc c248 e5bb
00000130: 2aac 0e3d 4604 b8bc f74e 3abd 848e 3ab8
00000140: f9c7 c93c 3206 a3bc 8cf3 29bd d44b 253d
00000150: 8a1a 2d3c 7555 d43c 1625 1a3e 752f 47bc
00000160: 8fd7 db3c 0d82 cfbc d51d e0bc 12a0 1f3e
00000170: ae24 a03e c557 b8bc 49dd d8bc 1823 893c
00000180: 805d 35be 5439 5e3c 5831 4fbc 2571 2bbc
00000190: 9ca0 74bb 7a24 bebc fb20 afbe 8bb8 04bd
000001a0: d3c7 4b3c 3041 ccbc e1cc 883c f1e5 39bd
000001b0: b482 48bc d4af c8bc 1b59 78bd 5b74 9fbb
000001c0: 65dc 0f3a b52c 54bc c418 febc c2d8 3d3c
000001d0: 61f4 debb 8158 143c d523 1b3d 93f5 ff3b
000001e0: 5a74 423c bd0a 883c 87f9 0bbc 3f96 0fbd
000001f0: 50fc 863c 54b7 20bc 0be4 84ba 2eab e53a
00000200: cb03 2c3c 002c e5ba badd b8ba d88c 813c
00000210: cb7b 833d 9f50 dc3c 2709 ef3b 156a dc3b
00000220: b67c d13b 1e8f 55bc 6b77 da3c 493a 543d
00000230: c523 09bc 5819 823a 3da1 993c 7491 73bc
00000240: 4ed3 a6bd 6d19 06bc 31e5 2abb 61d7 123c
00000250: db0d 9cba 0546 40bd 511d b8bc 5fea fdbc
00000260: 0f51 923c 6c8f 1fbf 350a 85bb 5c64 ea3c
00000270: cf03 cf3c 8e94 02bd 9534 c83c 319e d8bc
00000280: dd57 083d 1ac3 a03e fd4e 10bc 83b7 383e
00000290: 5e09 f33b 4a00 0c3d f9ce 083d e889 edbc
000002a0: 566c 143c bcb9 cf3c ec1f c2bc de6c 2a3c
000002b0: eca9 c93b 727f 49bc e046 45bb 1116 363c
000002c0: b2b7 f6bc 3e03 06bb a4e0 4fbf d577 47bd
000002d0: 956a 8c3b 4954 bcbc 0043 98bc ee73 3a3d
000002e0: 2c9d 16bd a281 bebb fc93 ad3c 299f 263d
000002f0: eefd 043c 2b5b 2f3b c66d 4d3d 6a1f e5bc
00000300: cf13 c6b9 97fd 5a3b e31f 80bd d639 f13c
00000310: 3471 f63c 98b1 89bc e737 d93c 62a0 ccbc
00000320: 8cf1 b7bc ab6f b03d 7de1 713d 8be6 15bb
00000330: 9ead 613d aa51 95bc 994a 88bb e11c cdbc
00000340: 933a 9e3d f78e 663e b204 adbc 606a 3abc
00000350: 7d29 9b3c 200c 2dbd 5e56 8b3b 970e 07bd
00000360: 66fd e8bc f2c4 053c 7206 c0bc c7d1 d33d
00000370: c776 7abc 80bf 9a3b 1634 9dbc c07a 3dbc
00000380: f371 953c 1fcc 43bc 96f5 a3bd c867 2bbc
00000390: 9e04 283d f231 163d 2cb5 4bbc 8f7c 243d
000003a0: 4aad 18bc 2246 7dbc d437 06be 4a0e 06bd
000003b0: 7064 d33b a4c4 0abb ca20 eabb 979e b73c
000003c0: d695 213b 85c4 9dbc dd91 48ba a011 57bb
000003d0: 9b47 e63c d99a 15bc 3632 46bb eb2b 043d
000003e0: 1880 8ebb cbd0 4c3d 8898 a4bc 0350 9b3c
000003f0: 3101 73bd dcc4 d03c b4bb 56bc 8c87 5abc
0.013421881 -0.010007825 -0.097131856 -0.029608546 -0.041341383 0.005386195 -0.062135357 0.051987767
0.0069242474 -0.029822549 0.0009843179 -0.04268731 -0.57724583 -0.033457033 0.011146955 -0.026609033
-0.028606728 0.12494548 -0.042132076 -0.043811474 0.05078755 -0.03129763 -0.058658015 0.021065606
0.011144502 -0.006968532 -0.013486056 0.21880862 -0.07606309 -0.042812742 -0.037569083 0.012157318
0.040192496 0.013383792 -0.055086385 0.01648093 -0.05003926 -0.00067745714 0.0050326 -0.016330034
-0.02754941 0.017769363 -0.009648736 -0.034766357 0.00053668336 0.0034290624 -0.066507906 0.08453368
-0.00880275 -0.011854501 0.008738772 -0.00030794286 -0.0035187085 -0.0010619648 -0.045383185 -0.05490328
0.015588018 -0.03361481 0.12872933 -0.007988348 -0.025952464 -0.029716836 0.032079358 -0.041788872
-0.0037467077 0.059923872 0.02097284 0.0053422754 0.050856683 -0.0042471555 0.025081018 -0.037337236
-0.024940737 0.03335818 -0.031159556 -0.006997199 0.034832157 -0.022462975 -0.045485463 -4.4478584e-05
0.024631487 -0.019900415 -0.04149203 0.04035552 0.010565409 0.025919655 0.1505321 -0.012157311
0.026836185 -0.025330568 -0.027357975 0.15588406 0.31277984 -0.02250279 -0.026472704 0.016740367
-0.17711449 0.013563473 -0.012646042 -0.0104639875 -0.0037327176 -0.023210753 -0.3420485 -0.032402556
0.0124377785 -0.024933428 0.016699256 -0.045385305 -0.012238193 -0.024497904 -0.060631853 -0.0048661656
0.00054878584 -0.012950112 -0.031017669 0.011587324 -0.0068040346 0.009054304 0.03787597 0.007811257
0.011868561 0.016606683 -0.008543379 -0.035055395 0.016477734 -0.009809334 -0.0010138763 0.0017522329
0.010498951 -0.0017484426 -0.0014104166 0.01581423 0.06420096 0.026893912 0.007294792 0.006726513
0.0063930405 -0.01303461 0.026668271 0.051813398 -0.0083703445 0.0009925766 0.018753642 -0.014866222
-0.08145772 -0.008184773 -0.002607655 0.008962483 -0.0011905985 -0.046941776 -0.022474917 -0.030995546
0.017860917 -0.6232822 -0.0040600547 0.028612308 0.02527037 -0.031879954 0.024439136 -0.026442619
0.033286918 0.3139885 -0.008807895 0.18038754 0.007416888 0.034179963 0.03340051 -0.028996423
0.009059032 0.02535712 -0.023696862 0.0104019325 0.0061542895 -0.012298452 -0.003010206 0.0111136595
-0.03011689 -0.002044871 -0.8120215 -0.048698265 0.0042851665 -0.022989409 -0.018586636 0.045520715
-0.036770985 -0.0058137933 0.021188729 0.04067913 0.008117182 0.0026757221 0.050153516 -0.027969081
-0.00037780261 0.0033415311 -0.06256082 0.029446524 0.030083276 -0.016808316 0.026515914 -0.02497882
-0.022454046 0.08615049 0.059052933 -0.002287301 0.055097215 -0.018227417 -0.0041592834 -0.025038185
0.07726016 0.22515474 -0.021120403 -0.011377901 0.018940682 -0.04224789 0.004252239 -0.0329729
-0.028441142 0.008164631 -0.023440573 0.10342746 -0.015287108 0.0047225356 -0.019189876 -0.01156491
0.018242812 -0.011950522 -0.08005826 -0.010461755 0.04102003 0.036668725 -0.012433331 0.04015785
-0.009318659 -0.0154586155 -0.13107234 -0.03272847 0.006451182 -0.0021174336 -0.007145022 0.022414489
0.002465596 -0.019258747 -0.000765113 -0.0032816902 0.028110316 -0.009131157 -0.003024233 0.032268446
-0.004348766 0.050003808 -0.020092264 0.018959051 -0.059327308 0.025484495 -0.013106275 -0.013337981

q.layers.2.bias f4 [4]
00000000: 9905 cf3f 5b5d 0d40 ae18 3b3f 3f42 00be
1.6173583 2.208823 0.73084533 -0.12525271
