pyt_save/MinnowvAaronSharkLowPunish.pt (torch_old, 495157 bytes, 6 tensors)

q.layers.0.weight f4 [400, 4]
000000 c1 01 a2 3b b6 5b 36 3d ef 47 1e bd 1d 42 0e bd
       0.0049440567 0.044521056 -0.03864282 -0.03473102
000010 9d 33 8c 3b 4e a3 4b be b3 8f b6 bd 78 e1 45 3e
       0.0042786137 -0.19886515 -0.08914127 0.19324291
000020 9a 87 a2 bb cd e3 ab bd 10 27 18 39 a2 36 00 bb
       -0.0049600126 -0.08393059 0.00014510402 -0.0019563814
000030 95 65 7c bc cb 84 1e bf c1 80 8c bb 16 29 9f 3e
       -0.015405078 -0.61921376 -0.0042878096 0.31086034
000040 56 e3 e5 3d 98 6a 4f bf 91 9a f4 bc ac f1 b8 3e
       0.112250015 -0.81022024 -0.02985886 0.3612188
000050 f7 33 da 3c 42 23 81 bd ee 0f 73 bb 2b e3 71 bc
       0.026636107 -0.06305553 -0.0037088352 -0.014763634
000060 f2 2a 11 be 76 d5 0b 3e 2d 29 6f bd 73 41 c7 bd
       -0.14176539 0.13655648 -0.058388878 -0.0972928
000070 47 27 bc bb da 73 d1 be c9 3b 29 3c fc 4b a0 3e
       -0.005741987 -0.409087 0.010329195 0.3130797
000080 a7 45 01 3e 4c 24 87 3c 97 be d2 bc 72 e7 7d be
       0.12624227 0.0164968 -0.025725646 -0.2479532
000090 11 57 42 3b 5b 08 48 be 3a db 0f bc e0 21 df 3d
       0.0029653946 -0.19534437 -0.008780295 0.10895133
0000a0 cf e3 d9 bc 60 f2 3e bd 53 cf db 3d 2c d9 28 3b
       -0.026597885 -0.046617866 0.10732903 0.002576421
0000b0 14 2c 51 3c c4 11 63 bf 0d b6 37 bb 74 54 42 3f
       0.012766857 -0.88698983 -0.0028032095 0.75910115
0000c0 4f be d5 3c db b4 ab be f9 0a a9 3e f7 b5 8d 3e
       0.026091723 -0.3353642 0.33016184 0.2767789
0000d0 43 0b 0d bd e3 7a 85 bd e0 23 94 3c 68 05 b8 3c
       -0.034434568 -0.065175794 0.018083513 0.022463515
0000e0 89 89 c9 3b d9 60 93 bd 7d fd a5 3c ab bf 87 3c
       0.0061504287 -0.071962066 0.020262474 0.016570887
0000f0 e7 c5 82 3e f4 a3 3b be be 8e 09 3c 76 55 0e 3a
       0.25541613 -0.18324262 0.008395849 0.0005429605
000100 21 7e ba 3e ae e8 50 3d 27 39 90 bd 07 3a 56 3e
       0.36424354 0.05100315 -0.07042151 0.20920573
000110 8b f8 d5 bd 28 a6 58 be 46 35 18 3e 83 d9 09 3e
       -0.104477964 -0.21157134 0.14864072 0.1346188
000120 54 75 2b bd 92 17 1d be cd d1 fe 3c 13 a0 2a 3e
       -0.04185994 -0.15341023 0.0311059 0.16662626
000130 cf 7b c0 be c2 36 23 bf a3 37 55 3e f8 8f 0e be
       -0.37594458 -0.6375543 0.20822005 -0.13922107
000140 a4 2b d8 3e 7b 26 1a be c1 34 d0 3c 00 59 19 bf
       0.42220795 -0.15053742 0.02541578 -0.5990143
000150 cd b1 cd bc a4 c6 00 bf 9e 4b cf bd 04 19 fe 3e
       -0.025109196 -0.503031 -0.10121845 0.4962846
000160 f3 a2 00 3c cd 60 0c bf f0 0d 97 ba 02 02 dd 3e
       0.00785135 -0.54835206 -0.001152454 0.43165594
000170 38 c4 01 3c 4a cd d0 bf 14 52 2b bc 1d 2f 7a 3c
       0.007920317 -1.6312649 -0.010456581 0.015270022
000180 71 0b 98 3e 81 cc 3c be 58 c2 c5 3d 5d 3f bc 3e
       0.2969623 -0.18437387 0.09656209 0.36767092
000190 f2 fc 36 3d 36 c2 66 bf e2 79 67 bd 5c 39 52 3f
       0.04467482 -0.9014009 -0.05651272 0.82118773
0001a0 40 32 17 be 7b 7d c0 bd 64 37 4d bd 5a 3e 96 3d
       -0.14765263 -0.093989335 -0.050101653 0.07336111
0001b0 a9 f2 2b bd 05 14 75 bd 6d f7 1e bc c3 d4 03 bb
       -0.041979466 -0.059833545 -0.009702546 -0.002011583
0001c0 0e 0b ad bd 51 38 b8 bd 62 18 22 bc 1d 07 df bc
       -0.08449374 -0.089951165 -0.009893509 -0.027225072
0001d0 ef 52 94 3d 9d b2 cf 3c 14 8c 5f bb 5b 26 de 3b
       0.07242381 0.025353724 -0.0034110593 0.0067794747
0001e0 73 5c 37 bc 43 c6 ee be d6 c1 f5 ba f2 b3 7d 3e
       -0.011191475 -0.46635637 -0.0018749784 0.24775675
0001f0 91 22 4b bd d0 e0 ca bf ba 86 c5 bc df a6 74 3f
       -0.049593512 -1.5849857 -0.024112094 0.95567125
000200 10 38 bf bc 58 ed a1 bd 9e 0c df bb 70 b7 ab bc
       -0.023342162 -0.07906598 -0.006806924 -0.020961493
000210 ae 5a 87 bf 97 cf a3 bd c9 48 d5 3c 6d 7a 46 bf
       -1.0574548 -0.07998579 0.026035683 -0.77530557
000220 76 93 cc bd 0e d0 aa bd 9c 05 b8 3b d3 90 20 bc
       -0.099890634 -0.083404645 0.005615903 -0.009800154
000230 b1 30 f2 3d b0 ab 17 bd 4f 63 40 bd b0 05 bd 3c
       0.118256934 -0.03702897 -0.046969708 0.023074001
000240 8e e1 bd bd 44 00 36 bd fe 5b c0 3b e0 b7 f5 3c
       -0.09271537 -0.044433847 0.0058703413 0.029994905
000250 81 99 ef 3c f6 84 6c bf 6f 58 21 3c e6 f9 24 3f
       0.029248001 -0.9239038 0.009847744 0.64443815
000260 c3 98 77 3c b3 dd 8b bd a4 2c c2 ba 05 43 ac 3c
       0.015112105 -0.06829395 -0.0014814329 0.021028051
000270 73 cb cd 3d c3 48 83 bd 6e 19 c9 3a ac 9a 95 bc
       0.100485705 -0.064103626 0.0015342662 -0.01826223
000280 63 f3 91 3c a8 5c 78 3c 67 20 1a be ae e3 17 be
       0.017816251 0.01515881 -0.15051423 -0.14832947
000290 7c 5f 28 bc 53 3b 1d bf 20 9d 94 3b 0f 79 7a 3e
       -0.0102766715 -0.61418647 0.0045353323 0.24460243
0002a0 85 74 b2 bb e1 94 c4 bc 8d f5 fa 3a fc a0 b6 ba
       -0.005446019 -0.023996772 0.0019146666 -0.0013933475
0002b0 fd 2c d5 bc e7 02 57 bf 8c 1a 9c bd e9 f2 f8 3e
       -0.026022429 -0.83988804 -0.07622251 0.48622826
0002c0 5c 0d f7 3c 5c cd 08 bf 29 e3 6b 3a a8 a8 7f 3e
       0.030157737 -0.53438354 0.0008998388 0.24966681
0002d0 29 97 cd bc 17 e8 3e bf bd 67 59 bc a3 f7 ca 3e
       -0.025096493 -0.7457289 -0.013269362 0.39642057
0002e0 e5 dd 9d 3d fb a2 f1 bc 6d ab 95 3d f0 ca b1 3d
       0.07708339 -0.02949666 0.073080875 0.086812854
0002f0 ef 9c a5 bc b1 c9 18 be 19 89 8c 3b 5d 1a 14 3e
       -0.020216433 -0.14920689 0.0042888043 0.14463182
000300 90 54 3f 3f 80 0c b1 bd ce 40 7f bc 3a 70 67 be
       0.7473841 -0.08644962 -0.0155794155 -0.22601405
000310 28 8a a9 3d e4 1d ac bc 42 e8 e2 3a 4a 9c 06 3c
       0.08278304 -0.021010347 0.001731165 0.008215973
000320 f3 1b 63 bd 21 47 23 3d d9 90 8a 3e 9f 5b a2 be
       -0.055446576 0.039862756 0.27063635 -0.31710526
000330 94 54 1e bd 42 79 f9 bc aa d7 e3 bc d3 c7 7c bc
       -0.03865488 -0.030453328 -0.027812798 -0.015428501
000340 69 90 8a 3d 8a d4 fa bc 2e 63 6b bc ed c4 92 bd
       0.06765825 -0.030618925 -0.014366908 -0.07166467
000350 14 af e4 3e 07 44 09 bf eb 74 a9 be da e7 b8 3e
       0.44664824 -0.53619426 -0.33097014 0.3611439
000360 b1 ed b8 bc 57 56 85 bd 79 b3 10 3c b4 3a cd 3c
       -0.022574278 -0.06510609 0.008831852 0.025052406
000370 ed 30 18 3b 0e 70 38 bd 6d 48 65 3c ff 8b d9 3c
       0.0023222521 -0.04502874 0.013994318 0.026556013
000380 53 5f 1d bd c8 43 af bd 62 25 8c bb b3 6e d5 ba
       -0.038420986 -0.0855785 -0.0042769173 -0.0016283601
000390 e3 53 af bd 92 d5 c3 bd 1d 25 2c bc 1c d5 ab bc
       -0.08560922 -0.0956222 -0.010506895 -0.020975642
0003a0 93 de 6e 3e 07 d4 97 bf 9c e7 9a be d8 90 69 3f
       0.23327093 -1.1861581 -0.3025483 0.9123664
0003b0 f5 27 a0 3e 9f 6f 80 be 71 21 0a bf 4c af d0 bc
       0.31280485 -0.2508516 -0.5395728 -0.025474213
0003c0 44 ab 5a 3c 3b 59 93 bf 19 b6 e3 3b f3 83 cc 3e
       0.013346497 -1.1511606 0.006949198 0.3994442
0003d0 d7 ce bc bc 7e 00 ad bd dc e0 47 ba 35 65 dd 3b
       -0.023047848 -0.084473595 -0.0007624754 0.0067564496
0003e0 dc a4 4d bf 9c df 0d be df 0f 65 3c ea 57 1a bf
       -0.8032968 -0.13854831 0.013980835 -0.60290396
0003f0 97 d8 a2 3f 51 76 0c be 99 a4 9a bd 84 e2 f4 be
       1.2722348 -0.13717009 -0.07550926 -0.47829068

q.layers.0.bias f4 [400]
000000 77 ec 3d c0 70 a5 1a c0 81 65 1a 40 b3 f2 19 be
       -2.9675577 -2.4163475 2.4124453 -0.15033989
000010 f0 04 a0 bf 73 6b 28 40 e5 f6 2d 40 a2 6b 06 bf
       -1.2501507 2.6315582 2.7181942 -0.52507985
000020 bc 3e e8 3f 16 2b a0 be bf 83 03 40 1e 91 61 be
       1.8144145 -0.31282872 2.0549161 -0.22028014
000030 d2 ec 96 bf b1 8e 42 40 10 41 63 bf a9 8d 3b 40
       -1.1791022 3.0399592 -0.8877115 2.9305212
000040 7a b2 b1 bf d7 58 5e c0 53 eb ef bf 33 a4 3d 3e
       -1.3882592 -3.4741724 -1.874369 0.18519668
000050 09 47 a2 3e 36 ce ad 3f ce 95 73 bd 48 ab 92 bf
       0.3169482 1.3578556 -0.059469037 -1.1458521
000060 49 2d cd 3f 6c e7 86 bf 66 c9 59 c0 ca c0 64 40
       1.6029445 -1.0539374 -3.4029174 3.574267
000070 c7 3b e7 3f b4 6c 72 c0 a6 de b8 be 6a cf fa be
       1.8065118 -3.7878847 -0.36107367 -0.4898637
000080 54 dc 60 40 de df 78 bf bd c4 32 40 a2 26 27 40
       3.5134478 -0.97216594 2.793258 2.611733
000090 ae 1d 61 40 14 eb 06 bf 3a 89 25 40 c4 f4 16 40
       3.5174365 -0.5270245 2.5865006 2.3586893
0000a0 88 17 1e bf 13 24 65 be 92 3f 46 40 82 7f c4 bf
       -0.61754656 -0.22377042 3.09763 -1.5351412
0000b0 d3 68 05 bf 50 fd cc be 26 e3 6d c0 cf 47 d0 be
       -0.52113074 -0.40037012 -3.716989 -0.40679786
0000c0 db 24 8d bf 5a 74 32 40 4e 08 48 bf f0 df 18 40
       -1.1026872 2.7883515 -0.7813767 2.388668
0000d0 e7 0d 36 40 b9 ca 8b 3e df a1 3a 40 04 9f 00 bf
       2.8445985 0.27303103 2.9161298 -0.5024264
0000e0 92 1e 2d 40 d7 05 35 40 fc ba 0e bf bb fc 63 3f
       2.7049909 2.8284814 -0.55754066 0.8905751
0000f0 2b 18 60 be 64 0c 13 40 5a c3 c4 3f a6 78 55 3f
       -0.2188422 2.2976313 1.5372117 0.8338722
000100 ee 99 87 be ad cc 54 c0 9e 38 a7 be ea 93 60 c0
       -0.26484627 -3.3249924 -0.32660383 -3.509028
000110 76 4c 55 c0 0f a2 46 40 9e 5b ff be c3 90 92 bf
       -3.3327918 3.1036413 -0.49874586 -1.1450428
000120 7a bd 43 bc 01 d9 13 40 ac 95 fc 3f 1d 47 6d bf
       -0.01194703 2.3101199 1.9733176 -0.92686635
000130 43 bd d5 be 18 eb 41 40 c3 9e a6 bf 71 47 56 bf
       -0.41745958 3.029974 -1.30172 -0.8370276
000140 83 8e 8b bf 95 0d 3a bf 2b eb 74 40 95 fb 0c c0
       -1.0902866 -0.72676975 3.8268535 -2.2028553
000150 4c 7f 57 40 5b d5 18 3e 57 a4 16 40 2b bf 40 40
       3.3671446 0.14925139 2.3537805 3.011668
000160 35 13 e8 bf 28 e9 b3 3e 88 8f 9d bf 3d 83 0a bf
       -1.8130862 0.35138822 -1.2309427 -0.54106504
000170 46 03 20 40 4d a5 8c bf 76 06 e2 3f aa 2b fa bf
       2.5001998 -1.0987946 1.7658222 -1.9544575
000180 a0 60 9b be ab d1 42 40 13 27 08 40 81 cf 09 c0
       -0.30347157 3.044047 2.127385 -2.15329
000190 be ee b9 bf da 73 18 bf b7 b1 40 40 51 01 bf bf
       -1.4525983 -0.59551775 3.0108469 -1.4922277
0001a0 6e 9f 40 40 9a 23 17 bf 0e 29 fa 3f 36 ed 1e 40
       3.0097308 -0.590387 1.9543779 2.4832282
0001b0 e7 41 2b c0 8c 57 73 40 be 91 4e bf 6d be 4a 40
       -2.6758974 3.8022184 -0.80691135 3.1678727
0001c0 01 29 44 40 c2 81 d7 bf cc 53 48 bf 27 2e 72 be
       3.0650027 -1.6836474 -0.78252864 -0.23650418
0001d0 48 64 25 bf 37 c8 e3 be 25 67 2e c0 55 e1 37 40
       -0.6460614 -0.4448869 -2.7250454 2.8731282
0001e0 b1 53 94 bf aa 0a 66 c0 38 72 db be 85 f7 91 bf
       -1.158804 -3.594401 -0.4286058 -1.1403662
0001f0 7a d2 db bf f4 4b 2e 40 85 be 9d bf 62 a1 12 bf
       -1.7173607 2.7233858 -1.2323767 -0.572775
000200 53 cc 6f be 8b 9e 32 c0 44 e7 bc bf 7b 06 77 40
       -0.23417787 -2.7909267 -1.4758077 3.8597705
000210 8c 0a 07 c0 c3 9d e3 3e fc e2 e5 be 8f 58 3b 40
       -2.1100187 0.444563 -0.44899738 2.9272802
000220 c3 5e a4 be 65 95 85 c0 f9 48 0d bf 87 cb 19 40
       -0.32103547 -4.1744866 -0.5518947 2.4030473
000230 3a 68 22 40 0e ea 02 bf cc df fe bf df 31 19 bf
       2.5376115 -0.5113839 -1.9912047 -0.5984172
000240 e1 aa b6 bf ea 82 34 40 3b 43 86 bf 26 9e 88 c0
       -1.4270898 2.8204904 -1.0489267 -4.269305
000250 20 60 14 40 09 4e 2e 40 98 9e 62 bf c6 0c ac be
       2.318367 2.723513 -0.88523245 -0.33603495
000260 3f 93 81 bf 9c 4d ee bf 58 6e 77 be e7 7f 23 40
       -1.0123061 -1.8617435 -0.24163187 2.5546815
000270 c1 13 55 40 2f a9 70 bc 37 29 45 40 c8 2b 3f 40
       3.3293307 -0.014688774 3.0806406 2.9870472
000280 68 28 34 40 ce e2 59 be 2a e5 1d 40 47 b0 a0 3e
       2.8149662 -0.21277925 2.467112 0.3138449
000290 6e 08 55 40 41 71 4c bf 50 47 84 bf 0a 23 2f 40
       3.3286395 -0.7986031 -1.0334263 2.7365136
0002a0 f0 ff 0e 40 16 1b 4c 40 fb 34 b9 be 65 33 b7 bf
       2.2343712 3.1891532 -0.36173233 -1.4312559
0002b0 d5 ad 33 bf 60 59 67 40 6f 1f 6c 40 87 0f 33 40
       -0.7018712 3.61483 3.6894186 2.7978227
0002c0 79 95 23 40 47 d8 9c bf a1 13 36 40 91 b7 20 c0
       2.555998 -1.2253503 2.844948 -2.511204
0002d0 ff 39 8d be d0 8b 1b bf 06 63 f1 3e 23 c3 8b bf
       -0.2758331 -0.6076021 0.4714586 -1.0918926
0002e0 3a a6 d7 3f 3d 83 5f 40 d0 02 2b c0 b2 19 b0 be
       1.6847603 3.4923851 -2.6720467 -0.34394604
0002f0 51 8d 17 40 7e 60 dd 3f 2d 33 1e bf fb de 2f bf
       2.3680003 1.7295072 -0.6179684 -0.68699616
000300 d8 4f d2 bf 81 dd 5b c0 dc 61 94 be 40 a1 30 c0
       -1.6430616 -3.4353945 -0.2898091 -2.759842
000310 c9 d1 5f 3f 44 dc 53 40 bd b8 ac 3f 58 15 2c 40
       0.8742948 3.310319 1.3493878 2.6888027
000320 78 ff 24 be fa 3d 11 40 81 38 52 c0 71 09 19 40
       -0.16113079 2.2694077 -3.2846987 2.3912013
000330 31 a4 0a be 7d 52 97 3e 76 9a c1 be be 9a 53 40
       -0.13539197 0.2955512 -0.37813157 3.3063197
000340 2e c7 52 bf 5c fb 99 3f e3 a2 12 40 c1 0a 04 c0
       -0.82335174 1.2029834 2.2911918 -2.0631564
000350 3e ce e7 bf f0 88 56 bf 4f d2 2b bf fc ea 01 c0
       -1.8109815 -0.838027 -0.6711778 -2.0299673
000360 7f ac c5 bf 2f 40 51 bf 34 1b 4d 3f 86 9b 48 40
       -1.5443267 -0.8173856 0.80119634 3.1344924
000370 84 ae ff be 3a 97 d2 3f 6f d9 63 40 b4 d2 33 c0
       -0.49937832 1.6452401 3.560146 -2.8097353
000380 58 93 4c 3e 5e 2c 87 be 9c 69 4e 40 95 12 ad bf
       0.19978082 -0.26401037 3.225196 -1.3521296
000390 62 3e 52 40 d2 6f 10 40 c8 b7 22 bf 3a a4 55 40
       3.2850575 2.256825 -0.6356168 3.3381486
0003a0 1b f8 5c 40 e4 90 0e 3f 8b 5f 0c 40 99 c3 cc bd
       3.4526432 0.55689836 2.1933315 -0.09998245
0003b0 89 b0 8d be c2 46 42 c0 2f 6d 8f bf b3 5d 1c 40
       -0.27673748 -3.0355687 -1.1205195 2.443219
0003c0 c9 47 92 be 92 b7 1d 3e 93 61 3e 40 0e af 21 bf
       -0.28570393 0.15402058 2.9747055 -0.6315774
0003d0 56 11 4b c0 cd 67 23 3f f3 4e 02 40 ec dd 12 bf
       -3.172933 0.6383026 2.0360687 -0.57369876
0003e0 6c f3 db 3f 5d 18 cc 3f ba 5e ec be 3c a1 06 bf
       1.7183661 1.5944935 -0.4616602 -0.52589774
0003f0 21 6b 25 bf 02 11 27 bf 64 c0 3b c0 f0 bc cb be
       -0.6461659 -0.65260327 -2.9336176 -0.39792585

q.layers.1.weight f4 [300, 400]
000000 e3 22 0f bc 8d f3 66 bd 9b 61 cf bc 07 0b f7 3c
       -0.008736345 -0.056384612 -0.025315097 0.030156625
000010 84 6d 24 3c bb 9c 8f bd 2d 91 32 bc 91 e0 5b 3a
       0.010035876 -0.07012316 -0.01089887 0.000838765
000020 a5 0b f1 bc 37 07 d2 3c fb c5 fd bc 01 64 d8 3c
       -0.029424498 0.025638206 -0.030978194 0.026414873
000030 54 5c d6 bc bb 51 8d 3c 5c 1c cc 3c bd 15 22 bd
       -0.026167072 0.017250886 0.024915867 -0.039571512
000040 b9 04 07 bd 53 05 a5 bc 76 85 69 bd 9e 58 37 bd
       -0.03296349 -0.02014414 -0.057012044 -0.044762246
000050 bd 92 75 bd eb 26 cf bd 00 18 aa 3a 6a 59 33 bd
       -0.059954394 -0.10114845 0.0012977123 -0.043786444
000060 bd 2d 33 bd ce 7d 51 bd 44 23 43 3c 6a 1b 91 bd
       -0.04374479 -0.051145367 0.011910263 -0.07085307
000070 4a 6a 06 bd 2a bf 86 bc 0d 41 0a bd e9 60 9e 3c
       -0.03281621 -0.016448576 -0.033753444 0.01933332
000080 ce ef 77 bc e2 70 53 3c 5a 46 8e bc 08 0f 91 bb
       -0.0151328575 0.012905331 -0.01736753 -0.0044268407
000090 99 a2 d9 3c a3 1f da bc b3 e7 bc 3b 57 a3 56 bc
       0.02656679 -0.026626414 0.0057649254 -0.013100467
0000a0 ea 42 0a bd 68 35 b5 bc 26 7f 22 3d 5d 44 9a bb
       -0.03375522 -0.022120193 0.03967204 -0.0047078566
0000b0 ba 4e c7 3c 80 58 0f 3c 53 21 a0 bc 0b 1c 2c bd
       0.024329532 0.008749127 -0.01954714 -0.04201893
0000c0 29 b4 3c bd 41 b3 38 bd 99 a0 8c bd f6 a6 8b 39
       -0.04607025 -0.045092825 -0.06866569 0.00026636542
0000d0 29 e8 c0 bb 64 23 8c bc c5 5c ea b9 dd 16 b5 bc
       -0.0058870506 -0.01710672 -0.00044701077 -0.022105629
0000e0 de 5f f5 3c b7 1f d2 3c ab 21 74 bd fa 1d 96 3c
       0.02995294 0.025649888 -0.05960242 0.01832484
0000f0 82 e7 ec ba 3b f7 50 3c 07 c4 e4 bc 1f 57 29 bd
       -0.0018074366 0.012754257 -0.027925504 -0.04134285
000100 76 cd 0b bc ea a5 33 3d 38 49 44 bd 52 a6 91 bd
       -0.008532872 0.0438594 -0.04792139 -0.07111801
000110 16 cf af bd 65 54 e9 bc 02 6c 44 bd 67 aa 19 3c
       -0.085844204 -0.028482625 -0.047954567 0.009379006
000120 45 25 74 bd 2e e8 9a 3c 5c ff 21 3d 43 6e 3b bd
       -0.059605855 0.01890954 0.03955017 -0.04575945
000130 68 fb 0e 3c 09 48 76 bd 34 76 2f 3c 60 e6 bd bc
       0.008726932 -0.06012729 0.010709334 -0.02318114
000140 22 a3 9f bd 07 90 5f bd 2c 14 6f bd cd e4 99 3c
       -0.07794787 -0.054580715 -0.058368847 0.018785859
000150 37 b3 37 bd a0 cf b5 ba a5 22 37 bd bd c1 20 3c
       -0.044848647 -0.0013871081 -0.044710774 0.009811816
000160 6c b1 4b bd 17 65 13 bd b0 de 1f bd f8 49 81 bd
       -0.04972975 -0.03598508 -0.03903073 -0.063129365
000170 ed 39 bc bc 68 98 74 bd 86 41 eb bc f4 a7 33 bd
       -0.02297684 -0.05971566 -0.028717767 -0.043861344
000180 e7 7b 37 bb 48 f1 d5 bb 6e 4b 49 bd 00 c7 0e bd
       -0.0027997436 -0.006529007 -0.0491442 -0.03485775
000190 c9 73 dc bd 93 03 12 3c 4f 96 10 bd 9e eb 05 bd
       -0.10764272 0.008911985 -0.035299595 -0.032695405
0001a0 81 55 f3 bb f3 18 80 3d 9f 91 0c 3b 39 d4 1d bd
       -0.0074259643 0.06254759 0.0021449102 -0.03853247
0001b0 2f 02 89 bc 3b 4d b3 3c d5 cb 09 bd 29 f9 34 bd
       -0.016724674 0.021887412 -0.033641655 -0.04418293
0001c0 a5 9f 6e bb d4 84 97 bc ab 8d 80 bc d6 c7 16 bc
       -0.0036411074 -0.018495955 -0.015692553 -0.009202918
0001d0 23 ed 81 bd 97 4f bb bc 6b bb a2 3b ad c1 17 bd
       -0.06344058 -0.0228651 0.0049661896 -0.037049938
0001e0 c4 36 c8 bc f6 b6 1d bd 54 be 06 bd a3 82 0c bc
       -0.024440177 -0.038504563 -0.032896355 -0.008576068
0001f0 54 67 66 bc c1 7e 97 3b 0b 50 7e bc 4d 72 28 3c
       -0.014062721 0.0046232645 -0.015522013 0.010281158
000200 e6 85 f0 bb 03 e3 39 bd 34 6a 91 bc 3f 13 9e 3b
       -0.0073401807 -0.04538251 -0.017750837 0.0048240717
000210 54 74 13 bd 85 7a 38 3b 1e 3e 06 bd 9c 0a 06 bc
       -0.03599961 0.00281492 -0.032774083 -0.00818124
000220 40 88 9e 3c ef f3 d3 bd 71 4c 01 3d f3 59 ac 3c
       0.019352078 -0.10349261 0.03156704 0.021038985
000230 d7 c3 da bd 0f 15 db 3c fa 5f 31 bd 1a e0 09 bd
       -0.10681885 0.02674344 -0.04330442 -0.033660986
000240 44 1d 02 bd bb 05 47 bd b4 c2 ed 3b 68 bd 94 bd
       -0.03176619 -0.04858945 0.0072558764 -0.07262689
000250 e0 9b 85 bd 39 87 99 bc 5e d0 89 3c e3 ae 1d 3d
       -0.065238714 -0.018741237 0.01682299 0.038496863
000260 e2 0a cd 3c 07 9a 47 bd 6b c8 13 bd f7 5d 9a bd
       0.025029603 -0.048730876 -0.036079805 -0.075374536
000270 d7 70 ee 3c 33 95 87 bd 8a f4 f9 bc 8c 48 57 bc
       0.02910654 -0.06620254 -0.030512113 -0.013139855
000280 f3 e1 84 3c c9 87 63 bd 9f 95 8c bc bf 56 7e bb
       0.016221022 -0.055549417 -0.017161189 -0.003880903
000290 03 4c f0 bd d7 dd b1 3b f1 25 ee bb 05 d9 55 bd
       -0.11733248 0.0054280567 -0.0072677066 -0.05220892
0002a0 2a ef d7 bc 03 9f 18 3d cf 3b de bd 56 e3 3d bd
       -0.02635916 0.03726102 -0.10851251 -0.046359383
0002b0 9b 67 88 3c 2c 69 22 bc e8 c8 00 bc fb 7b b3 3b
       0.016650965 -0.00991277 -0.0078604 0.005477426
0002c0 26 9a 26 3c 67 69 f1 bc f6 6f 4f bc a3 2d b1 bc
       0.010168588 -0.029469205 -0.012660971 -0.021628207
0002d0 f8 cc 6b bd b0 29 d1 bb b5 3f 5c bd e3 7e 7d bd
       -0.05756852 -0.0063831434 -0.053771693 -0.061888587
0002e0 ab e2 f3 bc ea d9 5d 3d bb b9 62 bc 85 fe 6b 3d
       -0.02977117 0.054162897 -0.013838227 0.057615776
0002f0 fa 71 14 bd 6e 2d 6a bd f1 63 28 bd fc 03 6b 3c
       -0.03624151 -0.05717223 -0.041110937 0.014344212
000300 08 1d 59 bc 02 63 11 bd cb 6d b6 bb 5a a3 7e bc
       -0.0132515505 -0.03549481 -0.0055672876 -0.015541876
000310 b2 0a 9a ba e9 fd 04 be b3 55 09 bd 27 e8 75 bd
       -0.0011752455 -0.12987484 -0.033528995 -0.06003585
000320 0f 74 bb 3c 82 5b 82 bd ab f8 25 bc 36 6c e4 3c
       0.02288249 -0.0636511 -0.010130088 0.02788363
000330 42 ee 82 bd bb 93 7c b9 31 67 3f bd 73 75 1e bc
       -0.063931 -0.00024087627 -0.04672927 -0.009671557
000340 a5 16 95 bd 4e 76 96 bd 73 86 cb 3b 95 c6 99 bd
       -0.0727971 -0.073467836 0.006211096 -0.0750858
000350 d4 ab 9b 3c cb fe 20 bd 19 fd 29 3d b2 4a 14 3c
       0.019002832 -0.03930549 0.04150114 0.009051012
000360 61 54 7e 3b bf 63 12 bd c9 ae 69 bd b7 c9 ae bd
       0.0038807618 -0.035739657 -0.057051454 -0.08534568
000370 1f 3b a7 3d a4 72 1a bd ff 65 b4 bd 4e 5c 99 bd
       0.08165573 -0.037706986 -0.08808517 -0.07488309
000380 f1 58 7e bc 73 9c 90 bd a7 80 8c bb bc 91 75 bd
       -0.015524135 -0.0706109 -0.0042877975 -0.059953436
000390 0e c0 4d 3d 8d 38 43 bc c3 da b6 bc ab 81 41 bc
       0.050231986 -0.011915338 -0.02232111 -0.0118107
0003a0 8c bb c0 3b e5 1d e2 3c 12 69 59 bd 2a bd 5f 3b
       0.0058817323 0.027602145 -0.05307872 0.003413985
0003b0 35 c1 e8 3c ec e0 d5 bb 73 e1 b5 3d f4 45 5f 3c
       0.02841244 -0.006527057 0.08880892 0.013627518
0003c0 70 62 80 bb 9b 3f 7a 39 f6 f5 8f bd 21 7d 63 bd
       -0.0039179847 0.00023865553 -0.07029335 -0.055539254
0003d0 dc 1e 9c bd 52 83 ee 3c 0b a2 dd bc bf e0 bc bc
       -0.076230735 0.029115353 -0.027054807 -0.023056386
0003e0 00 8b 30 bb 26 ed 0b bd 80 6f 49 bc 46 84 de 3c
       -0.002693832 -0.03416171 -0.01229465 0.027162682
0003f0 45 cf 06 3c 74 51 18 bc 5c f5 9c bd 94 91 36 bd
       0.008228128 -0.009296764 -0.07663986 -0.044572428

q.layers.1.bias f4 [300]
000000 3f 96 e7 bc a3 ed 92 bd 2d 86 89 3f 3a c1 8f bc
       -0.028269885 -0.07174232 1.0744072 -0.017548192
000010 3c cc b4 bc e0 95 88 bd 8d 02 ef bd 0a 2a 1e bd
       -0.022070043 -0.066692114 -0.116704084 -0.03861431
000020 d4 d9 19 bd 09 42 29 bd 59 b0 7f bd dc 44 3d bd
       -0.037561253 -0.04132274 -0.062424038 -0.046208248
000030 52 fb 24 3e 36 fb f2 bc 5e 34 3a bd 58 b5 35 bc
       0.16111496 -0.029660802 -0.045460097 -0.011090599
000040 f7 f6 1d bd 2e a2 89 3f e0 e2 90 3c be d3 17 bd
       -0.038565602 1.0752618 0.017686307 -0.037067167
000050 2a 7f 1a bd 04 a6 6c bd 38 92 b3 bd ab e2 a1 3d
       -0.03771893 -0.057775512 -0.087681234 0.079045616
000060 75 0f 2c bd 13 79 4b bd 4f 57 f5 3e 30 46 fd 3f
       -0.04200693 -0.049676012 0.47918174 1.9787045
000070 a6 ab 00 bd 0a bb fe bc 6f c2 dc bc 3b ff f9 bc
       -0.031413697 -0.031095047 -0.026948182 -0.030517211
000080 a3 67 45 bd ee 3b f0 bc 9d e1 1b bd 0f 68 02 bd
       -0.04819454 -0.029325452 -0.03805696 -0.03183752
000090 9a 85 59 3d 89 fc 76 bd 7e 25 15 bd db 2e 81 bc
       0.053105928 -0.06029943 -0.03641271 -0.015769413
0000a0 96 e6 3f bd 20 70 0a bd f5 3c 23 bd dd 2c bc 3a
       -0.046850763 -0.033798337 -0.039853055 0.0014356632
0000b0 68 8b c7 bc 00 c1 46 bd 7f 17 ac bc b4 86 92 3f
       -0.024358466 -0.048523903 -0.021007298 1.1447358
0000c0 c7 02 ba bc e0 6a fd bc fc 3c 4f bd f7 a2 12 bd
       -0.022706402 -0.030934751 -0.05059527 -0.035799947
0000d0 1d 5b 09 bd 5e b8 91 bd ea da 41 3e ae 30 f6 bc
       -0.033534158 -0.071152434 0.18931165 -0.03005251
0000e0 0b 85 e5 3f 69 66 25 bd a0 c4 ba 3f 9b 51 11 bd
       1.7931226 -0.04038087 1.4591255 -0.035478216
0000f0 02 d3 62 bd 40 cb 3c bd 3b 70 b8 bd d0 23 69 3b
       -0.055377014 -0.04609227 -0.09005781 0.0035574324
000100 16 d9 c7 bd 39 da 82 bd 3f 5e 1a bd 91 81 3e bd
       -0.09758203 -0.06389279 -0.037687536 -0.046510283
000110 eb 1d 49 bd 85 62 6d bd 1b 18 18 bd 92 f4 c7 bc
       -0.049100798 -0.057955284 -0.037132364 -0.024408612
000120 e1 fd 8a bd 5c b8 bf bc d3 bf 34 bd 99 73 14 bd
       -0.06786705 -0.02340334 -0.04412825 -0.036243055
000130 e8 0c e7 bc bf d9 55 bc aa 3a 04 3f 69 49 c9 bc
       -0.028204396 -0.013052403 0.51652014 -0.024571138
000140 81 90 21 bd 8a ff 61 bd a2 9c 01 bd f6 45 82 bd
       -0.03944445 -0.05517534 -0.031643517 -0.06361
000150 e7 d0 fa bc 28 36 17 bd 14 38 af 3f 17 1c 66 3c
       -0.03061719 -0.03691688 1.3688989 0.014044783
000160 8c 7c 19 bd 7e 22 3b bd 41 9d c4 bc ee 2f de 3d
       -0.037472293 -0.04568719 -0.024000766 0.108489856
000170 cc a2 e3 3f cf 60 8a bc df 20 01 3e a1 3f 0b bd
       1.7784057 -0.016891865 0.12610196 -0.033996228
000180 07 dc 21 bf d2 39 09 bd 33 7c 42 bd 58 11 7e bd
       -0.6322636 -0.033502407 -0.047481727 -0.06202826
000190 cb 0c 8e bd d4 c6 47 bd 17 34 93 bd 18 18 81 bd
       -0.06936034 -0.0487736 -0.0718767 -0.06303424
0001a0 6c 8c 16 bd 21 0b 18 bd ac ad 17 bd 2d e5 01 bd
       -0.03675501 -0.03711999 -0.03703086 -0.0317127
0001b0 9c 98 1a bd ce ca 16 bd 34 8f a5 3e da a4 12 bd
       -0.037743196 -0.036814503 0.32335818 -0.035801746
0001c0 8a 7c 7e bd 7d cb 16 bd 27 8b 43 bd 9a 7b 25 bd
       -0.06213049 -0.036815155 -0.047740128 -0.04040108
0001d0 d0 af a5 bc 1e 65 16 bd b2 28 43 bd e8 e5 e0 bc
       -0.020225435 -0.036717527 -0.047646232 -0.027453378
0001e0 47 fd 24 bd 4e 05 69 be e5 ec 4a bd cf a4 2c bd
       -0.040280607 -0.2275593 -0.049542326 -0.04214936
0001f0 be 3e f7 bc 03 54 83 bf e2 94 7e bd 1a 63 28 3e
       -0.030181285 -1.0260013 -0.062153704 0.16444054
000200 ef c0 19 bd 38 70 4d bd b1 f7 ee 3d 25 2d c1 bc
       -0.03753751 -0.05015585 0.11668337 -0.023581097
000210 dc b9 71 bc 42 d7 3d bd 8d 2e 70 bd 34 d7 92 bd
       -0.014753785 -0.046347864 -0.058638144 -0.07169953
000220 8d aa f2 bc 5f 6b 20 bd ce bb 02 bd d9 e9 8f bd
       -0.02962234 -0.039164897 -0.031917386 -0.07027025
000230 89 20 97 3d d2 25 29 bc 29 7a 1a bd 40 8d 42 bd
       0.073792525 -0.0103239585 -0.037714157 -0.047497988
000240 4d 61 8d bd a5 51 ab bc 49 03 21 bd 1b fc 09 bd
       -0.06903324 -0.020912955 -0.039309774 -0.033687692
000250 6f 9f 8d bd 60 48 4f bd ce ea 28 bd 97 23 19 bd
       -0.06915175 -0.05060613 -0.041239552 -0.037387457
000260 f5 c6 0a bd c1 28 57 3f e9 db c3 bd e4 bf 01 bd
       -0.033881146 0.8404656 -0.09563429 -0.03167714
000270 14 8c 1a bd bd 99 42 3d 04 7c 70 bd 14 81 a3 bd
       -0.037731245 0.047509898 -0.05871202 -0.07983604
000280 8f eb 80 bc e8 22 22 40 a7 76 99 bd c1 1b e4 3f
       -0.015737323 2.5333805 -0.07493334 1.782097
000290 6e 09 1a bd 07 ed d9 3e 72 0b 64 3f 5f 06 d3 bc
       -0.03760665 0.4256365 0.89079964 -0.025759874
0002a0 f8 d4 01 bd d3 96 aa bd d5 69 21 bd 7a fd 1e bd
       -0.031697243 -0.08329549 -0.03940757 -0.038815953
0002b0 55 ce 71 bc 28 91 fb bc 80 7e d5 3d e8 13 aa 3e
       -0.014758666 -0.030708864 0.104245186 0.33218312
0002c0 a4 ce 23 bd 78 8d 5d bc e9 82 8d 3e 66 2e 1c bd
       -0.03999199 -0.013522498 0.2763894 -0.038130186
0002d0 9d 49 36 bd 7a 45 c7 bc 8a 00 a5 bd bb 9f 42 bd
       -0.044503797 -0.024325121 -0.080567434 -0.047515612
0002e0 14 a3 31 bd 9d db 7c bd 21 32 1c bd 3e ad 1b bd
       -0.043368414 -0.061732877 -0.038133744 -0.038007013
0002f0 72 d7 0a bd 9d 7a cc bc d4 5a b7 bc ea 6e 0c bd
       -0.03389687 -0.02496081 -0.022382177 -0.034285463
000300 91 9f 6b bd 7c e1 a8 bd 43 05 63 bc 8f fd 8b bc
       -0.05752522 -0.08246133 -0.013856235 -0.01708868
000310 5f e2 13 bd 9e 7b 07 bd 59 12 50 3d 13 3f 26 3d
       -0.036104556 -0.033076875 0.050798748 0.040587496
000320 19 cf 8c bc 23 49 87 bd 07 cd 9a bd 84 ad ef bb
       -0.017188596 -0.066057466 -0.07558637 -0.007314386
000330 5d a5 01 bd 04 61 42 bd a5 30 cb bc 37 78 de bc
       -0.031651843 -0.047455803 -0.024803469 -0.027156932
000340 e1 f6 91 bd b3 43 2f 3f d5 09 a3 bc a8 29 af 3e
       -0.071271665 0.68462676 -0.01990215 0.3421147
000350 e5 ee 6d bd ee 47 e9 bc 74 af 10 bd 3c dc 1e bd
       -0.058089156 -0.028476682 -0.035323575 -0.03878425
000360 dc 22 36 bd 87 e8 05 bd 05 ee e8 bc c9 7c c1 3f
       -0.04446684 -0.03269246 -0.028433809 1.5116206
000370 55 1f fb bc 47 13 56 bd e5 10 97 be d9 80 56 bd
       -0.030654589 -0.052264478 -0.29505077 -0.052368972
000380 9a c6 3a bd 3d 94 5d bd cb 62 ad 3f 1f 1c d7 3d
       -0.045599557 -0.05409645 1.3545774 0.105034105
000390 e1 3e 15 bd 78 8d 18 bd 36 13 11 bd fd c6 1d bd
       -0.03643692 -0.03724429 -0.03541871 -0.03851985
0003a0 0a 61 5c bd f6 4c 39 3f 48 06 27 be 35 cd 16 bd
       -0.05380348 0.7238306 -0.1631099 -0.036816794
0003b0 2b f8 80 bc 47 08 8b bd 01 d8 2b bd 9e b3 6e bc
       -0.015743336 -0.06788688 -0.041954044 -0.014569191
0003c0 56 bc 8d bd 87 dc 12 bd 29 8d eb bc ea 25 16 bd
       -0.06920688 -0.035854843 -0.028753834 -0.03665725
0003d0 5d b2 19 bd a0 b2 2e bd 15 b8 12 bd 6e 2f 12 bd
       -0.037523616 -0.04265082 -0.035820086 -0.035689764
0003e0 57 23 fe bc 6a 63 6f bd 11 ad d8 bc c9 ff ed bc
       -0.03102271 -0.058444418 -0.026449712 -0.029052632
0003f0 47 f0 fe bc 95 ae 24 bd 20 d1 35 bf 45 02 08 bd
       -0.031120433 -0.040205557 -0.71022224 -0.03320529

q.layers.2.weight f4 [4, 300]
000000 73 e7 5b 3c dc f7 23 bc 2a 85 93 be 9f 8d f2 bc
       0.013421881 -0.010007825 -0.28812534 -0.029608546
000010 95 55 29 bd ae 7e b0 3b a5 81 7e bd 20 f1 54 3d
       -0.041341383 0.005386195 -0.062135357 0.051987767
000020 cc e4 e2 3b 6b 4e f4 bc 3a 04 81 3a e4 d8 2e bd
       0.0069242474 -0.029822549 0.0009843179 -0.04268731
000030 f7 7c c9 be 3e 0a 09 bd b8 a1 36 3c 9f c0 a7 3b
       -0.39353153 -0.033457033 0.011146955 0.005119398
000040 a8 58 ea bc 92 6a ef bb af 92 2c bd a9 73 33 bd
       -0.028606728 -0.0073064053 -0.042132076 -0.043811474
000050 9b 06 50 3d f2 31 00 bd 63 43 70 bd 2a 46 2c bd
       0.05078755 -0.03129763 -0.058658015 -0.0420591
000060 6e 97 36 3c 49 58 e4 bb 9e f4 5c bc 98 f9 c6 3d
       0.011144502 -0.006968532 -0.013486056 0.09715575
000070 f7 c6 9b bd 6a 5c 2f bd 7f 3b be bb ef 32 8e bc
       -0.07606309 -0.042812742 -0.0058054323 -0.017358271
000080 e3 a0 24 3d b1 47 5b 3c 43 a2 61 bd 04 03 87 3c
       0.040192496 0.013383792 -0.055086385 0.01648093
000090 f8 f5 4c bd 61 97 31 ba 82 e8 a4 3b 90 c6 85 bc
       -0.05003926 -0.00067745714 0.0050326 -0.016330034
0000a0 4d af e1 bc 0e 91 91 3c bb 15 1e bc 2b 67 0e bd
       -0.02754941 0.017769363 -0.009648736 -0.034766357
0000b0 36 b0 0c 3a 1f ba 60 3b 4c 35 88 bd 2a e1 09 be
       0.00053668336 0.0034290624 -0.066507906 -0.134648
0000c0 69 39 10 bc 62 39 42 bc 11 2d 0f 3c 64 73 a1 b9
       -0.00880275 -0.011854501 0.008738772 -0.00030794286
0000d0 22 9a 66 bb a0 31 8b ba b8 e3 39 bd 43 e2 60 bd
       -0.0035187085 -0.0010619648 -0.045383185 -0.05490328
0000e0 9d 40 c5 bd af af 09 bd 22 c0 da 3d 8f e1 02 bc
       -0.09631465 -0.03361481 0.10681178 -0.007988348
0000f0 43 9a d4 bc b9 70 f3 bc a5 65 03 3d cf 2a 2b bd
       -0.025952464 -0.029716836 0.032079358 -0.041788872
000100 53 8b 75 bb bc 72 75 3d 3c cf ab 3c 41 0e af 3b
       -0.0037467077 0.059923872 0.02097284 0.0053422754
000110 19 4f 50 3d b9 2b 8b bb b5 76 cd 3c ee ee 18 bd
       0.050856683 -0.0042471555 0.025081018 -0.037337236
000120 84 50 cc bc 96 a2 08 3d 07 ef f9 bc c2 48 e5 bb
       -0.024940737 0.03335818 -0.030509485 -0.006997199
000130 2a ac 0e 3d 46 04 b8 bc f7 4e 3a bd 84 8e 3a b8
       0.034832157 -0.022462975 -0.045485463 -4.4478584e-05
000140 f9 c7 c9 3c 32 06 a3 bc 8c f3 29 bd d4 4b 25 3d
       0.024631487 -0.019900415 -0.04149203 0.04035552
000150 8a 1a 2d 3c 75 55 d4 3c 30 a2 78 3e 75 2f 47 bc
       0.010565409 0.025919655 0.2428062 -0.012157311
000160 8f d7 db 3c 0d 82 cf bc d5 1d e0 bc 31 bd 32 3e
       0.026836185 -0.025330568 -0.027357975 0.17454983
000170 41 c5 df 3e c5 57 b8 bc 49 dd d8 bc 18 23 89 3c
       0.4370518 -0.02250279 -0.026472704 0.016740367
000180 80 5d 35 be 54 39 5e 3c 58 31 4f bc 25 71 2b bc
       -0.17711449 0.013563473 -0.012646042 -0.0104639875
000190 9c a0 74 bb 7a 24 be bc fb 20 af be 8b b8 04 bd
       -0.0037327176 -0.023210753 -0.3420485 -0.032402556
0001a0 d3 c7 4b 3c 30 41 cc bc e1 cc 88 3c f1 e5 39 bd
       0.0124377785 -0.024933428 0.016699256 -0.045385305
0001b0 b4 82 48 bc d4 af c8 bc 1b 59 78 bd 5b 74 9f bb
       -0.012238193 -0.024497904 -0.060631853 -0.0048661656
0001c0 65 dc 0f 3a b5 2c 54 bc c4 18 fe bc c2 d8 3d 3c
       0.00054878584 -0.012950112 -0.031017669 0.011587324
0001d0 61 f4 de bb 81 58 14 3c d5 23 1b 3d 93 f5 ff 3b
       -0.0068040346 0.009054304 0.03787597 0.007811257
0001e0 5a 74 42 3c bd 0a 88 3c 87 f9 0b bc 3f 96 0f bd
       0.011868561 0.016606683 -0.008543379 -0.035055395
0001f0 50 fc 86 3c 54 b7 20 bc 0b e4 84 ba 00 48 f5 bc
       0.016477734 -0.009809334 -0.0010138763 -0.029941559
000200 cb 03 2c 3c 00 2c e5 ba ba dd b8 ba 23 ac 3f 3c
       0.010498951 -0.0017484426 -0.0014104166 0.011698755
000210 cb 7b 83 3d 9f 50 dc 3c 27 09 ef 3b 15 6a dc 3b
       0.06420096 0.026893912 0.007294792 0.006726513
000220 b6 7c d1 3b 1e 8f 55 bc 6b 77 da 3c 49 3a 54 3d
       0.0063930405 -0.01303461 0.026668271 0.051813398
000230 c5 23 09 bc 58 19 82 3a 3d a1 99 3c 74 91 73 bc
       -0.0083703445 0.0009925766 0.018753642 -0.014866222
000240 4e d3 a6 bd 6d 19 06 bc 31 e5 2a bb 61 d7 12 3c
       -0.08145772 -0.008184773 -0.002607655 0.008962483
000250 db 0d 9c ba 05 46 40 bd 51 1d b8 bc 5f ea fd bc
       -0.0011905985 -0.046941776 -0.022474917 -0.030995546
000260 2e d1 7f ba a6 67 94 be 35 0a 85 bb 5c 64 ea 3c
       -0.0009758648 -0.28985327 -0.0040600547 0.028612308
000270 cf 03 cf 3c 8e 94 02 bd 95 34 c8 3c 31 9e d8 bc
       0.02527037 -0.031879954 0.024439136 -0.026442619
000280 dd 57 08 3d 5f 21 8c 3e fd 4e 10 bc f6 3d fe 3d
       0.033286918 0.2736921 -0.008807895 0.12414162
000290 5e 09 f3 3b 6d 6f 28 3d 81 45 6b 3e e8 89 ed bc
       0.007416888 0.04112189 0.22975732 -0.028996423
0002a0 56 6c 14 3c bc b9 cf 3c ec 1f c2 bc de 6c 2a 3c
       0.009059032 0.02535712 -0.023696862 0.0104019325
0002b0 ec a9 c9 3b 72 7f 49 bc e0 46 45 bb 11 16 36 3c
       0.0061542895 -0.012298452 -0.003010206 0.0111136595
0002c0 b2 b7 f6 bc 3e 03 06 bb a7 d6 bb be d5 77 47 bd
       -0.03011689 -0.002044871 -0.36687204 -0.048698265
0002d0 95 6a 8c 3b 49 54 bc bc 00 43 98 bc d2 32 08 3d
       0.0042851665 -0.022989409 -0.018586636 0.03325159
0002e0 2c 9d 16 bd a2 81 be bb fc 93 ad 3c 29 9f 26 3d
       -0.036770985 -0.0058137933 0.021188729 0.04067913
0002f0 70 dd 1f bd 2b 5b 2f 3b c6 6d 4d 3d 6a 1f e5 bc
       -0.03902954 0.0026757221 0.050153516 -0.027969081
000300 cf 13 c6 b9 97 fd 5a 3b e3 1f 80 bd d6 39 f1 3c
       -0.00037780261 0.0033415311 -0.06256082 0.029446524
000310 34 71 f6 3c 98 b1 89 bc e7 37 d9 3c 62 a0 cc bc
       0.030083276 -0.016808316 0.026515914 -0.02497882
000320 8c f1 b7 bc ab 6f b0 3d 7d e1 71 3d 8b e6 15 bb
       -0.022454046 0.08615049 0.059052933 -0.002287301
000330 9e ad 61 3d aa 51 95 bc 99 4a 88 bb e1 1c cd bc
       0.055097215 -0.018227417 -0.0041592834 -0.025038185
000340 93 3a 9e 3d 07 59 ab be b2 04 ad bc 60 6a 3a bc
       0.07726016 -0.3346636 -0.021120403 -0.011377901
000350 d7 99 51 bc 20 0c 2d bd 5e 56 8b 3b 97 0e 07 bd
       -0.012793026 -0.04224789 0.004252239 -0.0329729
000360 66 fd e8 bc f2 c4 05 3c 72 06 c0 bc 47 ac 45 be
       -0.028441142 0.008164631 -0.023440573 -0.19304
000370 c7 76 7a bc 80 bf 9a 3b 16 34 9d bc c0 7a 3d bc
       -0.015287108 0.0047225356 -0.019189876 -0.01156491
000380 f3 71 95 3c 1f cc 43 bc 5a 0c cf 3c c8 67 2b bc
       0.018242812 -0.011950522 0.025274444 -0.010461755
000390 9e 04 28 3d f2 31 16 3d 2c b5 4b bc 8f 7c 24 3d
       0.04102003 0.036668725 -0.012433331 0.04015785
0003a0 4a ad 18 bc 1d 66 41 bd 7e 96 80 3d 4a 0e 06 bd
       -0.009318659 -0.047216523 0.06278704 -0.03272847
0003b0 70 64 d3 3b a4 c4 0a bb ca 20 ea bb 97 9e b7 3c
       0.006451182 -0.0021174336 -0.007145022 0.022414489
0003c0 d6 95 21 3b 85 c4 9d bc dd 91 48 ba a0 11 57 bb
       0.002465596 -0.019258747 -0.000765113 -0.0032816902
0003d0 9b 47 e6 3c d9 9a 15 bc 36 32 46 bb eb 2b 04 3d
       0.028110316 -0.009131157 -0.003024233 0.032268446
0003e0 18 80 8e bb cb d0 4c 3d 88 98 a4 bc 03 50 9b 3c
       -0.004348766 0.050003808 -0.020092264 0.018959051
0003f0 31 01 73 bd dc c4 d0 3c b4 bb 56 bc 8c 87 5a bc
       -0.059327308 0.025484495 -0.013106275 -0.013337981

q.layers.2.bias f4 [4]
000000 81 c1 b3 3f cb a5 2a 40 af 38 9d 3f 06 6b 93 bd
       1.4043428 2.6663692 1.2282923 -0.071981475
