pyt_save/MinnowvAaronSharkLowestSTD.pt (torch_old, 495157 bytes, 6 tensors)

q.layers.0.weight f4 [400, 4]
0.0049440567 0.044521056 -0.03864282 -0.03473102 0.0042786137 -0.19886515 -0.08914127 0.19324291
-0.035699118 -0.007770138 -0.000139877 -0.041170873 -0.015405078 -0.61921376 -0.0042878096 0.31086034
0.112250015 -0.81022024 -0.02985886 0.3612188 0.013630914 -0.15715772 -0.075205185 0.055687997
-0.25068572 0.14513862 -0.13882619 -0.054724876 -0.005741987 -0.409087 0.010329195 0.3130797
0.0843758 0.12399268 -0.07368126 -0.19305348 0.0029653946 -0.19534437 -0.008780295 0.10895133
-1.8722276e-05 0.11654266 0.09039065 -2.0879898 0.012766857 -0.88698983 -0.0028032095 0.75910115
-0.046080723 -0.010114981 0.81162333 -0.19466265 -0.047663417 -0.024581332 0.007370959 0.010992451
0.0061504287 -0.071962066 0.020262474 0.016570887 -0.011075341 -0.0032774727 -0.47568995 -0.4939159
0.27743006 0.052537534 -0.1802964 -0.03729705 0.074659355 -0.15638937 0.03366816 0.17025729
-0.04185994 -0.15341023 0.0311059 0.16662626 -0.004591347 -0.6447625 -0.00046832734 0.28677633
0.009044197 0.0014746187 2.0263572 -1.3305426 -0.0070676683 -0.53296614 0.27251738 0.35607356
-0.08332027 -0.66413754 -0.021749234 0.48070103 0.007920317 -1.6312649 -0.010456581 0.015270022
0.28121996 -0.037378475 0.03542068 -0.03535892 0.07577326 -0.8741204 -0.029653048 0.84846824
-0.12906353 -0.11059685 -0.03658318 0.063291125 0.0452804 -0.0122066 0.00222974 -0.029789394
-0.49570653 0.0010153775 0.57400084 -0.15014648 0.04758432 0.05161756 -0.009713554 0.00326914
-0.011191475 -0.46635637 -0.0018749784 0.24775675 -0.5445129 -2.2626674 -0.0460993 1.5151526
-0.09794216 -0.056984704 -0.4255092 -0.1896896 -0.48024327 -0.059409052 -0.35520217 -0.025620284
0.09861608 -0.15995091 -0.11555666 -0.009507896 0.10230245 -0.03100088 0.0016137412 -0.007709346
-0.060654048 -0.057460748 0.041345797 -0.011741955 0.029248001 -0.9239038 0.009847744 0.64443815
0.024471285 -0.032044068 0.013581283 0.004600068 -0.1338048 -0.31301916 -0.061313853 -0.15853728
-0.0010796947 0.017333541 0.50343424 -1.6239953 -0.0102766715 -0.61418647 0.0045353323 0.24460243
-0.052785363 -0.02677752 0.001007791 0.012182326 -0.026022429 -0.83988804 -0.07622251 0.48622826
0.030157737 -0.53438354 0.0008998388 0.24966681 -0.025096493 -0.7457289 -0.013269362 0.39642057
0.027833756 -0.07807218 0.042222228 0.041905858 -0.020216433 -0.14920689 0.0042888043 0.14463182
0.18463919 -0.39747557 -0.018258948 0.2910926 0.026043424 -0.022462206 -0.020651441 0.017629243
0.45692503 0.2813992 -0.35255137 -0.22159936 -0.0107394345 -0.034854345 0.0012241886 -0.015742937
0.17037587 -0.07396725 -0.11709838 0.0077561536 -0.5449527 -1.9860075 -0.10780529 1.1342555
-0.2278331 -0.086148985 0.033859525 -0.21373244 0.0023222521 -0.04502874 0.013994318 0.026556013
-0.011195794 -0.039188206 0.47310358 -0.45510283 -0.31473202 -0.28151897 -0.71865153 -0.030716186
-0.5788795 -2.2137654 -0.12043463 1.2635876 0.3686405 -0.15513057 -0.32900378 -0.12763533
-0.008362446 -1.1511606 0.0061011314 0.3994442 -0.14825948 -0.025194243 0.12810275 0.015273768
-0.988093 -0.031982735 -0.013080423 -0.052028835 0.58405083 -0.21335441 0.2359465 0.0893111
00000000: c101 a23b b65b 363d ef47 1ebd 1d42 0ebd
00000010: 9d33 8c3b 4ea3 4bbe b38f b6bd 78e1 453e
00000020: 3d39 12bd a49c febb f2ab 12b9 caa2 28bd
00000030: 9565 7cbc cb84 1ebf c180 8cbb 1629 9f3e
00000040: 56e3 e53d 986a 4fbf 919a f4bc acf1 b83e
00000050: 3254 5f3c f4ed 20be 2d05 9abd 1919 643d
00000060: e159 80be 389f 143e 7428 0ebe 3127 60bd
00000070: 4727 bcbb da73 d1be c93b 293c fc4b a03e
00000080: 38cd ac3d e0ef fd3d 33e6 96bd d0af 45be
00000090: 1157 423b 5b08 48be 3adb 0fbc e021 df3d
000000a0: c80d 9db7 ebad ee3d bc1e b93d a0a1 05c0
000000b0: 142c 513c c411 63bf 0db6 37bb 7454 423f
000000c0: 24bf 3cbd 4eb9 25bc 8cc6 4f3f a555 47be
000000d0: b73a 43bd ca5e c9bc 1688 f13b ae19 343c
000000e0: 8989 c93b d960 93bd 7dfd a53c abbf 873c
000000f0: 5975 35bc deca 56bb a28d f3be 8be2 fcbe
00000100: 500b 8e3e 9931 573d 9f9f 38be cbc4 18bd
00000110: 01e7 983d 8924 20be a0e7 093d ed57 2e3e
00000120: 5475 2bbd 9217 1dbe cdd1 fe3c 13a0 2a3e
00000130: 0373 96bb 280f 25bf d589 f5b9 59d4 923e
00000140: 1d2e 143c fe47 c13a d6af 0140 384f aabf
00000150: e697 e7bb 7870 08bf 6687 8b3e 464f b63e
00000160: d1a3 aabd eb04 2abf 732b b2bc 721e f63e
00000170: 38c4 013c 4acd d0bf 1452 2bbc 1d2f 7a3c
00000180: 10fc 8f3e 2c1a 19bd 4615 113d 84d4 10bd
00000190: 032f 9b3d 5bc6 5fbf f3ea f2bc 3735 593f
000001a0: 3b29 04be 9a80 e2bd 3fd8 15bd c79e 813d
000001b0: f177 393d 31fe 47bc d420 123b e308 f4bc
000001c0: 3fcd fdbe 6a16 853a b8f1 123f 00c0 19be
000001d0: c7e7 423d ef6c 533d 9925 1fbc 113f 563b
000001e0: 735c 37bc 43c6 eebe d6c1 f5ba f2b3 7d3e
000001f0: 3365 0bbf 8bcf 10c0 9fd2 3cbd 85f0 c13f
00000200: e695 c8bd cb68 69bd 58dc d9be fe3d 42be
00000210: 72e2 f5be e856 73bd 0fdd b5be a1e1 d1bc
00000220: 3af7 c93d 2cca 23be f8a8 ecbd 02c7 1bbc
00000230: f283 d13d 8ff5 fdbc 2b84 d33a ae9e fcbb
00000240: 6170 78bd f65b 6bbd 365a 293d 5461 40bc
00000250: 8199 ef3c f684 6cbf 6f58 213c e6f9 243f
00000260: 0178 c83c a440 03bd 0884 5e3c 2bbc 963b
00000270: 2004 09be 0c44 a0be 3c24 7bbd 9957 22be
00000280: 8b84 8dba 12ff 8d3c 11e1 003f 14df cfbf
00000290: 7c5f 28bc 533b 1dbf 209d 943b 0f79 7a3e
000002a0: 7735 58bd 885c dbbc db17 843a 6198 473c
000002b0: fd2c d5bc e702 57bf 8c1a 9cbd e9f2 f83e
000002c0: 5c0d f73c 5ccd 08bf 29e3 6b3a a8a8 7f3e
000002d0: 2997 cdbc 17e8 3ebf bd67 59bc a3f7 ca3e
000002e0: 9e03 e43c 4fe4 9fbd 37f1 2c3d 7aa5 2b3d
000002f0: ef9c a5bc b1c9 18be 1989 8c3b 5d1a 143e
00000300: 0e12 3d3e eb81 cbbe ca93 95bc 170a 953e
00000310: 0559 d53c a902 b8bc 362d a9bc 346b 903c
00000320: 14f2 e93e 8e13 903e 9d81 b4be f1ea 62be
00000330: 74f4 2fbc 6ec3 0ebd f474 a03a 55f7 80bc
00000340: 0377 2e3e 247c 97bd 47d1 efbd 5527 fe3b
00000350: 0582 0bbf 7e35 febf 05c9 dcbd 492f 913f
00000360: 154d 69be e16e b0bd 49b0 0a3d addc 5abe
00000370: ed30 183b 0e70 38bd 6d48 653c ff8b d93c
00000380: 906e 37bc d083 20bd a23a f23e 3d03 e9be
00000390: 8e24 a1be 4123 90be 8cf9 37bf 83a0 fbbc
000003a0: 7231 14bf 55ae 0dc0 6ea6 f6bd 3dbd a13f
000003b0: 73be bc3e 8cda 1ebe 2f73 a8be d6b2 02be
000003c0: a402 09bc 3b59 93bf 00ec c73b f383 cc3e
000003d0: 55d1 17be 2864 cebc 5e2d 033e d43e 7a3c
000003e0: aaf3 7cbf 5400 03bd 454f 56bc 301c 55bd
000003f0: 5b84 153f 9479 5abe f69b 713e bde8 b63d

q.layers.0.bias f4 [400]
-2.9675577 -2.4163475 2.3976996 -0.15033989 -1.2501507 2.1855094 2.7469234 -0.52507985
1.7660921 -0.31282872 3.4582298 -0.22028014 -1.8794132 3.1299186 -0.8877115 2.3482056
0.52494377 -3.6896951 -1.874369 -0.04292824 -1.0410912 1.2128577 -0.5118877 -1.1458521
2.2228444 -1.025072 -3.4195614 3.288284 -0.4026277 -3.6007001 -0.36107367 -0.2729626
3.0521455 -3.4547849 2.0639555 2.5747645 3.4203954 -0.5270245 2.7351103 2.0851407
0.612111 -0.22377042 3.1190667 -1.5351412 -0.52113074 -0.40037012 -3.7839408 -0.40679786
-2.6293132 2.8146534 -0.8555224 2.3862522 3.0455837 -0.6729573 2.8807678 -0.5024264
2.959599 -0.37369224 -0.70631236 -0.08421527 -0.15466858 2.1933186 -0.6406283 -2.7538254
-0.26484627 -3.3249924 0.92991924 -3.4713893 -3.4743145 2.9674478 -0.30696812 -1.1450428
0.22720248 2.289331 1.6218829 -0.92686635 -0.41745958 3.043405 -1.30172 -0.8370276
-1.0902866 -0.6543336 4.3485036 -2.2028553 3.2516644 -0.2988042 2.4435823 3.045347
-1.8130862 0.61124486 -0.88804775 -0.54106504 1.5262228 -1.0987946 1.8040106 -1.9544575
-0.30347157 2.5495715 1.9558175 -2.159232 -1.458018 -0.9354225 3.048424 -1.4922277
2.3281462 -0.5586582 1.9612697 1.8778392 -4.2397127 4.039002 -0.80691135 3.1918633
3.084104 -1.6836474 -0.78252864 -0.5193483 -0.6460614 -0.4448869 -2.7250454 2.8948462
-1.158804 -3.594401 -0.4286058 -1.2908115 -1.7173607 2.6854568 -1.2216551 -0.572775
-0.23417787 -2.7857726 -1.4758077 3.8255737 -2.0782409 2.0798986 -0.43548912 3.009423
-0.32103547 -4.6757107 -0.5518947 2.333994 0.3254825 -0.5113839 -1.9912047 -0.5984172
-1.4904526 2.8129513 -1.2842989 -3.8038933 2.3391883 3.2093365 -0.8125852 -0.33603495
-1.0123061 -1.8617435 -0.24163187 2.3932326 3.0821776 0.32327896 2.961699 2.3852825
2.04871 0.13260551 2.4498959 0.46402445 3.1509964 -0.7986031 -1.0334263 2.7605526
-0.5523587 3.2729018 -0.36173233 -1.4312559 -0.7018712 2.8098197 3.7135575 2.7806313
2.5345287 -1.2289435 2.7222211 -2.5502253 -0.2758331 -0.6076021 1.3757555 -1.0918926
1.0102369 3.3846889 -2.7609658 -0.27480048 0.3351711 2.3133938 -0.6179684 -0.68699616
-1.6430616 -3.2579508 -0.67996436 -2.759842 -0.8495756 3.3606684 1.5688034 2.340346
-0.2880986 2.2353425 -3.2846987 2.0720553 -0.13539197 -0.36079505 -0.20916429 3.4076471
-0.82335174 1.8739039 2.3113775 -2.0631564 -1.7812479 -0.838027 -0.6711778 -2.0299673
-1.2101467 -0.8173856 -0.25408274 3.035859 -0.49937832 1.1002393 0.36255187 -2.8097353
-0.16155605 -0.21178567 3.245246 -1.3204331 2.8385408 0.17189363 -0.6356168 3.3633094
3.5232162 -0.22836046 2.0527573 0.24063422 -0.27673748 -2.2659466 -1.4434009 0.04691331
-0.28570393 -0.83983403 2.985328 -0.6315774 -3.1874537 0.22433601 1.8242797 -0.57369876
0.5242861 1.2183604 -0.39437604 -0.49415568 -0.61442834 -0.65260327 -2.315449 -0.39792585
00000000: 77ec 3dc0 70a5 1ac0 e973 1940 b3f2 19be
00000010: f004 a0bf 63df 0b40 98cd 2f40 a26b 06bf
00000020: 4e0f e23f 162b a0be a353 5d40 1e91 61be
00000030: 9d90 f0bf 9650 4840 1041 63bf 0049 1640
00000040: b762 063f f723 6cc0 53eb efbf 86d5 2fbd
00000050: 7a42 85bf ec3e 9b3f 130b 03bf 48ab 92bf
00000060: 1543 0e40 8f35 83bf 18da 5ac0 3f73 5240
00000070: 3825 cebe df71 66c0 a6de b8be c1c1 8bbe
00000080: 5a56 4340 321b 5dc0 d917 0440 f1c8 2440
00000090: c2e7 5a40 14eb 06bf 0c0c 2f40 f272 0540
000000a0: 4eb3 1c3f 1324 65be ca9e 4740 827f c4bf
000000b0: d368 05bf 50fd ccbe 162c 72c0 cf47 d0be
000000c0: ab46 28c0 4823 3440 8403 5bbf 5bb8 1840
000000d0: d8ea 4240 ee46 2cbf 805e 3840 049f 00bf
000000e0: 126a 3d40 9754 bfbe e3d0 34bf 0e79 acbd
000000f0: 7161 1ebe 555f 0c40 3700 24bf ad3e 30c0
00000100: ee99 87be adcc 54c0 300f 6e3f 3e2b 5ec0
00000110: 2b5b 5ec0 aaea 3d40 ed2a 9dbe c390 92bf
00000120: c4a7 683e 6684 1240 dc99 cf3f 1d47 6dbf
00000130: 43bd d5be 26c7 4240 c39e a6bf 7147 56bf
00000140: 838e 8bbf 6882 27bf f126 8b40 95fb 0cc0
00000150: 451b 5040 ddfc 98be a763 1c40 f7e6 4240
00000160: 3513 e8bf 8b7a 1c3f 1957 63bf 3d83 0abf
00000170: 455b c33f 4da5 8cbf d2e9 e63f aa2b fabf
00000180: a060 9bbe 2e2c 2340 3a58 fa3f db30 0ac0
00000190: 55a0 babf d977 6fbf 6119 4340 5101 bfbf
000001a0: 5900 1540 3904 0fbf e30a fb3f 095d f03f
000001b0: baab 87c0 813f 8140 be91 4ebf 7d47 4c40
000001c0: f661 4540 c281 d7bf cc53 48bf 03f4 04bf
000001d0: 4864 25bf 37c8 e3be 2567 2ec0 2945 3940
000001e0: b153 94bf aa0a 66c0 3872 dbbe 5039 a5bf
000001f0: 7ad2 dbbf 86de 2b40 325f 9cbf 62a1 12bf
00000200: 53cc 6fbe 194a 32c0 44e7 bcbf 33d6 7440
00000210: e601 05c0 0f1d 0540 6ef8 debe 639a 4040
00000220: c35e a4be 6c9f 95c0 f948 0dbf 2860 1540
00000230: a4a5 a63e 0eea 02bf ccdf febf df31 19bf
00000240: 27c7 bebf 6507 3440 e863 a4bf fd72 73c0
00000250: 43b5 1540 c565 4d40 9505 50bf c60c acbe
00000260: 3f93 81bf 9c4d eebf 586e 77be b92a 1940
00000270: 6642 4540 d284 a53e 7a8c 3d40 78a8 1840
00000280: 111e 0340 bdc9 073e 18cb 1c40 9d94 ed3e
00000290: eda9 4940 4171 4cbf 5047 84bf e5ac 3040
000002a0: 6167 0dbf 3977 5140 fb34 b9be 6533 b7bf
000002b0: d5ad 33bf 16d4 3340 edaa 6d40 ddf5 3140
000002c0: b835 2240 054e 9dbf df38 2e40 e436 23c0
000002d0: ff39 8dbe d08b 1bbf c218 b03f 23c3 8bbf
000002e0: 714f 813f be9e 5840 aab3 30c0 a6b2 8cbe
000002f0: 8c9b ab3e a50e 1440 2d33 1ebf fbde 2fbf
00000300: d84f d2bf 4482 50c0 2512 2ebf 40a1 30c0
00000310: c97d 59bf 3115 5740 8dce c83f 3bc8 1540
00000320: a981 93be da0f 0f40 8138 52c0 8e9c 0440
00000330: 31a4 0abe 21ba b8be 2a2f 56be e416 5a40
00000340: 2ec7 52bf 15dc ef3f 9ced 1340 c10a 04c0
00000350: eeff e3bf f088 56bf 4fd2 2bbf fcea 01c0
00000360: 16e6 9abf 2f40 51bf 2217 82be 844b 4240
00000370: 84ae ffbe a4d4 8c3f 66a0 b93e b4d2 33c0
00000380: f36e 25be 58de 58be 1cb2 4f40 f403 a9bf
00000390: a7aa 3540 e204 303e c8b7 22bf 7640 5740
000003a0: 607c 6140 53d7 69be 6060 0340 d168 763e
000003b0: 89b0 8dbe 4505 11c0 5cc1 b8bf 2c28 403d
000003c0: c947 92be 5dff 56bf 9d0f 3f40 0eaf 21bf
000003d0: 3eff 4bc0 57b8 653e ff81 e93f ecdd 12bf
000003e0: 9d37 063f 3cf3 9b3f a8eb c9be f901 fdbe
000003f0: 2d4b 1dbf 0211 27bf 5130 14c0 f0bc cbbe

q.layers.1.weight f4 [300, 400]
-0.008736345 -0.056384612 -0.025315097 0.030156625 0.010035876 -0.07012316 -0.01089887 0.000838765
-0.029424498 0.025638206 -0.030978194 0.026414873 -0.026167072 0.017250886 0.024915867 -0.039571512
-0.03296349 -0.02014414 -0.057012044 -0.044762246 -0.059954394 -0.10114845 0.0012977123 -0.043786444
-0.04374479 -0.051145367 0.011910263 -0.07085307 -0.03281621 -0.016448576 -0.033753444 0.01933332
-0.0151328575 0.012905331 -0.01736753 -0.0044268407 0.02656679 -0.026626414 0.0057649254 -0.013100467
-0.03375522 -0.022120193 0.03967204 -0.0047078566 0.024329532 0.008749127 -0.01954714 -0.04201893
-0.04607025 -0.045092825 -0.06866569 0.00026636542 -0.0058870506 -0.01710672 -0.00044701077 -0.022105629
0.02995294 0.025649888 -0.05960242 0.01832484 -0.0018074366 0.012754257 -0.027925504 -0.04134285
-0.008532872 0.0438594 -0.04792139 -0.07111801 -0.085844204 -0.028482625 -0.047954567 0.009379006
-0.059605855 0.01890954 0.03955017 -0.04575945 0.008726932 -0.06012729 0.010709334 -0.02318114
-0.07794787 -0.054580715 -0.058368847 0.018785859 -0.044848647 -0.0013871081 -0.044710774 0.009811816
-0.04972975 -0.03598508 -0.03903073 -0.063129365 -0.02297684 -0.05971566 -0.028717767 -0.043861344
-0.0027997436 -0.006529007 -0.0491442 -0.03485775 -0.10764272 0.008911985 -0.035299595 -0.032695405
-0.0074259643 0.06254759 0.0021449102 -0.03853247 -0.016724674 0.021887412 -0.033641655 -0.04418293
-0.0036411074 -0.018495955 -0.015692553 -0.009202918 -0.06344058 -0.0228651 0.0049661896 -0.037049938
-0.024440177 -0.038504563 -0.032896355 -0.008576068 -0.014062721 0.0046232645 -0.015522013 0.010281158
-0.0073401807 -0.04538251 -0.017750837 0.0048240717 -0.03599961 0.00281492 -0.032774083 -0.00818124
0.019352078 -0.10349261 0.03156704 0.021038985 -0.10681885 0.02674344 -0.04330442 -0.033660986
-0.03176619 -0.04858945 0.0072558764 -0.07262689 -0.065238714 -0.018741237 0.01682299 0.038496863
0.025029603 -0.048730876 -0.036079805 -0.075374536 0.02910654 -0.06620254 -0.030512113 -0.013139855
0.016221022 -0.055549417 -0.017161189 -0.003880903 -0.11733248 0.0054280567 -0.0072677066 -0.05220892
-0.02635916 0.03726102 -0.10851251 -0.046359383 0.016650965 -0.00991277 -0.0078604 0.005477426
0.010168588 -0.029469205 -0.012660971 -0.021628207 -0.05756852 -0.0063831434 -0.053771693 -0.061888587
-0.02977117 0.054162897 -0.013838227 0.057615776 -0.03624151 -0.05717223 -0.041110937 0.014344212
-0.0132515505 -0.03549481 -0.0055672876 -0.015541876 -0.0011752455 -0.12987484 -0.033528995 -0.06003585
0.02288249 -0.0636511 -0.010130088 0.02788363 -0.063931 -0.00024087627 -0.04672927 -0.009671557
-0.0727971 -0.073467836 0.006211096 -0.0750858 0.019002832 -0.03930549 0.04150114 0.009051012
0.0038807618 -0.035739657 -0.057051454 -0.08534568 0.08165573 -0.037706986 -0.08808517 -0.07488309
-0.015524135 -0.0706109 -0.0042877975 -0.059953436 0.050231986 -0.011915338 -0.02232111 -0.0118107
0.0058817323 0.027602145 -0.05307872 0.003413985 0.02841244 -0.006527057 0.08880892 0.013627518
-0.0039179847 0.00023865553 -0.07029335 -0.055539254 -0.076230735 0.029115353 -0.027054807 -0.023056386
-0.002693832 -0.03416171 -0.01229465 0.027162682 0.008228128 -0.009296764 -0.07663986 -0.044572428
00000000: e322 0fbc 8df3 66bd 9b61 cfbc 070b f73c
00000010: 846d 243c bb9c 8fbd 2d91 32bc 91e0 5b3a
00000020: a50b f1bc 3707 d23c fbc5 fdbc 0164 d83c
00000030: 545c d6bc bb51 8d3c 5c1c cc3c bd15 22bd
00000040: b904 07bd 5305 a5bc 7685 69bd 9e58 37bd
00000050: bd92 75bd eb26 cfbd 0018 aa3a 6a59 33bd
00000060: bd2d 33bd ce7d 51bd 4423 433c 6a1b 91bd
00000070: 4a6a 06bd 2abf 86bc 0d41 0abd e960 9e3c
00000080: ceef 77bc e270 533c 5a46 8ebc 080f 91bb
00000090: 99a2 d93c a31f dabc b3e7 bc3b 57a3 56bc
000000a0: ea42 0abd 6835 b5bc 267f 223d 5d44 9abb
000000b0: ba4e c73c 8058 0f3c 5321 a0bc 0b1c 2cbd
000000c0: 29b4 3cbd 41b3 38bd 99a0 8cbd f6a6 8b39
000000d0: 29e8 c0bb 6423 8cbc c55c eab9 dd16 b5bc
000000e0: de5f f53c b71f d23c ab21 74bd fa1d 963c
000000f0: 82e7 ecba 3bf7 503c 07c4 e4bc 1f57 29bd
00000100: 76cd 0bbc eaa5 333d 3849 44bd 52a6 91bd
00000110: 16cf afbd 6554 e9bc 026c 44bd 67aa 193c
00000120: 4525 74bd 2ee8 9a3c 5cff 213d 436e 3bbd
00000130: 68fb 0e3c 0948 76bd 3476 2f3c 60e6 bdbc
00000140: 22a3 9fbd 0790 5fbd 2c14 6fbd cde4 993c
00000150: 37b3 37bd a0cf b5ba a522 37bd bdc1 203c
00000160: 6cb1 4bbd 1765 13bd b0de 1fbd f849 81bd
00000170: ed39 bcbc 6898 74bd 8641 ebbc f4a7 33bd
00000180: e77b 37bb 48f1 d5bb 6e4b 49bd 00c7 0ebd
00000190: c973 dcbd 9303 123c 4f96 10bd 9eeb 05bd
000001a0: 8155 f3bb f318 803d 9f91 0c3b 39d4 1dbd
000001b0: 2f02 89bc 3b4d b33c d5cb 09bd 29f9 34bd
000001c0: a59f 6ebb d484 97bc ab8d 80bc d6c7 16bc
000001d0: 23ed 81bd 974f bbbc 6bbb a23b adc1 17bd
000001e0: c436 c8bc f6b6 1dbd 54be 06bd a382 0cbc
000001f0: 5467 66bc c17e 973b 0b50 7ebc 4d72 283c
00000200: e685 f0bb 03e3 39bd 346a 91bc 3f13 9e3b
00000210: 5474 13bd 857a 383b 1e3e 06bd 9c0a 06bc
00000220: 4088 9e3c eff3 d3bd 714c 013d f359 ac3c
00000230: d7c3 dabd 0f15 db3c fa5f 31bd 1ae0 09bd
00000240: 441d 02bd bb05 47bd b4c2 ed3b 68bd 94bd
00000250: e09b 85bd 3987 99bc 5ed0 893c e3ae 1d3d
00000260: e20a cd3c 079a 47bd 6bc8 13bd f75d 9abd
00000270: d770 ee3c 3395 87bd 8af4 f9bc 8c48 57bc
00000280: f3e1 843c c987 63bd 9f95 8cbc bf56 7ebb
00000290: 034c f0bd d7dd b13b f125 eebb 05d9 55bd
000002a0: 2aef d7bc 039f 183d cf3b debd 56e3 3dbd
000002b0: 9b67 883c 2c69 22bc e8c8 00bc fb7b b33b
000002c0: 269a 263c 6769 f1bc f66f 4fbc a32d b1bc
000002d0: f8cc 6bbd b029 d1bb b53f 5cbd e37e 7dbd
000002e0: abe2 f3bc ead9 5d3d bbb9 62bc 85fe 6b3d
000002f0: fa71 14bd 6e2d 6abd f163 28bd fc03 6b3c
00000300: 081d 59bc 0263 11bd cb6d b6bb 5aa3 7ebc
00000310: b20a 9aba e9fd 04be b355 09bd 27e8 75bd
00000320: 0f74 bb3c 825b 82bd abf8 25bc 366c e43c
00000330: 42ee 82bd bb93 7cb9 3167 3fbd 7375 1ebc
00000340: a516 95bd 4e76 96bd 7386 cb3b 95c6 99bd
00000350: d4ab 9b3c cbfe 20bd 19fd 293d b24a 143c
00000360: 6154 7e3b bf63 12bd c9ae 69bd b7c9 aebd
00000370: 1f3b a73d a472 1abd ff65 b4bd 4e5c 99bd
00000380: f158 7ebc 739c 90bd a780 8cbb bc91 75bd
00000390: 0ec0 4d3d 8d38 43bc c3da b6bc ab81 41bc
000003a0: 8cbb c03b e51d e23c 1269 59bd 2abd 5f3b
000003b0: 35c1 e83c ece0 d5bb 73e1 b53d f445 5f3c
000003c0: 7062 80bb 9b3f 7a39 f6f5 8fbd 217d 63bd
000003d0: dc1e 9cbd 5283 ee3c 0ba2 ddbc bfe0 bcbc
000003e0: 008b 30bb 26ed 0bbd 806f 49bc 4684 de3c
000003f0: 45cf 063c 7451 18bc 5cf5 9cbd 9491 36bd

q.layers.1.bias f4 [300]
-0.028269885 -0.07174232 1.0538611 -0.017548192 -0.022070043 -0.066692114 -0.116704084 -0.03861431
-0.037561253 -0.04132274 -0.062424038 -0.046208248 0.16111496 -0.029660802 -0.045460097 -0.011090599
-0.038565602 1.0348985 0.017686307 -0.037067167 -0.03771893 -0.057775512 -0.087681234 0.079045616
-0.04200693 -0.049676012 0.44748676 1.9592594 -0.031413697 -0.031095047 -0.026948182 -0.030517211
-0.04819454 -0.029325452 -0.03805696 -0.03183752 0.053105928 -0.06029943 -0.03641271 -0.015769413
-0.046850763 -0.033798337 -0.039853055 0.0014356632 -0.024358466 -0.048523903 -0.021007298 1.1565701
-0.022706402 -0.030934751 -0.05059527 -0.035799947 -0.033534158 -0.071152434 0.18931165 -0.03005251
1.5144243 -0.04038087 1.4168684 -0.035478216 -0.055377014 -0.04609227 -0.09005781 0.0035574324
-0.09758203 -0.06389279 -0.037687536 -0.046510283 -0.049100798 -0.057955284 -0.037132364 -0.024408612
-0.06786705 -0.02340334 -0.052810635 -0.036243055 -0.028204396 -0.013052403 0.51652014 -0.024571138
-0.03944445 -0.05517534 -0.031643517 -0.06361 -0.03061719 -0.03691688 0.82780296 0.014044783
-0.037472293 -0.04568719 -0.024000766 0.28450486 1.8357831 -0.016891865 0.12610196 -0.033996228
-0.6322636 -0.033502407 -0.047481727 -0.06202826 -0.06936034 -0.0487736 -0.0718767 -0.06303424
-0.03675501 -0.03711999 -0.03703086 -0.0317127 -0.037743196 -0.036814503 0.32335818 -0.035801746
-0.06213049 -0.036815155 -0.047740128 -0.04040108 -0.020225435 -0.036717527 -0.047646232 -0.027453378
-0.040280607 -0.2275593 -0.049542326 -0.04214936 -0.030181285 -1.0260013 -0.062153704 0.16444054
-0.03753751 -0.05015585 0.11668337 -0.023581097 -0.014753785 -0.046347864 -0.058638144 -0.07169953
-0.02962234 -0.039164897 -0.031917386 -0.07027025 0.073792525 -0.0103239585 -0.037714157 -0.047497988
-0.06903324 -0.020912955 -0.039309774 -0.033687692 -0.06915175 -0.05060613 -0.041239552 -0.037387457
-0.005810175 0.83809984 -0.09563429 -0.03167714 -0.037731245 0.047509898 -0.05871202 -0.07983604
-0.015737323 2.5908387 -0.07493334 1.7972584 -0.03760665 0.42056516 0.92672 -0.025759874
-0.031697243 -0.08329549 -0.03940757 -0.038815953 -0.020553958 -0.030708864 0.104245186 0.33218312
-0.03999199 -0.013522498 0.26715252 -0.038130186 -0.044503797 -0.024325121 -0.080567434 -0.047515612
-0.043368414 -0.061732877 -0.038133744 -0.038007013 -0.03389687 -0.02496081 -0.022382177 -0.034285463
-0.05752522 -0.08246133 -0.013856235 -0.01708868 -0.036104556 -0.033076875 0.050798748 0.040587496
-0.034664378 -0.066057466 -0.07558637 -0.007314386 -0.031651843 -0.031706017 0.006741448 -0.027156932
-0.071271665 0.6761262 -0.01990215 0.3421147 -0.058089156 -0.028476682 -0.035323575 -0.03878425
-0.04446684 -0.03269246 -0.028433809 1.565572 -0.030654589 -0.052264478 -0.29505077 -0.052368972
-0.045599557 -0.05409645 1.1023148 0.105034105 -0.03643692 -0.03724429 -0.03541871 -0.03851985
-0.05380348 0.6920813 -0.17331064 -0.036816794 -0.015743336 -0.06788688 -0.041954044 -0.014569191
-0.06920688 -0.035854843 -0.028753834 -0.03665725 -0.037523616 -0.04265082 -0.035820086 -0.035689764
-0.03102271 -0.058444418 -0.026449712 -0.029052632 -0.031120433 -0.040205557 -0.71022224 -0.03320529
00000000: 3f96 e7bc a3ed 92bd ece4 863f 3ac1 8fbc
00000010: 3ccc b4bc e095 88bd 8d02 efbd 0a2a 1ebd
00000020: d4d9 19bd 0942 29bd 59b0 7fbd dc44 3dbd
00000030: 52fb 243e 36fb f2bc 5e34 3abd 58b5 35bc
00000040: f7f6 1dbd 8e77 843f e0e2 903c bed3 17bd
00000050: 2a7f 1abd 04a6 6cbd 3892 b3bd abe2 a13d
00000060: 750f 2cbd 1379 4bbd fc1c e53e 03c9 fa3f
00000070: a6ab 00bd 0abb febc 6fc2 dcbc 3bff f9bc
00000080: a367 45bd ee3b f0bc 9de1 1bbd 0f68 02bd
00000090: 9a85 593d 89fc 76bd 7e25 15bd db2e 81bc
000000a0: 96e6 3fbd 2070 0abd f53c 23bd dd2c bc3a
000000b0: 688b c7bc 00c1 46bd 7f17 acbc 7d0a 943f
000000c0: c702 babc e06a fdbc fc3c 4fbd f7a2 12bd
000000d0: 1d5b 09bd 5eb8 91bd eada 413e ae30 f6bc
000000e0: a8d8 c13f 6966 25bd f25b b53f 9b51 11bd
000000f0: 02d3 62bd 40cb 3cbd 3b70 b8bd d023 693b
00000100: 16d9 c7bd 39da 82bd 3f5e 1abd 9181 3ebd
00000110: eb1d 49bd 8562 6dbd 1b18 18bd 92f4 c7bc
00000120: e1fd 8abd 5cb8 bfbc f74f 58bd 9973 14bd
00000130: e80c e7bc bfd9 55bc aa3a 043f 6949 c9bc
00000140: 8190 21bd 8aff 61bd a29c 01bd f645 82bd
00000150: e7d0 fabc 2836 17bd e5ea 533f 171c 663c
00000160: 8c7c 19bd 7e22 3bbd 419d c4bc 9faa 913e
00000170: f1fa ea3f cf60 8abc df20 013e a13f 0bbd
00000180: 07dc 21bf d239 09bd 337c 42bd 5811 7ebd
00000190: cb0c 8ebd d4c6 47bd 1734 93bd 1818 81bd
000001a0: 6c8c 16bd 210b 18bd acad 17bd 2de5 01bd
000001b0: 9c98 1abd ceca 16bd 348f a53e daa4 12bd
000001c0: 8a7c 7ebd 7dcb 16bd 278b 43bd 9a7b 25bd
000001d0: d0af a5bc 1e65 16bd b228 43bd e8e5 e0bc
000001e0: 47fd 24bd 4e05 69be e5ec 4abd cfa4 2cbd
000001f0: be3e f7bc 0354 83bf e294 7ebd 1a63 283e
00000200: efc0 19bd 3870 4dbd b1f7 ee3d 252d c1bc
00000210: dcb9 71bc 42d7 3dbd 8d2e 70bd 34d7 92bd
00000220: 8daa f2bc 5f6b 20bd cebb 02bd d9e9 8fbd
00000230: 8920 973d d225 29bc 297a 1abd 408d 42bd
00000240: 4d61 8dbd a551 abbc 4903 21bd 1bfc 09bd
00000250: 6f9f 8dbd 6048 4fbd ceea 28bd 9723 19bd
00000260: 4863 bebb b68d 563f e9db c3bd e4bf 01bd
00000270: 148c 1abd bd99 423d 047c 70bd 1481 a3bd
00000280: 8feb 80bc 4dd0 2540 a776 99bd 900c e63f
00000290: 6e09 1abd 5154 d73e 863d 6d3f 5f06 d3bc
000002a0: f8d4 01bd d396 aabd d569 21bd 7afd 1ebd
000002b0: c660 a8bc 2891 fbbc 807e d53d e813 aa3e
000002c0: a4ce 23bd 788d 5dbc 37c8 883e 662e 1cbd
000002d0: 9d49 36bd 7a45 c7bc 8a00 a5bd bb9f 42bd
000002e0: 14a3 31bd 9ddb 7cbd 2132 1cbd 3ead 1bbd
000002f0: 72d7 0abd 9d7a ccbc d45a b7bc ea6e 0cbd
00000300: 919f 6bbd 7ce1 a8bd 4305 63bc 8ffd 8bbc
00000310: 5fe2 13bd 9e7b 07bd 5912 503d 133f 263d
00000320: 3cfc 0dbd 2349 87bd 07cd 9abd 84ad efbb
00000330: 5da5 01bd 2bde 01bd 5de7 dc3b 3778 debc
00000340: e1f6 91bd 9b16 2d3f d509 a3bc a829 af3e
00000350: e5ee 6dbd ee47 e9bc 74af 10bd 3cdc 1ebd
00000360: dc22 36bd 87e8 05bd 05ee e8bc aa64 c83f
00000370: 551f fbbc 4713 56bd e510 97be d980 56bd
00000380: 9ac6 3abd 3d94 5dbd a718 8d3f 1f1c d73d
00000390: e13e 15bd 788d 18bd 3613 11bd fdc6 1dbd
000003a0: 0a61 5cbd 3d2c 313f 5878 31be 35cd 16bd
000003b0: 2bf8 80bc 4708 8bbd 01d8 2bbd 9eb3 6ebc
000003c0: 56bc 8dbd 87dc 12bd 298d ebbc ea25 16bd
000003d0: 5db2 19bd a0b2 2ebd 15b8 12bd 6e2f 12bd
000003e0: 5723 febc 6a63 6fbd 11ad d8bc c9ff edbc
000003f0: 47f0 febc 95ae 24bd 20d1 35bf 4502 08bd

q.layers.2.weight f4 [4, 300]
0.013421881 -0.010007825 -0.090465374 -0.029608546 -0.041341383 0.005386195 -0.062135357 0.051987767
0.0069242474 -0.029822549 0.0009843179 -0.04268731 -0.39353153 -0.033457033 0.011146955 0.005119398
-0.028606728 1.2460194 -0.042132076 -0.043811474 0.05078755 -0.03129763 -0.058658015 -0.0420591
0.011144502 -0.006968532 -0.013486056 0.11158699 -0.07606309 -0.042812742 -0.0058054323 -0.017358271
0.040192496 0.013383792 -0.055086385 0.01648093 -0.05003926 -0.00067745714 0.0050326 -0.016330034
-0.02754941 0.017769363 -0.009648736 -0.034766357 0.00053668336 0.0034290624 -0.066507906 -0.3450118
-0.00880275 -0.011854501 0.008738772 -0.00030794286 -0.0035187085 -0.0010619648 -0.045383185 -0.05490328
0.19745879 -0.03361481 0.030445468 -0.007988348 -0.025952464 -0.029716836 0.032079358 -0.041788872
-0.0037467077 0.059923872 0.02097284 0.0053422754 0.050856683 -0.0042471555 0.025081018 -0.037337236
-0.024940737 0.03335818 -0.044507787 -0.006997199 0.034832157 -0.022462975 -0.045485463 -4.4478584e-05
0.024631487 -0.019900415 -0.04149203 0.04035552 0.010565409 0.025919655 -0.0037962513 -0.012157311
0.026836185 -0.025330568 -0.027357975 0.23183975 0.2877709 -0.02250279 -0.026472704 0.016740367
-0.17711449 0.013563473 -0.012646042 -0.0104639875 -0.0037327176 -0.023210753 -0.3420485 -0.032402556
0.0124377785 -0.024933428 0.016699256 -0.045385305 -0.012238193 -0.024497904 -0.060631853 -0.0048661656
0.00054878584 -0.012950112 -0.031017669 0.011587324 -0.0068040346 0.009054304 0.03787597 0.007811257
0.011868561 0.016606683 -0.008543379 -0.035055395 0.016477734 -0.009809334 -0.0010138763 -0.029941559
0.010498951 -0.0017484426 -0.0014104166 0.011698755 0.06420096 0.026893912 0.007294792 0.006726513
0.0063930405 -0.01303461 0.026668271 0.051813398 -0.0083703445 0.0009925766 0.018753642 -0.014866222
-0.08145772 -0.008184773 -0.002607655 0.008962483 -0.0011905985 -0.046941776 -0.022474917 -0.030995546
0.017860917 -0.28985327 -0.0040600547 0.028612308 0.02527037 -0.031879954 0.024439136 -0.026442619
0.033286918 0.185364 -0.008807895 0.021263001 0.007416888 0.04112189 0.73718613 -0.028996423
0.009059032 0.02535712 -0.023696862 0.0104019325 0.0069713835 -0.012298452 -0.003010206 0.0111136595
-0.03011689 -0.002044871 -0.16753821 -0.048698265 0.0042851665 -0.022989409 -0.018586636 0.03325159
-0.036770985 -0.0058137933 0.021188729 0.04067913 -0.03902954 0.0026757221 0.050153516 -0.027969081
-0.00037780261 0.0033415311 -0.06256082 0.029446524 0.030083276 -0.016808316 0.026515914 -0.02497882
-0.022454046 0.08615049 0.059052933 -0.002287301 0.055097215 -0.018227417 -0.0041592834 -0.025038185
0.07726016 -0.6348087 -0.021120403 -0.011377901 -0.012793026 -0.04224789 0.004252239 -0.0329729
-0.028441142 0.008164631 -0.023440573 -0.054478046 -0.015287108 0.0047225356 -0.019189876 -0.01156491
0.018242812 -0.011950522 0.28510308 -0.010461755 0.04102003 0.036668725 -0.012433331 0.04015785
-0.009318659 -0.047216523 -1.3284259 -0.03272847 0.006451182 -0.0021174336 -0.007145022 0.022414489
0.002465596 -0.019258747 -0.000765113 -0.0032816902 0.028110316 -0.009131157 -0.003024233 0.032268446
-0.004348766 0.050003808 -0.020092264 0.018959051 -0.059327308 0.025484495 -0.013106275 -0.013337981
00000000: 73e7 5b3c dcf7 23bc e945 b9bd 9f8d f2bc
00000010: 9555 29bd ae7e b03b a581 7ebd 20f1 543d
00000020: cce4 e23b 6b4e f4bc 3a04 813a e4d8 2ebd
00000030: f77c c9be 3e0a 09bd b8a1 363c 9fc0 a73b
00000040: a858 eabc 907d 9f3f af92 2cbd a973 33bd
00000050: 9b06 503d f231 00bd 6343 70bd 2a46 2cbd
00000060: 6e97 363c 4958 e4bb 9ef4 5cbc b887 e43d
00000070: f7c6 9bbd 6a5c 2fbd 7f3b bebb ef32 8ebc
00000080: e3a0 243d b147 5b3c 43a2 61bd 0403 873c
00000090: f8f5 4cbd 6197 31ba 82e8 a43b 90c6 85bc
000000a0: 4daf e1bc 0e91 913c bb15 1ebc 2b67 0ebd
000000b0: 36b0 0c3a 1fba 603b 4c35 88bd 63a5 b0be
000000c0: 6939 10bc 6239 42bc 112d 0f3c 6473 a1b9
000000d0: 229a 66bb a031 8bba b8e3 39bd 43e2 60bd
000000e0: a332 4a3e afaf 09bd c668 f93c 8fe1 02bc
000000f0: 439a d4bc b970 f3bc a565 033d cf2a 2bbd
00000100: 538b 75bb bc72 753d 3ccf ab3c 410e af3b
00000110: 194f 503d b92b 8bbb b576 cd3c eeee 18bd
00000120: 8450 ccbc 96a2 083d cc4d 36bd c248 e5bb
00000130: 2aac 0e3d 4604 b8bc f74e 3abd 848e 3ab8
00000140: f9c7 c93c 3206 a3bc 8cf3 29bd d44b 253d
00000150: 8a1a 2d3c 7555 d43c 87ca 78bb 752f 47bc
00000160: 8fd7 db3c 0d82 cfbc d51d e0bc 6667 6d3e
00000170: b556 933e c557 b8bc 49dd d8bc 1823 893c
00000180: 805d 35be 5439 5e3c 5831 4fbc 2571 2bbc
00000190: 9ca0 74bb 7a24 bebc fb20 afbe 8bb8 04bd
000001a0: d3c7 4b3c 3041 ccbc e1cc 883c f1e5 39bd
000001b0: b482 48bc d4af c8bc 1b59 78bd 5b74 9fbb
000001c0: 65dc 0f3a b52c 54bc c418 febc c2d8 3d3c
000001d0: 61f4 debb 8158 143c d523 1b3d 93f5 ff3b
000001e0: 5a74 423c bd0a 883c 87f9 0bbc 3f96 0fbd
000001f0: 50fc 863c 54b7 20bc 0be4 84ba 0048 f5bc
00000200: cb03 2c3c 002c e5ba badd b8ba 23ac 3f3c
00000210: cb7b 833d 9f50 dc3c 2709 ef3b 156a dc3b
00000220: b67c d13b 1e8f 55bc 6b77 da3c 493a 543d
00000230: c523 09bc 5819 823a 3da1 993c 7491 73bc
00000240: 4ed3 a6bd 6d19 06bc 31e5 2abb 61d7 123c
00000250: db0d 9cba 0546 40bd 511d b8bc 5fea fdbc
00000260: 0f51 923c a667 94be 350a 85bb 5c64 ea3c
00000270: cf03 cf3c 8e94 02bd 9534 c83c 319e d8bc
00000280: dd57 083d 0fd0 3d3e fd4e 10bc bf2f ae3c
00000290: 5e09 f33b 6d6f 283d 3bb8 3c3f e889 edbc
000002a0: 566c 143c bcb9 cf3c ec1f c2bc de6c 2a3c
000002b0: 3470 e43b 727f 49bc e046 45bb 1116 363c
000002c0: b2b7 f6bc 3e03 06bb 238f 2bbe d577 47bd
000002d0: 956a 8c3b 4954 bcbc 0043 98bc d232 083d
000002e0: 2c9d 16bd a281 bebb fc93 ad3c 299f 263d
000002f0: 70dd 1fbd 2b5b 2f3b c66d 4d3d 6a1f e5bc
00000300: cf13 c6b9 97fd 5a3b e31f 80bd d639 f13c
00000310: 3471 f63c 98b1 89bc e737 d93c 62a0 ccbc
00000320: 8cf1 b7bc ab6f b03d 7de1 713d 8be6 15bb
00000330: 9ead 613d aa51 95bc 994a 88bb e11c cdbc
00000340: 933a 9e3d d382 22bf b204 adbc 606a 3abc
00000350: d799 51bc 200c 2dbd 5e56 8b3b 970e 07bd
00000360: 66fd e8bc f2c4 053c 7206 c0bc 5f24 5fbd
00000370: c776 7abc 80bf 9a3b 1634 9dbc c07a 3dbc
00000380: f371 953c 1fcc 43bc 08f9 913e c867 2bbc
00000390: 9e04 283d f231 163d 2cb5 4bbc 8f7c 243d
000003a0: 4aad 18bc 1d66 41bd dc09 aabf 4a0e 06bd
000003b0: 7064 d33b a4c4 0abb ca20 eabb 979e b73c
000003c0: d695 213b 85c4 9dbc dd91 48ba a011 57bb
000003d0: 9b47 e63c d99a 15bc 3632 46bb eb2b 043d
000003e0: 1880 8ebb cbd0 4c3d 8898 a4bc 0350 9b3c
000003f0: 3101 73bd dcc4 d03c b4bb 56bc 8c87 5abc

q.layers.2.bias f4 [4]
1.6954038 2.5433955 1.5237345 -0.4303281
00000000: fe02 d93f fec6 2240 bb09 c33f f753 dcbe
