pyt_save/MinnowvSharkSameSpeed.pt (torch_old, 495157 bytes, 6 tensors)

q.layers.0.weight f4 [400, 4]
00000000: c101 a23b b65b 363d ef47 1ebd 1d42 0ebd
00000010: 9d33 8c3b 4ea3 4bbe b38f b6bd 78e1 453e
00000020: be61 27bd 9463 503d 7f0b 4d3e c66d 15be
00000030: 9565 7cbc cb84 1ebf c180 8cbb 1629 9f3e
00000040: 56e3 e53d 986a 4fbf 919a f4bc acf1 b83e
00000050: 4374 313d feb4 b43d 41db 1f3c 9354 1bbe
00000060: 70ad 01bf 6073 2cbd 09bd 813d 9f74 143c
00000070: 4727 bcbb da73 d1be c93b 293c fc4b a03e
00000080: 36ba 253f df5d 2dbe 4039 b73f 5ee6 4dbf
00000090: 1157 423b 5b08 48be 3adb 0fbc e021 df3d
000000a0: 85aa e33e bab0 493e dd96 1fc0 bb99 dabe
000000b0: 142c 513c c411 63bf 0db6 37bb 7454 423f
000000c0: 8e61 76be 3db6 9dbe 0164 013f ec5d f9be
000000d0: f67b ebbd 4877 20be cf4b cabc 3af4 bd3d
000000e0: 8989 c93b d960 93bd 7dfd a53c abbf 873c
000000f0: 716a 0a3f 74f8 25bf 7336 2d3d e38e e83d
00000100: c8a4 463d 82d3 5d3e 8d2f 023e 7689 61be
00000110: a689 bfbc deff 08be acca ba3d b59e 2f3e
00000120: 5475 2bbd 9217 1dbe cdd1 fe3c 13a0 2a3e
00000130: 0373 96bb 280f 25bf d589 f5b9 59d4 923e
00000140: d301 ebbe 78cd 3fbf 4ed1 433d 00cb 53bf
00000150: 6530 a8be 311f 1bbf 1417 d43e b5f4 8e3e
00000160: f3a2 003c cd60 0cbf f00d 97ba 0202 dd3e
00000170: 38c4 013c 4acd d0bf 1452 2bbc 1d2f 7a3c
00000180: 95b5 dabe 0de5 34bf 37b5 313e e54a c73e
00000190: 032f 9b3d 5bc6 5fbf f3ea f2bc 3735 593f
000001a0: 7a8c 18be b836 d6bd d588 2bbd be47 7e3d
000001b0: 844a 8abc f9bc 8b3c ba7d 1040 b7bc e7bf
000001c0: 6dca 18bf b608 ba3c e18d b63d f51a d1be
000001d0: 558d d03d 0a86 1ebc 84a4 2abc 1903 433d
000001e0: 735c 37bc 43c6 eebe d6c1 f5ba f2b3 7d3e
000001f0: ca49 b23e 33de d2bf 6f11 4dbc 2d15 b23f
00000200: f714 eebe 7098 443d c8d1 8b3e 0ccd edbd
00000210: 5305 293f 9aad ce3e 24b6 d5be 1c2f b0be
00000220: 7d8d b2be 941e 27bf ea62 f5be 390c c93e
00000230: f71c 4bbd 3178 90be c679 e93d 6763 983e
00000240: 8454 6dbe 1d0d 82be 6cd3 293e 39d8 3dbf
00000250: 8199 ef3c f684 6cbf 6f58 213c e6f9 243f
00000260: 9ddf e43d 0913 10bf 4d55 d8bd e6be 5e3d
00000270: 40e9 d6be edc1 00bf 67cc f7be f818 8a3e
00000280: 9ddd f93e e29b 203e 4301 a73d 0c10 b13d
00000290: 7c5f 28bc 533b 1dbf 209d 943b 0f79 7a3e
000002a0: 2059 683d f5a8 0fbe b8df 2c3d 8c15 2c3d
000002b0: fd2c d5bc e702 57bf 8c1a 9cbd e9f2 f83e
000002c0: 5c0d f73c 5ccd 08bf 29e3 6b3a a8a8 7f3e
000002d0: 2997 cdbc 17e8 3ebf bd67 59bc a3f7 ca3e
000002e0: 40b0 cc3d f38e a1bd e4e3 e93d 9579 353d
000002f0: ef9c a5bc b1c9 18be 1989 8c3b 5d1a 143e
00000300: 0cfb b03f f49a dd3e 0582 a33c 4307 1d3e
00000310: 41db 50be 345b 44be 5064 01bf de70 523d
00000320: 0c83 46be aecc 193f a85f 023e cfd2 12bf
00000330: 1662 043f f71b c23d 7709 dbbe bdfb 5c3c
00000340: 5db7 0b3e 1af1 0ebf bdd7 6f3e 8bac ecbd
00000350: e973 1fbe 9b88 55bf b865 57bd a164 373f
00000360: 3914 f1bd b42d 18bf ea13 68bf 806b aa3e
00000370: ed30 183b 0e70 38bd 6d48 653c ff8b d93c
00000380: 3d52 1bbd 5ab8 dabe e4d4 7ebe 5290 6b3e
00000390: 7a91 80bf 3c58 27bf a067 df3d 9010 edbf
000003a0: 435c 6fbc 27aa 9bbf 31fd e0bd 4233 723f
000003b0: 7a89 5b3e 1f31 07bf ac5c a9be 217d 873e
000003c0: a402 09bc 3b59 93bf 00ec c73b f383 cc3e
000003d0: c27d 0bbf 1640 8cbe 32d9 c4be af8f 98be
000003e0: c617 7ebf ea62 19bf 76e1 b6bf 394d c93d
000003f0: 4e00 1b3f 6ce7 4fbf 9097 ce3e b6fe 0e3e
0.0049440567 0.044521056 -0.03864282 -0.03473102 0.0042786137 -0.19886515 -0.08914127 0.19324291
-0.0408647 0.050876215 0.20023917 -0.14592656 -0.015405078 -0.61921376 -0.0042878096 0.31086034
0.112250015 -0.81022024 -0.02985886 0.3612188 0.043323766 0.08823584 0.009756864 -0.15168981
-0.5065527 -0.042102218 0.06334884 0.009061008 -0.005741987 -0.409087 0.010329195 0.3130797
0.6473726 -0.1693034 1.4314346 -0.8042964 0.0029653946 -0.19534437 -0.008780295 0.10895133
0.44466034 0.19696322 -2.493583 -0.42695412 0.012766857 -0.88698983 -0.0028032095 0.75910115
-0.24060652 -0.308031 0.5054322 -0.4870447 -0.11498253 -0.15670502 -0.024694351 0.09275098
0.0061504287 -0.071962066 0.020262474 0.016570887 0.54068667 -0.64832234 0.042288255 0.113553785
0.04849699 0.21662715 0.12713452 -0.22025093 -0.023381066 -0.13378856 0.09120688 0.17150386
-0.04185994 -0.15341023 0.0311059 0.16662626 -0.004591347 -0.6447625 -0.00046832734 0.28677633
-0.4589983 -0.74922895 0.04780703 -0.8273163 -0.32849422 -0.6059447 0.41423857 0.27921072
0.00785135 -0.54835206 -0.001152454 0.43165594 0.007920317 -1.6312649 -0.010456581 0.015270022
-0.4271666 -0.70662004 0.17354284 0.38924327 0.07577326 -0.8741204 -0.029653048 0.84846824
-0.14897338 -0.104596555 -0.04187854 0.062080137 -0.016881235 0.017057883 2.2576737 -1.8104466
-0.5968388 0.022709232 0.0891378 -0.4084088 0.10183207 -0.009675512 -0.0104152 0.047610376
-0.011191475 -0.46635637 -0.0018749784 0.24775675 0.34821922 -1.647406 -0.0125163635 1.3912712
-0.4650037 0.04799694 0.27308488 -0.11611375 0.6602375 0.40366822 -0.41740525 -0.34410942
-0.34873572 -0.65281034 -0.47927028 0.39267138 -0.04958817 -0.282167 0.114001796 0.29763338
-0.23176771 -0.2540063 0.16584557 -0.74158055 0.029248001 -0.9239038 0.009847744 0.64443815
0.11175463 -0.56279045 -0.10563145 0.054381274 -0.4197483 -0.5029591 -0.48398134 0.26972175
0.4880189 0.15684465 0.081545375 0.08645639 -0.0102766715 -0.61418647 0.0045353323 0.24460243
0.05672562 -0.14029296 0.042205542 0.042012736 -0.026022429 -0.83988804 -0.07622251 0.48622826
0.030157737 -0.53438354 0.0008998388 0.24966681 -0.025096493 -0.7457289 -0.013269362 0.39642057
0.099945545 -0.078885935 0.1142042 0.044305403 -0.020216433 -0.14920689 0.0042888043 0.14463182
1.3826613 0.43282282 0.01995946 0.15334801 -0.20396139 -0.19175416 -0.5054369 0.05137717
-0.19385928 0.6007794 0.12731802 -0.5735292 0.5171217 0.0947799 -0.4278066 0.013487753
0.13644166 -0.5583664 0.23422141 -0.115563475 -0.1557156 -0.8341157 -0.05258724 0.7163792
-0.11771435 -0.5944474 -0.90655386 0.3328514 0.0023222521 -0.04502874 0.013994318 0.026556013
-0.037920225 -0.42718774 -0.24885899 0.23004273 -1.0044396 -0.6536901 0.10908437 -1.852068
-0.014609399 -1.2161301 -0.109857924 0.94609463 0.21439162 -0.5280933 -0.33078516 0.26462653
-0.008362446 -1.1511606 0.0061011314 0.3994442 -0.54488766 -0.27392644 -0.38446957 -0.29797122
-0.99255025 -0.59916556 -1.4287555 0.09829182 0.6054734 -0.81212497 0.40350008 0.13964352

q.layers.0.bias f4 [400]
00000000: 77ec 3dc0 70a5 1ac0 bb76 4040 b3f2 19be
00000010: f004 a0bf 2ff9 4c40 78d2 2b40 a26b 06bf
00000020: 3270 a93e 162b a0be d575 c03f 1e91 61be
00000030: 504e cdbf a428 6b40 1041 63bf 550e 0b3f
00000040: 59d6 fcbd bb56 60c0 53eb efbf 86d5 2fbd
00000050: bdb3 20c0 a7bb ac3f ce95 73bd 48ab 92bf
00000060: c9b4 703e 8f35 83bf 4f2b 5ac0 c082 7440
00000070: 6064 1740 868e 70c0 a6de b8be 3d5b 97be
00000080: 6b3d 4940 4438 12c0 6d4c 8d3f be9a de3f
00000090: bd86 7c40 14eb 06bf 4c5f 4c40 a405 883f
000000a0: 8309 e1bd 1324 65be b172 8140 827f c4bf
000000b0: d368 05bf 50fd ccbe 052e 70c0 cf47 d0be
000000c0: b132 96bf c028 6040 f5a4 f83d 2c87 0d40
000000d0: 28d4 4240 9419 6bbe 2f9c 753f 049f 00bf
000000e0: 7d6d 1140 5393 173f bfb0 a6be aa56 f7bd
000000f0: 7161 1ebe e634 3140 57c4 21c0 dae4 48c0
00000100: ee99 87be adcc 54c0 c7dd 4f3e ffe8 5cc0
00000110: 44b4 7ac0 178d 6c40 6dc3 dabd c390 92bf
00000120: 30be 96bd bbf2 0e40 9699 1d40 1d47 6dbf
00000130: 43bd d5be d463 4340 c39e a6bf 7147 56bf
00000140: 838e 8bbf 6882 27bf 00ca 9040 95fb 0cc0
00000150: e3fd 6840 a209 8fbe bcfa 2640 1dc0 6f40
00000160: 0b24 ecbf 8ea4 203f bd4b 3cbf 3d83 0abf
00000170: f481 993f 4da5 8cbf 388f 2140 aa2b fabf
00000180: a060 9bbe 8119 3d40 b26a 2040 e9d7 0bc0
00000190: beee b9bf 60d3 61bf 12a8 5440 5101 bfbf
000001a0: d1ed 4c40 3904 0fbf e719 a93f 6380 0b40
000001b0: 088b 84c0 777c 7440 be91 4ebf 4667 ad3f
000001c0: 5073 3540 689a cebf cc53 48bf 0dbf 3d3e
000001d0: 4864 25bf 37c8 e3be 2567 2ec0 6fa9 6240
000001e0: b153 94bf df88 66c0 3872 dbbe 1dfa 90bf
000001f0: 7ad2 dbbf 3bc8 3b40 cba8 6cbf 62a1 12bf
00000200: 53cc 6fbe 194a 32c0 44e7 bcbf 3907 8a40
00000210: ddf9 02c0 aedb e73e 6ef8 debe c3a1 1b40
00000220: c35e a4be d0fe 9ac0 f948 0dbf e802 2540
00000230: 52a4 963f 0eea 02bf ccdf febf df31 19bf
00000240: dece 47be f571 2c40 49c7 35bf aed7 73c0
00000250: 92e2 1d40 0fb2 f03f 6925 11bf c60c acbe
00000260: 3f93 81bf 9c4d eebf 586e 77be 1627 6940
00000270: 670c 8440 bbab d13d 62a3 9040 cd6f 2740
00000280: e4b2 1040 36ed 1e3e 5299 1740 bf9a d63e
00000290: a304 4b40 4171 4cbf 5047 84bf 5084 3b40
000002a0: 0e05 5e3f 4ef3 6b40 fb34 b9be f53e bbbf
000002b0: d5ad 33bf 5bc8 1340 86b9 9840 090d 8040
000002c0: 43e0 4240 839a 9abf 9f26 2240 5047 21c0
000002d0: ff39 8dbe d08b 1bbf 3c69 ebbe 23c3 8bbf
000002e0: 11ea 9d3f 7782 6940 2056 b7bf a6b2 8cbe
000002f0: c03c f13f 43af 2140 2d33 1ebf fbde 2fbf
00000300: d84f d2bf 2298 66c0 df35 e1bd 40a1 30c0
00000310: bc65 a4bf 0d00 6e40 291f a43e 4f42 1b40
00000320: aa77 8abf 9497 3340 be36 53c0 631d 1a40
00000330: 31a4 0abe 0005 803e 7bec c53e 7ed0 8340
00000340: 2ec7 52bf 580a 763f 30ca 2240 c10a 04c0
00000350: 7ac3 e3bf f088 56bf 4fd2 2bbf fcea 01c0
00000360: 7f5e 33c0 2f40 51bf 16da 1d3f 9f65 933f
00000370: 84ae ffbe 13f7 c83e 4728 b03f b4d2 33c0
00000380: 4f6e 96be d420 86be 1f71 5b40 f403 a9bf
00000390: dbdb 3b40 e68c 8a3f c8b7 22bf cc56 7a40
000003a0: be89 6440 5542 323f a8b7 0d40 067a a0bb
000003b0: 89b0 8dbe a249 62c0 8021 dcbf 3fd6 0e40
000003c0: c947 92be edab 143e 792b 3a40 0eaf 21bf
000003d0: 9660 4dc0 7b6f aa3e ddca 2040 ecdd 12bf
000003e0: 70cb b73f 53f5 bc3f 8dd2 b2be f901 fdbe
000003f0: 2d4b 1dbf 0211 27bf 3c5f 05c0 f0bc cbbe
-2.9675577 -2.4163475 3.0072467 -0.15033989 -1.2501507 3.202709 2.684721 -0.52507985
0.3309341 -0.31282872 1.503596 -0.22028014 -1.6039524 3.6743555 -0.8877115 0.54318744
-0.12345571 -3.5052936 -1.874369 -0.04292824 -2.5109704 1.3494767 -0.059469037 -1.1458521
0.23506464 -1.025072 -3.4088933 3.8204803 2.3655014 -3.758699 -0.36107367 -0.29561797
3.1443737 -2.2846842 1.1038948 1.7390974 3.9457238 -0.5270245 3.1933165 1.0626721
-0.10988142 -0.22377042 4.0452504 -1.5351412 -0.52113074 -0.40037012 -3.7528088 -0.40679786
-1.173422 3.5024872 0.12140838 2.2113752 3.044199 -0.22958976 0.9594144 -0.5024264
2.2723076 0.59209174 -0.32556722 -0.12077077 -0.15466858 2.7688537 -2.5276086 -3.138968
-0.26484627 -3.3249924 0.20299445 -3.451721 -3.9172525 3.6961114 -0.10681806 -1.1450428
-0.07360494 2.233565 2.4624991 -0.92686635 -0.41745958 3.052968 -1.30172 -0.8370276
-1.0902866 -0.6543336 4.524658 -2.2028553 3.640496 -0.27937037 2.6090536 3.7461007
-1.84485 0.6275109 -0.7355307 -0.54106504 1.1992784 -1.0987946 2.5243664 -1.9544575
-0.30347157 2.9546816 2.5065122 -2.185053 -1.4525983 -0.8821316 3.3227582 -1.4922277
3.2020152 -0.5586582 1.321103 2.179711 -4.1419716 3.8200967 -0.80691135 1.3547142
2.835163 -1.6140871 -0.78252864 0.18529911 -0.6460614 -0.4448869 -2.7250454 3.5415914
-1.158804 -3.602104 -0.4286058 -1.1326329 -1.7173607 2.934096 -0.9244506 -0.572775
-0.23417787 -2.7857726 -1.4758077 4.3133817 -2.0465004 0.4528479 -0.43548912 2.4317482
-0.32103547 -4.843605 -0.5518947 2.5783024 1.1768897 -0.5113839 -1.9912047 -0.5984172
-0.19512507 2.6944554 -0.7100721 -3.810039 2.4669538 1.8804339 -0.5669771 -0.33603495
-1.0123061 -1.8617435 -0.24163187 3.6430106 4.126514 0.10237833 4.519944 2.6161988
2.2609186 0.15520176 2.368733 0.41914937 3.172158 -0.7986031 -1.0334263 2.9299507
0.8672646 3.6867251 -0.36173233 -1.4628588 -0.7018712 2.3091037 4.772647 4.001591
3.0449378 -1.2078403 2.5336072 -2.5199776 -0.2758331 -0.6076021 -0.45978725 -1.0918926
1.2337056 3.648588 -1.4323158 -0.27480048 1.8846664 2.5263221 -0.6179684 -0.68699616
-1.6430616 -3.6030354 -0.10996603 -2.759842 -1.2843547 3.718753 0.32055023 2.4259222
-1.0817769 2.8061266 -3.3002162 2.4080436 -0.13539197 0.25003815 0.38656983 4.1192007
-0.82335174 0.96109533 2.5435905 -2.0631564 -1.779403 -0.838027 -0.6711778 -2.0299673
-2.8026426 -0.8173856 0.616609 1.1515387 -0.49937832 0.39251003 1.3762292 -2.8097353
-0.29381034 -0.2619692 3.4287794 -1.3204331 2.935294 1.0824249 -0.6356168 3.9115477
3.570907 0.69632465 2.2143345 -0.004897359 -0.27673748 -3.5357442 -1.7197723 2.2318265
-0.28570393 0.1451871 2.9089034 -0.6315774 -3.2090201 0.33288178 2.5123818 -0.57369876
1.4358959 1.4762367 -0.34926262 -0.49415568 -0.61442834 -0.65260327 -2.0839376 -0.39792585

q.layers.1.weight f4 [300, 400]
00000000: e322 0fbc 8df3 66bd 9b61 cfbc 070b f73c
00000010: 846d 243c bb9c 8fbd 2d91 32bc 91e0 5b3a
00000020: a50b f1bc 3707 d23c fbc5 fdbc 0164 d83c
00000030: 545c d6bc bb51 8d3c 5c1c cc3c bd15 22bd
00000040: b904 07bd 5305 a5bc 7685 69bd 9e58 37bd
00000050: bd92 75bd eb26 cfbd 0018 aa3a 6a59 33bd
00000060: bd2d 33bd ce7d 51bd 4423 433c 6a1b 91bd
00000070: 4a6a 06bd 2abf 86bc 0d41 0abd e960 9e3c
00000080: ceef 77bc e270 533c 5a46 8ebc 080f 91bb
00000090: 99a2 d93c a31f dabc b3e7 bc3b 57a3 56bc
000000a0: ea42 0abd 6835 b5bc 267f 223d 5d44 9abb
000000b0: ba4e c73c 8058 0f3c 5321 a0bc 0b1c 2cbd
000000c0: 29b4 3cbd 41b3 38bd 99a0 8cbd f6a6 8b39
000000d0: 29e8 c0bb 6423 8cbc c55c eab9 dd16 b5bc
000000e0: de5f f53c b71f d23c ab21 74bd fa1d 963c
000000f0: 82e7 ecba 3bf7 503c 07c4 e4bc 1f57 29bd
00000100: 76cd 0bbc eaa5 333d 3849 44bd 52a6 91bd
00000110: 16cf afbd 6554 e9bc 026c 44bd 67aa 193c
00000120: 4525 74bd 2ee8 9a3c 5cff 213d 436e 3bbd
00000130: 68fb 0e3c 0948 76bd 3476 2f3c 60e6 bdbc
00000140: 22a3 9fbd 0790 5fbd 2c14 6fbd cde4 993c
00000150: 37b3 37bd a0cf b5ba a522 37bd bdc1 203c
00000160: 6cb1 4bbd 1765 13bd b0de 1fbd f849 81bd
00000170: ed39 bcbc 6898 74bd 8641 ebbc f4a7 33bd
00000180: e77b 37bb 48f1 d5bb 6e4b 49bd 00c7 0ebd
00000190: c973 dcbd 9303 123c 4f96 10bd 9eeb 05bd
000001a0: 8155 f3bb f318 803d 9f91 0c3b 39d4 1dbd
000001b0: 2f02 89bc 3b4d b33c d5cb 09bd 29f9 34bd
000001c0: a59f 6ebb d484 97bc ab8d 80bc d6c7 16bc
000001d0: 23ed 81bd 974f bbbc 6bbb a23b adc1 17bd
000001e0: c436 c8bc f6b6 1dbd 54be 06bd a382 0cbc
000001f0: 5467 66bc c17e 973b 0b50 7ebc 4d72 283c
00000200: e685 f0bb 03e3 39bd 346a 91bc 3f13 9e3b
00000210: 5474 13bd 857a 383b 1e3e 06bd 9c0a 06bc
00000220: 4088 9e3c eff3 d3bd 714c 013d f359 ac3c
00000230: d7c3 dabd 0f15 db3c fa5f 31bd 1ae0 09bd
00000240: 441d 02bd bb05 47bd b4c2 ed3b 68bd 94bd
00000250: e09b 85bd 3987 99bc 5ed0 893c e3ae 1d3d
00000260: e20a cd3c 079a 47bd 6bc8 13bd f75d 9abd
00000270: d770 ee3c 3395 87bd 8af4 f9bc 8c48 57bc
00000280: f3e1 843c c987 63bd 9f95 8cbc bf56 7ebb
00000290: 034c f0bd d7dd b13b f125 eebb 05d9 55bd
000002a0: 2aef d7bc 039f 183d cf3b debd 56e3 3dbd
000002b0: 9b67 883c 2c69 22bc e8c8 00bc fb7b b33b
000002c0: 269a 263c 6769 f1bc f66f 4fbc a32d b1bc
000002d0: f8cc 6bbd b029 d1bb b53f 5cbd e37e 7dbd
000002e0: abe2 f3bc ead9 5d3d bbb9 62bc 85fe 6b3d
000002f0: fa71 14bd 6e2d 6abd f163 28bd fc03 6b3c
00000300: 081d 59bc 0263 11bd cb6d b6bb 5aa3 7ebc
00000310: b20a 9aba e9fd 04be b355 09bd 27e8 75bd
00000320: 0f74 bb3c 825b 82bd abf8 25bc 366c e43c
00000330: 42ee 82bd bb93 7cb9 3167 3fbd 7375 1ebc
00000340: a516 95bd 4e76 96bd 7386 cb3b 95c6 99bd
00000350: d4ab 9b3c cbfe 20bd 19fd 293d b24a 143c
00000360: 6154 7e3b bf63 12bd c9ae 69bd b7c9 aebd
00000370: 1f3b a73d a472 1abd ff65 b4bd 4e5c 99bd
00000380: f158 7ebc 739c 90bd a780 8cbb bc91 75bd
00000390: 0ec0 4d3d 8d38 43bc c3da b6bc ab81 41bc
000003a0: 8cbb c03b e51d e23c 1269 59bd 2abd 5f3b
000003b0: 35c1 e83c ece0 d5bb 73e1 b53d f445 5f3c
000003c0: 7062 80bb 9b3f 7a39 f6f5 8fbd 217d 63bd
000003d0: dc1e 9cbd 5283 ee3c 0ba2 ddbc bfe0 bcbc
000003e0: 008b 30bb 26ed 0bbd 806f 49bc 4684 de3c
000003f0: 45cf 063c 7451 18bc 5cf5 9cbd 9491 36bd
-0.008736345 -0.056384612 -0.025315097 0.030156625 0.010035876 -0.07012316 -0.01089887 0.000838765
-0.029424498 0.025638206 -0.030978194 0.026414873 -0.026167072 0.017250886 0.024915867 -0.039571512
-0.03296349 -0.02014414 -0.057012044 -0.044762246 -0.059954394 -0.10114845 0.0012977123 -0.043786444
-0.04374479 -0.051145367 0.011910263 -0.07085307 -0.03281621 -0.016448576 -0.033753444 0.01933332
-0.0151328575 0.012905331 -0.01736753 -0.0044268407 0.02656679 -0.026626414 0.0057649254 -0.013100467
-0.03375522 -0.022120193 0.03967204 -0.0047078566 0.024329532 0.008749127 -0.01954714 -0.04201893
-0.04607025 -0.045092825 -0.06866569 0.00026636542 -0.0058870506 -0.01710672 -0.00044701077 -0.022105629
0.02995294 0.025649888 -0.05960242 0.01832484 -0.0018074366 0.012754257 -0.027925504 -0.04134285
-0.008532872 0.0438594 -0.04792139 -0.07111801 -0.085844204 -0.028482625 -0.047954567 0.009379006
-0.059605855 0.01890954 0.03955017 -0.04575945 0.008726932 -0.06012729 0.010709334 -0.02318114
-0.07794787 -0.054580715 -0.058368847 0.018785859 -0.044848647 -0.0013871081 -0.044710774 0.009811816
-0.04972975 -0.03598508 -0.03903073 -0.063129365 -0.02297684 -0.05971566 -0.028717767 -0.043861344
-0.0027997436 -0.006529007 -0.0491442 -0.03485775 -0.10764272 0.008911985 -0.035299595 -0.032695405
-0.0074259643 0.06254759 0.0021449102 -0.03853247 -0.016724674 0.021887412 -0.033641655 -0.04418293
-0.0036411074 -0.018495955 -0.015692553 -0.009202918 -0.06344058 -0.0228651 0.0049661896 -0.037049938
-0.024440177 -0.038504563 -0.032896355 -0.008576068 -0.014062721 0.0046232645 -0.015522013 0.010281158
-0.0073401807 -0.04538251 -0.017750837 0.0048240717 -0.03599961 0.00281492 -0.032774083 -0.00818124
0.019352078 -0.10349261 0.03156704 0.021038985 -0.10681885 0.02674344 -0.04330442 -0.033660986
-0.03176619 -0.04858945 0.0072558764 -0.07262689 -0.065238714 -0.018741237 0.01682299 0.038496863
0.025029603 -0.048730876 -0.036079805 -0.075374536 0.02910654 -0.06620254 -0.030512113 -0.013139855
0.016221022 -0.055549417 -0.017161189 -0.003880903 -0.11733248 0.0054280567 -0.0072677066 -0.05220892
-0.02635916 0.03726102 -0.10851251 -0.046359383 0.016650965 -0.00991277 -0.0078604 0.005477426
0.010168588 -0.029469205 -0.012660971 -0.021628207 -0.05756852 -0.0063831434 -0.053771693 -0.061888587
-0.02977117 0.054162897 -0.013838227 0.057615776 -0.03624151 -0.05717223 -0.041110937 0.014344212
-0.0132515505 -0.03549481 -0.0055672876 -0.015541876 -0.0011752455 -0.12987484 -0.033528995 -0.06003585
0.02288249 -0.0636511 -0.010130088 0.02788363 -0.063931 -0.00024087627 -0.04672927 -0.009671557
-0.0727971 -0.073467836 0.006211096 -0.0750858 0.019002832 -0.03930549 0.04150114 0.009051012
0.0038807618 -0.035739657 -0.057051454 -0.08534568 0.08165573 -0.037706986 -0.08808517 -0.07488309
-0.015524135 -0.0706109 -0.0042877975 -0.059953436 0.050231986 -0.011915338 -0.02232111 -0.0118107
0.0058817323 0.027602145 -0.05307872 0.003413985 0.02841244 -0.006527057 0.08880892 0.013627518
-0.0039179847 0.00023865553 -0.07029335 -0.055539254 -0.076230735 0.029115353 -0.027054807 -0.023056386
-0.002693832 -0.03416171 -0.01229465 0.027162682 0.008228128 -0.009296764 -0.07663986 -0.044572428

q.layers.1.bias f4 [300]
00000000: 3f96 e7bc a3ed 92bd 3b5f a03f 3ac1 8fbc
00000010: 3ccc b4bc e095 88bd 8d02 efbd cd13 90bd
00000020: d4d9 19bd 0942 29bd 59b0 7fbd dc44 3dbd
00000030: 52fb 243e 36fb f2bc 5e34 3abd 58b5 35bc
00000040: f7f6 1dbd 8482 7e3f e0e2 903c 47bf 8cbd
00000050: 2a7f 1abd 04a6 6cbd 3892 b3bd abe2 a13d
00000060: 750f 2cbd 1379 4bbd 6539 e53e 7dbb fe3f
00000070: a6ab 00bd 0abb febc 6fc2 dcbc 3bff f9bc
00000080: a367 45bd ee3b f0bc 9de1 1bbd 0f68 02bd
00000090: 9a85 593d 89fc 76bd 7e25 15bd db2e 81bc
000000a0: 96e6 3fbd 2070 0abd f53c 23bd dd2c bc3a
000000b0: 688b c7bc 00c1 46bd 7f17 acbc 28bc ab3f
000000c0: c702 babc e06a fdbc fc3c 4fbd f7a2 12bd
000000d0: 1d5b 09bd 5eb8 91bd eada 413e ae30 f6bc
000000e0: 855e d43f 6966 25bd a414 c53f 9b51 11bd
000000f0: 02d3 62bd 40cb 3cbd 3b70 b8bd d023 693b
00000100: 16d9 c7bd 39da 82bd 3f5e 1abd 9181 3ebd
00000110: eb1d 49bd 8562 6dbd 1b18 18bd 401a 65bd
00000120: e1fd 8abd 5cb8 bfbc d5df 59bd 9973 14bd
00000130: e80c e7bc 8659 37bd aa3a 043f 6949 c9bc
00000140: 8190 21bd 8aff 61bd a29c 01bd f645 82bd
00000150: e7d0 fabc 2836 17bd 812f a53f 171c 663c
00000160: 8c7c 19bd 7e22 3bbd e926 26bd 4804 c93e
00000170: fd19 d53f cf60 8abc df20 013e 3ede a9bd
00000180: 07dc 21bf d239 09bd dedc 88bd 5811 7ebd
00000190: cb0c 8ebd d4c6 47bd 1734 93bd 1818 81bd
000001a0: 6c8c 16bd 210b 18bd acad 17bd 2de5 01bd
000001b0: 9c98 1abd ceca 16bd 348f a53e daa4 12bd
000001c0: 8a7c 7ebd 7dcb 16bd 278b 43bd 9a7b 25bd
000001d0: 9c1e 18bd 1e65 16bd b228 43bd 28de 1cbd
000001e0: 47fd 24bd 4e05 69be e5ec 4abd cfa4 2cbd
000001f0: be3e f7bc 0354 83bf e294 7ebd 1a63 283e
00000200: efc0 19bd 3870 4dbd 32ff ad3d 9b30 62bd
00000210: dcb9 71bc 42d7 3dbd 8d2e 70bd 34d7 92bd
00000220: 8daa f2bc 5f6b 20bd cebb 02bd d9e9 8fbd
00000230: 8920 973d dc8d 7bbd 297a 1abd 408d 42bd
00000240: 4d61 8dbd a551 abbc 4903 21bd 1bfc 09bd
00000250: 6f9f 8dbd 6048 4fbd ceea 28bd 9723 19bd
00000260: 2a29 17bd c128 573f 7de9 01be e4bf 01bd
00000270: 148c 1abd ad63 d63c 047c 70bd 1481 a3bd
00000280: 8feb 80bc 8b2c 1540 a776 99bd 481f cb3f
00000290: 6e09 1abd 07ed d93e a875 893f 5f06 d3bc
000002a0: 7cb0 81bd d396 aabd d569 21bd 7afd 1ebd
000002b0: 8e24 23bd 2891 fbbc 807e d53d e813 aa3e
000002c0: a4ce 23bd 98d9 c2bd 31f0 943e 662e 1cbd
000002d0: 9d49 36bd 7a45 c7bc 8a00 a5bd bb9f 42bd
000002e0: 14a3 31bd 9ddb 7cbd 2132 1cbd 3ead 1bbd
000002f0: 72d7 0abd 9d7a ccbc d45a b7bc ea6e 0cbd
00000300: 919f 6bbd 7ce1 a8bd 4305 63bc 8ffd 8bbc
00000310: 5fe2 13bd 9e7b 07bd 5912 503d 133f 263d
00000320: 1ead c2bc 2349 87bd 07cd 9abd 84ad efbb
00000330: 5da5 01bd 9c6f 81bd 5de7 dc3b 3778 debc
00000340: e1f6 91bd 4443 393f d509 a3bc a829 af3e
00000350: e5ee 6dbd ee47 e9bc 74af 10bd 3cdc 1ebd
00000360: dc22 36bd 87e8 05bd e97e 76bd 2277 7b3f
00000370: 551f fbbc 4713 56bd e510 97be d980 56bd
00000380: 9ac6 3abd 3d94 5dbd 2ae1 a53f 1f1c d73d
00000390: e13e 15bd 788d 18bd 3613 11bd fdc6 1dbd
000003a0: 0a61 5cbd 3534 313f 5ae9 5dbd 35cd 16bd
000003b0: 2bf8 80bc 4708 8bbd 01d8 2bbd f1b3 3dbd
000003c0: 56bc 8dbd 87dc 12bd cc42 58bd ea25 16bd
000003d0: 5db2 19bd a0b2 2ebd b95f 8abd 6e2f 12bd
000003e0: 5723 febc 6a63 6fbd 11ad d8bc c9ff edbc
000003f0: 47f0 febc 95ae 24bd 20d1 35bf 4502 08bd
-0.028269885 -0.07174232 1.2529062 -0.017548192 -0.022070043 -0.066692114 -0.116704084 -0.07035027
-0.037561253 -0.04132274 -0.062424038 -0.046208248 0.16111496 -0.029660802 -0.045460097 -0.011090599
-0.038565602 0.994179 0.017686307 -0.06872421 -0.03771893 -0.057775512 -0.087681234 0.079045616
-0.04200693 -0.049676012 0.4477035 1.9900967 -0.031413697 -0.031095047 -0.026948182 -0.030517211
-0.04819454 -0.029325452 -0.03805696 -0.03183752 0.053105928 -0.06029943 -0.03641271 -0.015769413
-0.046850763 -0.033798337 -0.039853055 0.0014356632 -0.024358466 -0.048523903 -0.021007298 1.3416796
-0.022706402 -0.030934751 -0.05059527 -0.035799947 -0.033534158 -0.071152434 0.18931165 -0.03005251
1.6591345 -0.04038087 1.5396924 -0.035478216 -0.055377014 -0.04609227 -0.09005781 0.0035574324
-0.09758203 -0.06389279 -0.037687536 -0.046510283 -0.049100798 -0.057955284 -0.037132364 -0.055933237
-0.06786705 -0.02340334 -0.05319198 -0.036243055 -0.028204396 -0.04476311 0.51652014 -0.024571138
-0.03944445 -0.05517534 -0.031643517 -0.06361 -0.03061719 -0.03691688 1.2905122 0.014044783
-0.037472293 -0.04568719 -0.04056445 0.3926108 1.6648556 -0.016891865 0.12610196 -0.082943425
-0.6322636 -0.033502407 -0.06682752 -0.06202826 -0.06936034 -0.0487736 -0.0718767 -0.06303424
-0.03675501 -0.03711999 -0.03703086 -0.0317127 -0.037743196 -0.036814503 0.32335818 -0.035801746
-0.06213049 -0.036815155 -0.047740128 -0.04040108 -0.037138566 -0.036717527 -0.047646232 -0.038297802
-0.040280607 -0.2275593 -0.049542326 -0.04214936 -0.030181285 -1.0260013 -0.062153704 0.16444054
-0.03753751 -0.05015585 0.0849594 -0.055222135 -0.014753785 -0.046347864 -0.058638144 -0.07169953
-0.02962234 -0.039164897 -0.031917386 -0.07027025 0.073792525 -0.061414585 -0.037714157 -0.047497988
-0.06903324 -0.020912955 -0.039309774 -0.033687692 -0.06915175 -0.05060613 -0.041239552 -0.037387457
-0.03690449 0.8404656 -0.12686725 -0.03167714 -0.037731245 0.026170576 -0.05871202 -0.07983604
-0.015737323 2.3308437 -0.07493334 1.5868921 -0.03760665 0.4256365 1.0739031 -0.025759874
-0.0633249 -0.08329549 -0.03940757 -0.038815953 -0.039829783 -0.030708864 0.104245186 0.33218312
-0.03999199 -0.09514159 0.29089502 -0.038130186 -0.044503797 -0.024325121 -0.080567434 -0.047515612
-0.043368414 -0.061732877 -0.038133744 -0.038007013 -0.03389687 -0.02496081 -0.022382177 -0.034285463
-0.05752522 -0.08246133 -0.013856235 -0.01708868 -0.036104556 -0.033076875 0.050798748 0.040587496
-0.02376419 -0.066057466 -0.07558637 -0.007314386 -0.031651843 -0.06320116 0.006741448 -0.027156932
-0.071271665 0.72368264 -0.01990215 0.3421147 -0.058089156 -0.028476682 -0.035323575 -0.03878425
-0.04446684 -0.03269246 -0.060179625 0.9822866 -0.030654589 -0.052264478 -0.29505077 -0.052368972
-0.045599557 -0.05409645 1.295934 0.105034105 -0.03643692 -0.03724429 -0.03541871 -0.03851985
-0.05380348 0.69220287 -0.05417762 -0.036816794 -0.015743336 -0.06788688 -0.041954044 -0.046314184
-0.06920688 -0.035854843 -0.052798077 -0.03665725 -0.037523616 -0.04265082 -0.06756539 -0.035689764
-0.03102271 -0.058444418 -0.026449712 -0.029052632 -0.031120433 -0.040205557 -0.71022224 -0.03320529

q.layers.2.weight f4 [4, 300]
00000000: 73e7 5b3c dcf7 23bc 4466 24bf 9f8d f2bc
00000010: 9555 29bd ae7e b03b a581 7ebd 20f1 543d
00000020: cce4 e23b 6b4e f4bc 3a04 813a e4d8 2ebd
00000030: f77c c9be 3e0a 09bd b8a1 363c 9fc0 a73b
00000040: a858 eabc 064a 923f af92 2cbd a973 33bd
00000050: 9b06 503d f231 00bd 6343 70bd 2a46 2cbd
00000060: 6e97 363c 4958 e4bb 9ef4 5cbc 6d70 c53e
00000070: f7c6 9bbd 6a5c 2fbd 7f3b bebb ef32 8ebc
00000080: e3a0 243d b147 5b3c 43a2 61bd 0403 873c
00000090: f8f5 4cbd 6197 31ba 82e8 a43b 90c6 85bc
000000a0: 4daf e1bc 0e91 913c bb15 1ebc 2b67 0ebd
000000b0: 36b0 0c3a 1fba 603b 4c35 88bd 2e9d 9cbf
000000c0: 6939 10bc 6239 42bc 112d 0f3c 6473 a1b9
000000d0: 229a 66bb a031 8bba b8e3 39bd 43e2 60bd
000000e0: 10b2 293e afaf 09bd 3486 b33e 8fe1 02bc
000000f0: 439a d4bc b970 f3bc a565 033d cf2a 2bbd
00000100: 538b 75bb bc72 753d 3ccf ab3c 410e af3b
00000110: 194f 503d b92b 8bbb b576 cd3c eeee 18bd
00000120: 8450 ccbc 96a2 083d e570 6abd c248 e5bb
00000130: 2aac 0e3d 4604 b8bc f74e 3abd 848e 3ab8
00000140: f9c7 c93c 3206 a3bc 8cf3 29bd d44b 253d
00000150: 8a1a 2d3c 7555 d43c 1dfc 883e 752f 47bc
00000160: 8fd7 db3c 0d82 cfbc d51d e0bc 2b6b 743e
00000170: ac4a 093e c557 b8bc 49dd d8bc e4c0 0dbc
00000180: 805d 35be 5439 5e3c 5831 4fbc 2571 2bbc
00000190: 9ca0 74bb 7a24 bebc fb20 afbe 8bb8 04bd
000001a0: d3c7 4b3c 3041 ccbc e1cc 883c f1e5 39bd
000001b0: b482 48bc d4af c8bc 1b59 78bd 5b74 9fbb
000001c0: 65dc 0f3a b52c 54bc c418 febc c2d8 3d3c
000001d0: 3f36 ab3c 8158 143c d523 1b3d 93f5 ff3b
000001e0: 5a74 423c bd0a 883c 87f9 0bbc 3f96 0fbd
000001f0: 50fc 863c 54b7 20bc 0be4 84ba 0048 f5bc
00000200: cb03 2c3c 002c e5ba badd b8ba 23ac 3f3c
00000210: cb7b 833d 9f50 dc3c 2709 ef3b 156a dc3b
00000220: b67c d13b 1e8f 55bc 6b77 da3c 493a 543d
00000230: c523 09bc 08db 083d 3da1 993c 7491 73bc
00000240: 4ed3 a6bd 6d19 06bc 31e5 2abb 61d7 123c
00000250: db0d 9cba 0546 40bd 511d b8bc 5fea fdbc
00000260: 0f51 923c a667 94be 350a 85bb 5c64 ea3c
00000270: cf03 cf3c 8e94 02bd 9534 c83c 319e d8bc
00000280: dd57 083d 10b6 523e fd4e 10bc 56b7 0dbe
00000290: 5e09 f33b 6d6f 283d bf79 ef3d e889 edbc
000002a0: 566c 143c bcb9 cf3c ec1f c2bc de6c 2a3c
000002b0: 39ab 1a3d 727f 49bc e046 45bb 1116 363c
000002c0: b2b7 f6bc 3e03 06bb f6c9 57bd d577 47bd
000002d0: 956a 8c3b 4954 bcbc 0043 98bc d232 083d
000002e0: 2c9d 16bd a281 bebb fc93 ad3c 299f 263d
000002f0: 70dd 1fbd 2b5b 2f3b c66d 4d3d 6a1f e5bc
00000300: cf13 c6b9 97fd 5a3b e31f 80bd d639 f13c
00000310: 3471 f63c 98b1 89bc e737 d93c 62a0 ccbc
00000320: 8cf1 b7bc ab6f b03d 7de1 713d 8be6 15bb
00000330: 9ead 613d aa51 95bc 994a 88bb e11c cdbc
00000340: 933a 9e3d 6a8b 7ebf b204 adbc 606a 3abc
00000350: d799 51bc 200c 2dbd 5e56 8b3b 970e 07bd
00000360: 66fd e8bc f2c4 053c 7206 c0bc aac4 193e
00000370: c776 7abc 80bf 9a3b 1634 9dbc c07a 3dbc
00000380: f371 953c 1fcc 43bc 88ee 41be c867 2bbc
00000390: 9e04 283d f231 163d 2cb5 4bbc 8f7c 243d
000003a0: 4aad 18bc 1d66 41bd 031f 5abe 4a0e 06bd
000003b0: 7064 d33b a4c4 0abb ca20 eabb 979e b73c
000003c0: d695 213b 85c4 9dbc dd91 48ba a011 57bb
000003d0: 9b47 e63c d99a 15bc 3632 46bb eb2b 043d
000003e0: 1880 8ebb cbd0 4c3d 8898 a4bc 0350 9b3c
000003f0: 3101 73bd dcc4 d03c b4bb 56bc 8c87 5abc
0.013421881 -0.010007825 -0.64218545 -0.029608546 -0.041341383 0.005386195 -0.062135357 0.051987767
0.0069242474 -0.029822549 0.0009843179 -0.04268731 -0.39353153 -0.033457033 0.011146955 0.005119398
-0.028606728 1.142884 -0.042132076 -0.043811474 0.05078755 -0.03129763 -0.058658015 -0.0420591
0.011144502 -0.006968532 -0.013486056 0.38562337 -0.07606309 -0.042812742 -0.0058054323 -0.017358271
0.040192496 0.013383792 -0.055086385 0.01648093 -0.05003926 -0.00067745714 0.0050326 -0.016330034
-0.02754941 0.017769363 -0.009648736 -0.034766357 0.00053668336 0.0034290624 -0.066507906 -1.2235467
-0.00880275 -0.011854501 0.008738772 -0.00030794286 -0.0035187085 -0.0010619648 -0.045383185 -0.05490328
0.16571832 -0.03361481 0.35063326 -0.007988348 -0.025952464 -0.029716836 0.032079358 -0.041788872
-0.0037467077 0.059923872 0.02097284 0.0053422754 0.050856683 -0.0042471555 0.025081018 -0.037337236
-0.024940737 0.03335818 -0.05723657 -0.006997199 0.034832157 -0.022462975 -0.045485463 -4.4478584e-05
0.024631487 -0.019900415 -0.04149203 0.04035552 0.010565409 0.025919655 0.26754847 -0.012157311
0.026836185 -0.025330568 -0.027357975 0.23869006 0.13407391 -0.02250279 -0.026472704 -0.008651946
-0.17711449 0.013563473 -0.012646042 -0.0104639875 -0.0037327176 -0.023210753 -0.3420485 -0.032402556
0.0124377785 -0.024933428 0.016699256 -0.045385305 -0.012238193 -0.024497904 -0.060631853 -0.0048661656
0.00054878584 -0.012950112 -0.031017669 0.011587324 0.02089989 0.009054304 0.03787597 0.007811257
0.011868561 0.016606683 -0.008543379 -0.035055395 0.016477734 -0.009809334 -0.0010138763 -0.029941559
0.010498951 -0.0017484426 -0.0014104166 0.011698755 0.06420096 0.026893912 0.007294792 0.006726513
0.0063930405 -0.01303461 0.026668271 0.051813398 -0.0083703445 0.03341201 0.018753642 -0.014866222
-0.08145772 -0.008184773 -0.002607655 0.008962483 -0.0011905985 -0.046941776 -0.022474917 -0.030995546
0.017860917 -0.28985327 -0.0040600547 0.028612308 0.02527037 -0.031879954 0.024439136 -0.026442619
0.033286918 0.20577264 -0.008807895 -0.13839468 0.007416888 0.04112189 0.11693143 -0.028996423
0.009059032 0.02535712 -0.023696862 0.0104019325 0.037760947 -0.012298452 -0.003010206 0.0111136595
-0.03011689 -0.002044871 -0.05268284 -0.048698265 0.0042851665 -0.022989409 -0.018586636 0.03325159
-0.036770985 -0.0058137933 0.021188729 0.04067913 -0.03902954 0.0026757221 0.050153516 -0.027969081
-0.00037780261 0.0033415311 -0.06256082 0.029446524 0.030083276 -0.016808316 0.026515914 -0.02497882
-0.022454046 0.08615049 0.059052933 -0.002287301 0.055097215 -0.018227417 -0.0041592834 -0.025038185
0.07726016 -0.9943148 -0.021120403 -0.011377901 -0.012793026 -0.04224789 0.004252239 -0.0329729
-0.028441142 0.008164631 -0.023440573 0.15016428 -0.015287108 0.0047225356 -0.019189876 -0.01156491
0.018242812 -0.011950522 -0.18938649 -0.010461755 0.04102003 0.036668725 -0.012433331 0.04015785
-0.009318659 -0.047216523 -0.21300893 -0.03272847 0.006451182 -0.0021174336 -0.007145022 0.022414489
0.002465596 -0.019258747 -0.000765113 -0.0032816902 0.028110316 -0.009131157 -0.003024233 0.032268446
-0.004348766 0.050003808 -0.020092264 0.018959051 -0.059327308 0.025484495 -0.013106275 -0.013337981

q.layers.2.bias f4 [4]
00000000: 8ce0 ca3f 9999 1940 25c5 a13f b139 3cbe
1.5849776 2.3999999 1.2638289 -0.18381383
