pyt_save/model_walls.pt (torch_old, 499973 bytes, 6 tensors)

q.layers.0.weight f4 [400, 4]
0	0x3de3bff3	0.11120596
1	0x3ea40ee5	0.32042614
2	0xbdba4f54	-0.09097162
3	0xbe9e027a	-0.30861264
4	0x3cc746e5	0.024325797
5	0xbcb80a74	-0.022465922
6	0xbd0be014	-0.034149244
7	0x3cc1583a	0.02360164
8	0x3c574c83	0.0131408
9	0x3dd3e6c4	0.103467494
10	0xbdc4df60	-0.09612918
11	0xbe06b617	-0.131554
12	0x3c5217d3	0.012823063
13	0xbd3292be	-0.043596976
14	0xbcb375bc	-0.021906726
15	0x3c171fb6	0.009223869
16	0x3e97f1cf	0.29676673
17	0x3d180000	0.037109375
18	0xbf2857bc	-0.6575887
19	0x3e5663af	0.20936464
20	0x3e867899	0.26263884
21	0x3d074b23	0.03303064
22	0x3eaee3ec	0.34158266
23	0x3f32d5b4	0.69857335
24	0xbc2a08dd	-0.01037809
25	0x3e988bbc	0.2979411
26	0xbd0506c0	-0.03247714
27	0xbebc8e75	-0.36827436
28	0xbe87fe03	-0.26560983
29	0x3cb8bec7	0.022551907
30	0x3e15ff0f	0.14648078
31	0x3de6e0e1	0.11273361
32	0x3eaa808a	0.33301193
33	0x3ece1442	0.4024983
34	0xbde40be6	-0.11135082
35	0xbd7a2485	-0.061069984
36	0x3b8a917e	0.00422877
37	0x3eab9c55	0.3351771
38	0xbc06a627	-0.008218325
39	0xbe944507	-0.28958914
40	0xbcc02815	-0.023456613
41	0x3ee1cbd0	0.4410081
42	0x3d7aa8da	0.061196186
43	0xbee1065f	-0.43950173
44	0xbe37bddd	-0.17943521
45	0xbe4e4d69	-0.20146717
46	0xbcb5232a	-0.022111494
47	0x3aceb260	0.0015769713
48	0x3bc6d183	0.006067456
49	0x3befa2ab	0.0073130927
50	0x3f3e95b4	0.7444718
51	0x40143531	2.3157465
52	0xbd37228e	-0.04471069
53	0x3f56d504	0.83918786
54	0xbcbbb2a1	-0.022912325
55	0xbf65dd28	-0.8979058
56	0x3ecd5277	0.40101978
57	0x3b3fa615	0.002924328
58	0xbec18c19	-0.378022
59	0xbcf514a1	-0.029917063
60	0x3ed053de	0.40688986
61	0xbd95eb3d	-0.07320259
62	0xbf00e217	-0.50344986
63	0x3ec71680	0.38884354
64	0x3ddf5ee6	0.10906772
65	0x3dd97d45	0.106195964
66	0xbe0ff391	-0.14057757
67	0xbdfdfa21	-0.12401224
68	0x3f12a598	0.57283926
69	0x3f1f43bb	0.62212723
70	0xbf7c72d0	-0.9861269
71	0xbee73409	-0.45156887
72	0xbad16292	-0.0015974811
73	0xbc66e696	-0.014093062
74	0x3fa4b96c	1.2869086
75	0x3fab3a02	1.3377078
76	0xb9aaa510	-0.00032547908
77	0x3cb7b66a	0.022425849
78	0x3b8d7dd3	0.004317978
79	0xbcc24510	-0.023714572
80	0xbe800fb8	-0.25011992
81	0x3ea2668f	0.3171887
82	0x3f4ca3bc	0.7993734
83	0xbeaaf05d	-0.33386508
84	0x3ecd93d8	0.40151858
85	0x3dea6810	0.114456296
86	0xbe7c435f	-0.24635075
87	0x3d8544d2	0.06507267
88	0x3d962a9b	0.07332345
89	0xbbc0f52d	-0.005888602
90	0xbde366e9	-0.11103613
91	0x3cfca631	0.030840965
92	0x3ed040bf	0.40674397
93	0x3e863524	0.26212418
94	0xbeba6296	-0.3640334
95	0xbeb3d406	-0.351227
96	0x3e810728	0.25200772
97	0x3ea77d3e	0.3271274
98	0xbebdcc79	-0.37070063
99	0xbd98dc49	-0.07463891
100	0x3ee6ac74	0.45053446
101	0x3e24aaf9	0.16080846
102	0xbe76335e	-0.24043033
103	0xbe66fc0a	-0.22557083
104	0xbb812a13	-0.003941783
105	0x3e33869d	0.1753182
106	0xbe91ea8d	-0.2849926
107	0xbf00b854	-0.5028126
108	0x3e566276	0.20935997
109	0xbe2c423d	-0.16822143
110	0xbe69fa58	-0.22849405
111	0x3eb01792	0.34392983
112	0xbebae662	-0.36503893
113	0x3f06b987	0.5262684
114	0x3e690384	0.22755247
115	0xbf1aeac7	-0.6051449
116	0xbe56a6cf	-0.2096207
117	0x3d43542b	0.04768769
118	0xbe0cba25	-0.13742884
119	0x3e6841b5	0.22681315
120	0x3d9e631d	0.07733748
121	0x3d257212	0.04039199
122	0xbdee3df9	-0.11632914
123	0xbda6eaab	-0.08150228
124	0xbd4007a5	-0.04688229
125	0x3e0ea052	0.13928345
126	0xbef2b2f7	-0.47402164
127	0x3d7c5cf8	0.0616121
128	0xbbc28b88	-0.0059370436
129	0xbd33b7d8	-0.0438765
130	0xbcdf1642	-0.027232293
131	0xbb9a21a6	-0.0047037182
132	0xbe0a2246	-0.13489637
133	0x3d48f7f2	0.049064584
134	0x3f939250	1.1529026
135	0x3de59fd3	0.11212125
136	0x3c290987	0.010317213
137	0x3ef11915	0.4708945
138	0x3db16c91	0.086632855
139	0xbeca7ee2	-0.3954993
140	0x3e217c38	0.15770042
141	0x3e802c99	0.25034025
142	0x3ea92c04	0.33041394
143	0x3dcbea13	0.099567555
144	0xbdf8353f	-0.12119531
145	0x3e799153	0.24371843
146	0x3c851996	0.016247552
147	0xbe9eddb6	-0.31028527
148	0xb9be8757	-0.0003634046
149	0x39be80d9	0.00036335623
150	0xb98b50e8	-0.00026572426
151	0x3a168a3e	0.00057426456
152	0x3dbae55b	0.09125777
153	0x3e89aad4	0.26888144
154	0x3cdca1d0	0.026932627
155	0xbe866424	-0.26248276
156	0x3d38ed5d	0.045148242
157	0xbae5071c	-0.0017473432
158	0xbcd95f39	-0.026534664
159	0x3c52e963	0.012873027
160	0x3e3f1043	0.18658547
161	0x3f33b58c	0.70198894
162	0xbe92e9dd	-0.2869405
163	0xbf009923	-0.5023367
164	0x3b5bfd72	0.0033567813
165	0x3cf3c289	0.029755848
166	0x3c957aa9	0.018246965
167	0x3ccf3dda	0.025298048
168	0xbdab8a84	-0.08376029
169	0x3e8eea20	0.27912998
170	0x3e325f2e	0.1741912
171	0xbeb4d18e	-0.35316128
172	0x3f14da02	0.58145154
173	0xbd34e2ea	-0.044161715
174	0xbf290679	-0.660255
175	0xbcc6bb38	-0.024259195
176	0xbe393acd	-0.18088837
177	0xbe748a67	-0.23880921
178	0x3e8f6ebc	0.2801417
179	0x3ed65ce3	0.41867742
180	0xbd264e01	-0.040601734
181	0xba912230	-0.0011072811
182	0x3d1748b5	0.036934573
183	0x3db42abb	0.08797213
184	0x3e0c1565	0.13680036
185	0x3c704d82	0.014666917
186	0xbd443f26	-0.047911786
187	0xbc6e116c	-0.014530521
188	0xbdb0bc70	-0.086296916
189	0x3d43f689	0.047842536
190	0x3fbcf05c	1.4760852
191	0xbe207f66	-0.15673599
192	0x3d6c37ba	0.057670332
193	0x3e81a1cb	0.2531875
194	0x3e07217a	0.13196364
195	0xbdbfa93f	-0.09358453
196	0x3d43d865	0.04781379
197	0xbce63b7e	-0.02810454
198	0xbb846284	-0.0040400643
199	0x3cb3e859	0.021961378
200	0x3d6c9c8b	0.05776648
201	0x3f700d33	0.9377014
202	0xbdec42e0	-0.11536193
203	0xbf7b6d83	-0.98213977
204	0xbe3b4a33	-0.18290024
205	0x3e496122	0.1966596
206	0x3e8bc3cb	0.27297816
207	0xbe8524f6	-0.2600476
208	0x3d41464f	0.047186192
209	0x3d3b572c	0.04573743
210	0xbea6c7d6	-0.32574338
211	0xbee54701	-0.44780734
212	0x3c688665	0.014192198
213	0xbd3ba632	-0.045812793
214	0xbd00f405	-0.031482715
215	0x3bb6c4ce	0.00557766
216	0xbe7bee64	-0.24602658
217	0xbd2c1d23	-0.042019974
218	0xbeb0310c	-0.3441242
219	0x3f8dce2c	1.1078544
220	0x3c8a99e4	0.016919084
221	0x3d84311c	0.06454679
222	0x3e18a9d7	0.14908539
223	0xbdb968cc	-0.090531915
224	0xbe287686	-0.16451463
225	0x3e3de798	0.18545377
226	0x3e0b5073	0.13604908
227	0xbe78e9ad	-0.2430789
228	0xbd921d46	-0.0713449
229	0xbce5f834	-0.028072454
230	0xbfbe7bcc	-1.488153
231	0x3e751e25	0.2393728
232	0x3e49c518	0.19704092
233	0x3eca0878	0.39459586
234	0xbe102792	-0.14077595
235	0xbec18fb7	-0.37804958
236	0x3e73b435	0.23799212
237	0x3e8be5c0	0.27323723
238	0x3f127d32	0.5722228
239	0x3ecea7c0	0.40362358
240	0xbe8a91c7	-0.27064344
241	0x3eb6de0d	0.35716286
242	0x3e8aebfc	0.27133167
243	0xbea49b62	-0.32149798
244	0x3e431f2a	0.19054857
245	0xbdff7f89	-0.12475497
246	0xbea30d92	-0.3184629
247	0x3eb2a186	0.34888858
248	0x3dd2b9f4	0.10289374
249	0x3dd9379e	0.10606311
250	0xbe55aeb1	-0.2086742
251	0x3cbe0197	0.023194117
252	0x3e2e6073	0.1702898
253	0x3ded77e0	0.1159513
254	0xbdbcf80e	-0.09227
255	0x3c856e45	0.016287932

q.layers.0.bias f4 [400]
0	0x3fe59377	1.7935628
1	0xbfdfdaba	-1.7488625
2	0x40128735	2.2895024
3	0xc01c89c3	-2.4459083
4	0xc0085aa6	-2.1305327
5	0x3edc8016	0.43066472
6	0x3fbd8da5	1.4808851
7	0x3e83ec87	0.25766394
8	0x3f7900ea	0.9726702
9	0x4017aa1d	2.369758
10	0xc0408baa	-3.0085244
11	0x400393db	2.0558994
12	0x3d9ab6ae	0.07554375
13	0x3e652b85	0.22379883
14	0x3f493c3a	0.78607523
15	0xc0357a07	-2.835573
16	0x400f5a72	2.2398953
17	0xbd2a96f3	-0.041647863
18	0x3f570829	0.83996826
19	0xbf417fa3	-0.75585383
20	0x3f6ccbbf	0.9249839
21	0xc04265b5	-3.0374577
22	0xc05387dd	-3.3051674
23	0x3f44084c	0.7657516
24	0x3fb28ebc	1.3949809
25	0xbf93a760	-1.1535454
26	0xc02bc1df	-2.683708
27	0xc01ef2be	-2.4835658
28	0x3ecf24f8	0.40457892
29	0x3fae2c2d	1.3607231
30	0x3fe578f1	1.7927533
31	0x3fc5c13b	1.5449594
32	0xc03c812c	-2.945384
33	0x3f06db5a	0.52678454
34	0x3fb1032e	1.3829095
35	0x3fad7b02	1.3553164
36	0x4002e41e	2.0451732
37	0xbe0190f8	-0.12652957
38	0x3fbea5b8	1.4894323
39	0xbfb783d6	-1.4337108
40	0x3e15fb27	0.14646588
41	0x40089d80	2.134613
42	0xc06994b3	-3.6497009
43	0xbf6b458a	-0.91902983
44	0xc03aa67f	-2.916412
45	0x3fb57533	1.4176391
46	0xc0617e3b	-3.5233295
47	0xbfb390c3	-1.4028553
48	0x3ff4b06b	1.9116338
49	0xc02d6265	-2.7091305
50	0x3fd07ff7	1.6289052
51	0x3fbc3582	1.4703829
52	0xbf411d13	-0.7543499
53	0xc022fc6f	-2.5466573
54	0x3f6853f0	0.9075308
55	0x4081a10e	4.05091
56	0x3fd21786	1.6413429
57	0xbfc56b72	-1.5423415
58	0x3fc99adf	1.5750388
59	0x3fc68237	1.5508488
60	0x4013b67e	2.3080134
61	0xc074028c	-3.8126554
62	0x3f345ef1	0.7045737
63	0x3f670e63	0.9025633
64	0xc05012f3	-3.2511566
65	0x3f5cd586	0.8626331
66	0xc02f2af7	-2.7369974
67	0xc0466f48	-3.100542
68	0xc030a557	-2.7600915
69	0xc08b9632	-4.3620844
70	0x3eb951d6	0.36195248
71	0xbfd299be	-1.6453168
72	0x3fab2f10	1.3373737
73	0x3fc11720	1.5085182
74	0xc0147b3a	-2.3200212
75	0xbfc2c673	-1.5216812
76	0xc04a2156	-3.1582847
77	0x3fb9c3f0	1.451292
78	0x3f9e1137	1.2349004
79	0xc08cfa34	-4.4055424
80	0x3fa10822	1.2580607
81	0xc00f6f1d	-2.2411568
82	0xc0075afa	-2.1149278
83	0x3f2fe1e0	0.6870403
84	0xbf6a80ce	-0.9160279
85	0x3fa3b15f	1.2788504
86	0xbf685eb3	-0.907695
87	0x3efd0432	0.49417263
88	0xc055a1d9	-3.3380034
89	0xc035d011	-2.8408244
90	0xc00e1c37	-2.220472
91	0x3e4b579e	0.19857642
92	0x3f81493d	1.0100476
93	0xc04cca1b	-3.1998355
94	0xc077be28	-3.8709812
95	0xc034873a	-2.8207536
96	0xc01249c7	-2.285753
97	0x4025f725	2.5932095
98	0x3f886467	1.065564
99	0x3f84c01c	1.0371127
100	0x3fc0ea2f	1.5071467
101	0x3e72c1ba	0.23706713
102	0x3f9d1e2f	1.2274836
103	0xbe6a1606	-0.22859964
104	0x3ebefb89	0.3730128
105	0x3fa70c94	1.3050714
106	0xbfec07ca	-1.8439877
107	0xc027402e	-2.6132922
108	0xc03d662f	-2.9593618
109	0xbfc619aa	-1.5476582
110	0xc02ac761	-2.6684191
111	0xc0581916	-3.3765311
112	0xc0451810	-3.0795937
113	0x3fac0036	1.3437564
114	0x3ffb8c1b	1.9652132
115	0xc04e17e0	-3.2202072
116	0xc0018d11	-2.024235
117	0x3fc7834f	1.5586947
118	0xc02b5628	-2.6771336
119	0xc041e9fe	-3.0299067
120	0xc03a8059	-2.9140837
121	0xbe973e99	-0.29539946
122	0x400636d4	2.0970964
123	0xc049a321	-3.1505816
124	0xbf30da9b	-0.69083565
125	0xbf68916d	-0.908469
126	0x3f96d171	1.1782666
127	0xbea9a4e8	-0.33133626
128	0xbff26e90	-1.8939991
129	0x40106cbc	2.2566366
130	0x3fd83c74	1.6893449
131	0x3f7839e1	0.96963316
132	0xbeb9450a	-0.36185485
133	0xbf9ab908	-1.2087717
134	0xbffe0c6e	-1.9847543
135	0xc03a0ba8	-2.9069614
136	0xbfdc5188	-1.7212381
137	0xc01b6eee	-2.4286456
138	0x3ff89c5b	1.9422716
139	0x3fb8bff0	1.4433575
140	0xc05ae0ce	-3.419971
141	0xc02890f5	-2.6338475
142	0x3f6e8818	0.9317641
143	0xc00c7aab	-2.194987
144	0xc02477bf	-2.5698087
145	0xc082af1d	-4.083876
146	0xc03dc946	-2.9654098
147	0xbfdfb130	-1.7475948
148	0x3fce0935	1.609656
149	0xc0845c30	-4.1362534
150	0x3f64d23d	0.893833
151	0xc05a82ec	-3.4142408
152	0xc07e2fed	-3.9716752
153	0xbff859bd	-1.9402386
154	0xbd6c2914	-0.057656363
155	0x3f93747d	1.1519924
156	0xc00f0740	-2.2348175
157	0x3fb697e2	1.4265101
158	0x3fdf2775	1.7433916
159	0xc04ccb94	-3.1999254
160	0xc04981a1	-3.148537
161	0x40023faf	2.035137
162	0x3ff6a12d	1.9267937
163	0xc07ab0f2	-3.91705
164	0xbe8e424e	-0.2778496
165	0xc01c6ac6	-2.444017
166	0xbf016491	-0.5054408
167	0xc01830c5	-2.3779767
168	0x3fa913b6	1.320914
169	0x3fe4590d	1.7839676
170	0xbe9bda56	-0.30440015
171	0xc07be4d7	-3.9358423
172	0xc019013d	-2.3907006
173	0xbf8d2188	-1.1025858
174	0xbfe21c48	-1.7664881
175	0x3fa8e688	1.3195353
176	0xc07fd87c	-3.9975882
177	0xc03bdb07	-2.9352434
178	0xc0842490	-4.129463
179	0x3e672b32	0.22575071
180	0xc027e306	-2.6232314
181	0xbe8bcfcb	-0.2730697
182	0xbfbfd1b6	-1.4985874
183	0x3fb94d43	1.4476703
184	0xc03ecd8e	-2.981296
185	0xbea4141f	-0.320466
186	0x400d0d18	2.2039242
187	0x3ebbb64e	0.36662525
188	0x3f847563	1.0348324
189	0x3fc67510	1.5504475
190	0xbf971480	-1.1803131
191	0xc08bca15	-4.368418
192	0xc0761c51	-3.8454783
193	0xbfda1f88	-1.7040873
194	0xbf7a8d83	-0.9787218
195	0x3ff91d81	1.9462129
196	0x3f4f1fe6	0.8090805
197	0xbd811a65	-0.063038625
198	0xc033fae2	-2.8121877
199	0xc02bd39d	-2.6847908
200	0x3fc5b4da	1.5445817
201	0x3fa5656e	1.2921579
202	0x400e823f	2.2266996
203	0xc0465655	-3.0990193
204	0xbe8f3dc5	-0.27976814
205	0x404c87bf	3.1957853
206	0xc018937f	-2.3840024
207	0xc03a8731	-2.9145014
208	0x40044bd4	2.0671282
209	0x40114f40	2.270462
210	0x403a22ad	2.9083664
211	0xc00505e7	-2.0784853
212	0x3ed071fe	0.4071197
213	0xbfaca50f	-1.3487872
214	0xc02c2dbb	-2.6902912
215	0x3fcdc259	1.6074935
216	0x3f83bf81	1.0292817
217	0x400c6f4a	2.1942925
218	0xc09895ff	-4.76831
219	0x3e90fa31	0.2831588
220	0xbfebd9a9	-1.84258
221	0x3fe6d6b0	1.8034267
222	0xc033af3a	-2.80757
223	0xc06625c2	-3.5960546
224	0x3fe5827d	1.7930447
225	0xbf0fb909	-0.56141716
226	0x3fe7a871	1.8098279
227	0x3f2b5eaa	0.6694132
228	0x3fbb7116	1.4643886
229	0xbeaabbbb	-0.33346352
230	0x3f6e2734	0.9302857
231	0xbe50e396	-0.20399317
232	0x3f8d5e68	1.1044436
233	0x3fd067c2	1.6281664
234	0xc0081c4c	-2.126727
235	0x3f8bc88c	1.0920577
236	0x3f87329e	1.0562322
237	0x3fd5fab6	1.6717136
238	0xbec543ab	-0.3852819
239	0xc0450cf9	-3.0789168
240	0xc0289e0c	-2.6346464
241	0xbef58dd0	-0.47959757
242	0x4015674b	2.3344295
243	0x3f671e80	0.90280914
244	0xbf839fcc	-1.0283141
245	0x3f10d2b0	0.56571484
246	0xbf93a5d4	-1.1534982
247	0x3f98d08d	1.1938645
248	0x3f92de8b	1.1474165
249	0x3fda30cd	1.7046143
250	0x3f8575f2	1.0426619
251	0x3fc247b7	1.5178136
252	0xc051c2fd	-3.2775261
253	0xbff3cc07	-1.9046639
254	0xbd0e103b	-0.034683447
255	0x3fb14fcf	1.3852481

q.layers.1.weight f4 [300, 400]
0	0x3cb49e8d	0.02204826
1	0xbca02cf2	-0.019552682
2	0xbd603ea9	-0.054747257
3	0x3cbc8bb3	0.023015833
4	0x3d17d06d	0.037064005
5	0xbd3678fd	-0.044548977
6	0xbc221bcd	-0.009894324
7	0x3c7a871c	0.015291002
8	0xbd42a2e3	-0.047518622
9	0x3d84b692	0.06480135
10	0xbd902c5f	-0.07039713
11	0x3c982ced	0.01857611
12	0xbda6ac10	-0.08138287
13	0x3be89197	0.007097434
14	0x3cf54444	0.029939778
15	0xbd0c259b	-0.03421555
16	0xbd0b50f5	-0.034012754
17	0x3c7df45f	0.015500157
18	0xbd28533d	-0.041095007
19	0xbd1ee45e	-0.038792007
20	0x3d6925aa	0.056920685
21	0xbd930856	-0.07179324
22	0x39e94118	0.00044489722
23	0xbd2469d3	-0.040139984
24	0x3a689084	0.0008871632
25	0xbc1dcd65	-0.009631489
26	0xbbf87d6b	-0.0075833104
27	0xbc80affb	-0.015708914
28	0x3dcc333b	0.09970709
29	0x3c1474cc	0.00906105
30	0xbd50645c	-0.05087696
31	0x3cd915d3	0.026499664
32	0xbbf27c12	-0.0074000442
33	0xbdc6010a	-0.09668167
34	0xbd6076ae	-0.05480068
35	0x3ca4ac86	0.020101797
36	0xbc013d4b	-0.007888149
37	0xbd138445	-0.036014814
38	0x3daf9351	0.0857302
39	0xbb35188a	-0.0027633035
40	0xbd5648bb	-0.052315455
41	0xbc45a3c0	-0.012062967
42	0xbd8aaf7a	-0.06771751
43	0xba024ffb	-0.00049710245
44	0xbcd833c3	-0.02639187
45	0xbc2ff934	-0.010740567
46	0xbdeb6959	-0.11494703
47	0xbd7d9fec	-0.06192009
48	0xbd8c52a3	-0.06851699
49	0xbd1e44fe	-0.038640015
50	0xbd209498	-0.03920421
51	0x3d01237d	0.031527985
52	0xbd7d20bb	-0.061798792
53	0x3d11942f	0.03554171
54	0xbd56c8af	-0.05243748
55	0x3cbbe442	0.02293599
56	0x3c6a4626	0.014298951
57	0x3d1d75c8	0.038442403
58	0x3d658c09	0.05604175
59	0x3cdde9ac	0.027088962
60	0x3c5b8e40	0.013400614
61	0x3c59307b	0.013256188
62	0xbd416d86	-0.04722359
63	0xbc74ba4c	-0.014936995
64	0xbcff633f	-0.031175254
65	0x3c146e64	0.009059522
66	0xba5031e9	-0.00079420075
67	0xbdb6f40e	-0.089332685
68	0xbdc6c5f4	-0.09705725
69	0xbd792ff8	-0.060836762
70	0x3c36ec9c	0.0111648105
71	0x3d263d5a	0.040585853
72	0xbd16d439	-0.036823485
73	0xbd388732	-0.045050807
74	0x3d0cb713	0.03435428
75	0xbd2677d9	-0.04064164
76	0x3cc7d8c3	0.024395352
77	0xbd52d179	-0.0514693
78	0xbcd9459d	-0.026522452
79	0xbdb6c4db	-0.08924266
80	0xbd732cee	-0.05936902
81	0xbcd51f9b	-0.026016047
82	0xbdc18def	-0.094509
83	0xba44e918	-0.00075115403
84	0xbc0d3275	-0.008617987
85	0xbc111bc3	-0.008856717
86	0xbbcec8ba	-0.0063105496
87	0x3c306f42	0.010768713
88	0xbce1ab9c	-0.02754765
89	0xbc509be6	-0.012732482
90	0xbd0f639d	-0.035007108
91	0xbcd02b51	-0.02541128
92	0x3ccb3cb2	0.024809215
93	0xbd694086	-0.0569463
94	0xbce5a532	-0.028032873
95	0xbdd18276	-0.102299616
96	0x3cb95a90	0.022626191
97	0x3d8a2163	0.06744649
98	0xbd1387c9	-0.036018167
99	0x3c4dd876	0.012563815
100	0xbdeb079f	-0.11476063
101	0xbc4c4d7d	-0.0124696465
102	0xbba570bc	-0.0050488394
103	0xbdc8c975	-0.0980405
104	0x3c93b0fd	0.01802873
105	0x3cfdc418	0.030977294
106	0x3c02ca1e	0.007982759
107	0xbc918df3	-0.017767882
108	0xbd79e644	-0.061010614
109	0x3c941aa3	0.018079108
110	0x3c3c1308	0.011479147
111	0xbb5cadd4	-0.0033672946
112	0x3c419a01	0.011816503
113	0xbcebdb10	-0.02879098
114	0xbc63813b	-0.013885791
115	0xbd6aa01c	-0.0572816
116	0xbd47a408	-0.048740417
117	0xbd1ea2dc	-0.038729534
118	0xbcbe1921	-0.023205342
119	0xbbc1472f	-0.0058983783
120	0x3bf83be4	0.007575499
121	0x3cb8ec08	0.022573486
122	0xbd623b1f	-0.055232164
123	0x3bb834c6	0.0056215255
124	0xbc828a30	-0.015935034
125	0x3c74b866	0.014936542
126	0xbc2aee3a	-0.010432774
127	0x3c98c108	0.018646732
128	0x3d056a0b	0.032571834
129	0xbded9f83	-0.1160269
130	0xbdc61233	-0.0967144
131	0xbc42223e	-0.011848984
132	0xbd64f2cb	-0.055895608
133	0x3c1737ad	0.009229583
134	0xbd05ee88	-0.032698184
135	0xbce77952	-0.028256092
136	0x3d1e9dd2	0.038724728
137	0xbd88b53f	-0.06675195
138	0xbbd4ce47	-0.0064943167
139	0x3ad6b38b	0.0016380412
140	0xbd4d01ef	-0.050050672
141	0x3d27fe53	0.041014027
142	0xbda200c8	-0.07910305
143	0xbccce836	-0.02501307
144	0xbc7ca99c	-0.015421297
145	0x3bf49025	0.0074634724
146	0x3cccbc3f	0.024992106
147	0xbcf6d016	-0.03012852
148	0xbcfe227b	-0.031022301
149	0xbcb34dfa	-0.021887768
150	0x3d0e443d	0.034733046
151	0x3d0bb106	0.03410437
152	0xbd37a7ef	-0.04483789
153	0xbd742ed2	-0.059614964
154	0xbdec33dc	-0.11533329
155	0x3c15dd9f	0.009147077
156	0x3d0f0b0e	0.034922652
157	0xbdb4a634	-0.08820763
158	0xbd9df8f4	-0.077135
159	0xbb0ab450	-0.0021164604
160	0x3993f45a	0.0002822008
161	0x3c03e1f6	0.008049479
162	0xbda54b67	-0.080710225
163	0x3c405af3	0.011740434
164	0xbd0def6d	-0.034652162
165	0xbd866984	-0.06563094
166	0x3c8fdc27	0.017561032
167	0x39987554	0.00029079115
168	0xbd2495ab	-0.040181797
169	0xbc687c91	-0.014189855
170	0xbd7452c1	-0.059649233
171	0xbd166bfd	-0.03672408
172	0x3d208e7e	0.03919839
173	0x3ba566db	0.0050476617
174	0xbc309228	-0.010777034
175	0x3c53a9a4	0.012918863
176	0x3cb587c0	0.022159457
177	0xbca3cd5f	-0.01999539
178	0xbcb0c616	-0.02157883
179	0xbd654c11	-0.055980746
180	0x3cc1d3a1	0.023660483
181	0x3cdb63c7	0.026780976
182	0x3cddd85c	0.027080707
183	0xbd37d6f4	-0.04488273
184	0xbcd6010f	-0.026123552
185	0xbcf608b0	-0.03003344
186	0x3d19c7e5	0.03754415
187	0xbc626fd3	-0.013820606
188	0x3c206925	0.009790693
189	0xbd2dc3ca	-0.042423047
190	0xbcf3e513	-0.029772317
191	0x3cd487b3	0.025943613
192	0xbd9673d7	-0.073463134
193	0xbcb26f71	-0.021781655
194	0xbd35dd8b	-0.044400733
195	0xbc398a54	-0.011324484
196	0xbd2ab0f7	-0.041672673
197	0xbddd4331	-0.10803831
198	0xbdb8f325	-0.09030751
199	0xbcba44b2	-0.022737835
200	0xbccc88c7	-0.024967564
201	0x3d43d57d	0.04781102
202	0xbd24fad2	-0.040278263
203	0x3cee3fa6	0.029083084
204	0xbd0b95f9	-0.034078572
205	0x3b215247	0.0024615692
206	0xbde1eade	-0.110311255
207	0xbd537db9	-0.05163357
208	0xbd1a91fc	-0.037736878
209	0xbd5b1fef	-0.05349725
210	0x3cd7c060	0.026336849
211	0xbd87a6ba	-0.066235974
212	0xbd2f34ff	-0.04277515
213	0xbda6b089	-0.0813914
214	0x3c730a14	0.014833946
215	0x3d3659db	0.044519287
216	0x3bca333f	0.00617066
217	0x3d07d10d	0.03315835
218	0xbd3e772f	-0.04650038
219	0xbdaf9656	-0.08573596
220	0x3d3fc9b9	0.046823237
221	0xbcbc0849	-0.02295317
222	0xbc445ced	-0.011985046
223	0xbc93a7c3	-0.018024331
224	0xbd018b96	-0.03162726
225	0xbd35dcf2	-0.044400163
226	0xba5a0bfd	-0.00083178264
227	0xbd533283	-0.051561844
228	0x3ca9f852	0.020748291
229	0xbce9213c	-0.02845823
230	0xbc829e33	-0.015944576
231	0xbc5038fd	-0.0127089
232	0xbc4009e6	-0.01172111
233	0xbd2ffb1f	-0.042964097
234	0xbd9a42e4	-0.075322896
235	0x3d2acb3e	0.041697733
236	0x3b6e9917	0.0036407167
237	0x3c6be7a8	0.014398493
238	0x3d3d67b6	0.046241485
239	0x3d142e2b	0.03617684
240	0x3bddb9fd	0.0067665563
241	0xbddc2a4d	-0.10750256
242	0xbd3e52dc	-0.04646574
243	0xbd57344f	-0.05254012
244	0xbcbcdbca	-0.023054022
245	0x3cc257c9	0.0237235
246	0xbc392b7f	-0.011301874
247	0xbc41f377	-0.011837832
248	0xbc6b70f3	-0.014370191
249	0xbd41bd97	-0.047299948
250	0xbca37a24	-0.019955702
251	0x3cd7f3fb	0.026361456
252	0x3d0d574f	0.034507092
253	0x3d48516f	0.048905786
254	0xbd897c38	-0.06713146
255	0x3ba18ca9	0.004930098

q.layers.1.bias f4 [300]
0	0xbe3bc43d	-0.18336578
1	0xbd1a89af	-0.03772896
2	0x3f3025c2	0.68807614
3	0xbd0d479a	-0.034492113
4	0x3c43f215	0.011959572
5	0x3cce086e	0.025150504
6	0x3f89a971	1.0754834
7	0xbd7bb615	-0.061452944
8	0x3e114ae8	0.1418873
9	0xbc23a8ce	-0.009988977
10	0xbcf0071f	-0.02930027
11	0x3f6d8735	0.92784435
12	0xbcaa8a4d	-0.0208179
13	0xbcffecd2	-0.031240854
14	0xbce3fa0d	-0.027829194
15	0xbd345d47	-0.04403427
16	0xbdcecd03	-0.10097697
17	0x3e0f8f4d	0.14019509
18	0x3e7a97ec	0.24472016
19	0xbcde1d72	-0.02711365
20	0xbe35b602	-0.17745212
21	0xbd1aa08f	-0.037750777
22	0x3c39da0a	0.0113434885
23	0xbd399a14	-0.045312956
24	0xbc05f861	-0.008176894
25	0x3cda1823	0.026622837
26	0xbd29fc15	-0.04150017
27	0x3f499d0e	0.7875527
28	0xbd05b319	-0.032641504
29	0x3fc67afa	1.550628
30	0x3f71f181	0.9450913
31	0x3c71806b	0.01474009
32	0x3f837f51	1.0273229
33	0x3d96b684	0.07359031
34	0xbd2dc463	-0.042423617
35	0xbcf675a8	-0.0300854
36	0x3c38ae54	0.011272032
37	0x3b3113b2	0.0027019796
38	0x3ed75c6a	0.42062694
39	0xbd2e075d	-0.04248749
40	0xbd1ca71a	-0.038245298
41	0xbd1f2e37	-0.038862433
42	0xbccaf84d	-0.024776602
43	0x3e320622	0.17385152
44	0xbd96e185	-0.07367233
45	0xbd267148	-0.040635377
46	0xbd35fc00	-0.04442978
47	0xbcd9b738	-0.026576623
48	0xbd85eb91	-0.06539071
49	0x3cd62327	0.026139809
50	0xbd3117cf	-0.043235596
51	0x3f63f400	0.8904419
52	0x3f0d28a5	0.55140144
53	0x3f8fc93a	1.1233284
54	0x3f6029df	0.8756389
55	0x3d286249	0.041109357
56	0x3f71f5e8	0.9451585
57	0xbbc4c907	-0.0060054096
58	0xbcd20453	-0.025636828
59	0x3fc392c0	1.527916
60	0xbd61f942	-0.05516935
61	0xbd342001	-0.043975834
62	0xbd8a50e7	-0.06753712
63	0x3da473b3	0.080298804
64	0xbed46b7c	-0.41488254
65	0xbd29fc9c	-0.041500673
66	0xbc9a67e3	-0.018848365
67	0xbd03d52c	-0.03218572
68	0x3e9901b8	0.29884124
69	0xbc292591	-0.010323898
70	0xbd380919	-0.04493055
71	0xbd22553e	-0.039632075
72	0x3f225be6	0.63421476
73	0xbd227f5c	-0.03967224
74	0xbd0bb0f8	-0.034104317
75	0x3cecb7d4	0.02889625
76	0xbd1446dc	-0.03620039
77	0xbceb7dcf	-0.028746514
78	0x3d6bec7d	0.05759858
79	0x3c107859	0.008817756
80	0xbe4b83d9	-0.19874515
81	0xbd1a5202	-0.037675865
82	0xbce2dcca	-0.027693171
83	0x3f719df1	0.94381624
84	0xbd0a33e3	-0.03374089
85	0xbd389a17	-0.045068827
86	0xbb4daa6f	-0.0031382104
87	0x3d0934d3	0.033497643
88	0x3f9427a4	1.1574597
89	0x3d2b55a9	0.04182974
90	0xbbe2960c	-0.0069148596
91	0xbd364240	-0.044496775
92	0xbcf3c36b	-0.029756268
93	0x3c1be824	0.009515796
94	0xbd10460d	-0.035223056
95	0xbcf7ef7f	-0.030265568
96	0xbe516dae	-0.20451996
97	0xbd9bd6f7	-0.07609361
98	0xbcb6b45d	-0.0223028
99	0xbd191b3b	-0.037379485
100	0xbe1fbb3b	-0.15598767
101	0xbd3ebaac	-0.046564743
102	0x3d612f5b	0.054976802
103	0xbd28d00e	-0.04121404
104	0x3f11db03	0.5697481
105	0x3eb04d44	0.3443395
106	0xbd6490e3	-0.055802237
107	0xbcc5e553	-0.024157202
108	0xbd27c4e7	-0.040959265
109	0xbb919744	-0.004443081
110	0x3e4be931	0.19913174
111	0xbd373644	-0.044729486
112	0xbce991e1	-0.028511943
113	0xbd54b9de	-0.05193507
114	0x3cd04c94	0.02542714
115	0x3e97853a	0.2959383
116	0xbd4b51eb	-0.04963867
117	0xbd36f072	-0.0446629
118	0xbcd13b14	-0.025540866
119	0xbce36835	-0.02775965
120	0xbdc7dc71	-0.09758843
121	0xbd8a63ec	-0.0675734
122	0x3e1276dc	0.14303154
123	0x3fa9eac9	1.3274776
124	0xbd22bc63	-0.03973044
125	0xbd199a29	-0.037500534
126	0x3c9ec7ca	0.019382376
127	0xba9b89af	-0.0011866594
128	0x3ec0d9e5	0.3766624
129	0x3fdf9a32	1.7468932
130	0x3f0540e2	0.5205213
131	0xbd8060f1	-0.0626849
132	0xbca418ef	-0.02003142
133	0xbd2c7536	-0.04210397
134	0xbe81f74c	-0.25383985
135	0xbc67693a	-0.014124209
136	0x3ce3df49	0.027816432
137	0xbd05e854	-0.03269227
138	0xbd422c2d	-0.04740541
139	0xbc00a393	-0.007851499
140	0xbd2ad655	-0.04170831
141	0xbd2837e3	-0.041068923
142	0x3eda9d83	0.42698297
143	0xbd2662c2	-0.040621527
144	0xbb7e48ce	-0.003880072
145	0xbcafd32a	-0.021462996
146	0x3e7b6f00	0.24554062
147	0x3d5b9ff3	0.053619336
148	0xbdfdb7c5	-0.12388567
149	0x3f404ec1	0.7512017
150	0xbd3a417b	-0.045472603
151	0x3dcdfdc6	0.10058169
152	0xbc875b0d	-0.016522909
153	0xbe980d93	-0.29697856
154	0x3cbeb6dd	0.023280555
155	0xbd273c40	-0.040828943
156	0xbd27ace3	-0.040936362
157	0xbadc34d9	-0.0016800418
158	0x3e1ecf3e	0.15508744
159	0xbd46317a	-0.04838703
160	0xbcfcd537	-0.030863388
161	0x3d48229d	0.048861135
162	0xbcb9a58e	-0.02266195
163	0x3ec20bb5	0.37899557
164	0x3ca31f3d	0.019912357
165	0x3f6b6514	0.9195111
166	0xbc34d50a	-0.011037121
167	0xbd1cae94	-0.03825243
168	0xbcfbd955	-0.03074328
169	0xbd51a8f4	-0.051186517
170	0x3f7741b2	0.9658462
171	0xbd05ee8e	-0.032698207
172	0xbd273aa6	-0.040827416
173	0xbd1ad380	-0.03779936
174	0x3ff0b8e2	1.8806422
175	0x3fb4f226	1.4136398
176	0x3c397397	0.011319063
177	0xbc1b2f09	-0.009471663
178	0x3f836db2	1.0267851
179	0x3e052447	0.1300212
180	0x3d00b13f	0.031419035
181	0x3eb15da3	0.34641752
182	0xbd072c0a	-0.033000983
183	0xbd48ebf4	-0.049053147
184	0x3d01cb94	0.031688288
185	0xbca07000	-0.019584656
186	0x3cfd75a4	0.030939884
187	0x3dfc65e6	0.12324123
188	0xbc6b73f0	-0.014370903
189	0xbd1ee59f	-0.038793202
190	0xbd241426	-0.040058278
191	0xbceb5d9e	-0.028731164
192	0xbd09799e	-0.03356325
193	0x3f52a991	0.8228999
194	0xbd187683	-0.037222397
195	0xbd2d5ee6	-0.04232683
196	0xbc452cea	-0.012034634
197	0x3fac1f8a	1.3447125
198	0x3ebd0ea8	0.36925244
199	0xbd21a311	-0.039462153
200	0xbd0e4672	-0.03473515
201	0x3c93216b	0.01796027
202	0x3baa2a48	0.0051930286
203	0xbd1f17c4	-0.038841024
204	0x3e566ff9	0.20941152
205	0xbd259af0	-0.040430963
206	0xbd17cd5b	-0.037061077
207	0xbef30da8	-0.47471356
208	0xbd33016f	-0.04370254
209	0x3f9a612a	1.2060902
210	0x3dfd08b0	0.12355173
211	0x3ec27cbc	0.3798579
212	0xbcfd2569	-0.030901628
213	0xbcffec38	-0.031240568
214	0xbde70f6b	-0.112822376
215	0x3e17ef57	0.14837395
216	0x3f8ef360	1.1168022
217	0x3d8d68f5	0.069047846
218	0xbd02e6e3	-0.031958472
219	0x3ee7662f	0.45195147
220	0x400ab0f4	2.1670504
221	0xbc5254cf	-0.012837603
222	0xbce4e9bf	-0.02794349
223	0x3ee044eb	0.4380258
224	0xbd85d067	-0.0653389
225	0xbc365cf4	-0.01113056
226	0x3f77dfcb	0.96825856
227	0xbd9c57f2	-0.07633962
228	0xbbba6d78	-0.005689319
229	0xbd2b1a93	-0.04177339
230	0xbd32f519	-0.043690775
231	0x3f6e665e	0.9312495
232	0xbc16698e	-0.00918044
233	0xbd137091	-0.035996024
234	0xbd859715	-0.06522957
235	0x3ae933c5	0.0017791918
236	0xbc920d64	-0.01782865
237	0x3fad4abe	1.3538435
238	0x3fcafbc6	1.5858085
239	0xbd2476bd	-0.0401523
240	0xbcc94879	-0.02457069
241	0xbd297ebb	-0.041380625
242	0xbcb29b96	-0.021802705
243	0x3f157d8c	0.58394694
244	0xbd366524	-0.04453005
245	0xbd2fbb82	-0.04290343
246	0xbcb40aa7	-0.021977736
247	0xbd185beb	-0.037197035
248	0xbce3f691	-0.027827533
249	0xbf915d96	-1.1356685
250	0x3efe1d6b	0.4963182
251	0xbcf509e5	-0.029911945
252	0xbd5eb65b	-0.054373126
253	0xbd1f515f	-0.03889596
254	0xbd2de946	-0.042458795
255	0xbd0e23de	-0.034702174

q.layers.2.weight f4 [8, 300]
0	0xbbb8db50	-0.0056413785
1	0xbcb30678	-0.02185367
2	0x3f1ea07c	0.6196363
3	0xbc708e82	-0.014682414
4	0xbd0a14fe	-0.033711426
5	0x3d0c8abd	0.034312
6	0x3f8be62b	1.0929617
7	0x3d358b26	0.044322155
8	0xbc5df2cc	-0.013546657
9	0xbcbf77c0	-0.023372531
10	0x3d8940f5	0.06701843
11	0x3f2b176c	0.66832614
12	0xbcc3ec20	-0.023916304
13	0xbcf3c5c7	-0.029757394
14	0xbce082d8	-0.027406141
15	0xbcd75977	-0.026287777
16	0x3f03e26e	0.5151738
17	0x3c9171a4	0.017754383
18	0x3cb5dc83	0.022199875
19	0xbcac9c7e	-0.021070715
20	0x3d4ab263	0.04948653
21	0xbb2d8ee1	-0.0026482868
22	0xbbba2384	-0.0056805033
23	0x3d1e7252	0.038683243
24	0xbd843207	-0.064548545
25	0xbd3b0587	-0.04565957
26	0xbd2a760b	-0.04161648
27	0x3e58fbe2	0.21189836
28	0xbd191fec	-0.03738396
29	0x3ec54f25	0.38536945
30	0x40247e4c	2.5702085
31	0xb93e3b98	-0.00018142012
32	0x3ea6ea3b	0.3260058
33	0xbe6b9f08	-0.23009884
34	0xbd4b7991	-0.04967648
35	0x3d147fa2	0.036254533
36	0xbc95e709	-0.018298643
37	0xbc5e61ea	-0.013573149
38	0x3cfc5849	0.030803816
39	0xba800953	-0.0009768404
40	0x3bae91df	0.005327448
41	0xbbde4a51	-0.0067837615
42	0x3c9852e6	0.018594217
43	0xbf262f29	-0.6491571
44	0xbd061913	-0.032738756
45	0xbaf61d00	-0.0018776953
46	0xbc503771	-0.012708531
47	0xbd1b45a5	-0.037908215
48	0xbc581feb	-0.013191204
49	0x3c02b144	0.007976834
50	0x3b8133fb	0.003942964
51	0x3e27069f	0.1631112
52	0x3f37cbb6	0.71795213
53	0x3e389b2d	0.18027945
54	0x3e3c8341	0.18409444
55	0xbc515247	-0.012775964
56	0xc036172b	-2.845164
57	0xbbfb9060	-0.007677123
58	0xbd1eac99	-0.03873882
59	0x3e621848	0.22079575
60	0x3dc50d31	0.09621657
61	0xbd0c5da5	-0.034268994
62	0x3cdcb863	0.026943391
63	0xbb0e2790	-0.0021691062
64	0xbd1dd364	-0.038531676
65	0x3d035745	0.03206565
66	0x3d5daf27	0.054122116
67	0xbce18645	-0.027529845
68	0xbd4bd697	-0.049765196
69	0xbd860557	-0.06543987
70	0x3ca05807	0.019573225
71	0x3ac53d56	0.0015048187
72	0x3f209bd9	0.62737805
73	0x3cf2297f	0.029560803
74	0xbc0f30c4	-0.008739654
75	0x3ce2d07e	0.027687307
76	0xbc86bf34	-0.016448595
77	0xbd7d5c16	-0.061855398
78	0xbc0b5076	-0.00850307
79	0x3d129cd9	0.035794113
80	0x3b950b44	0.004548462
81	0xbd1311a9	-0.035905514
82	0x3ca7f2bd	0.020501489
83	0x3f363a63	0.7118284
84	0xbc738a26	-0.01486448
85	0x3cd2334d	0.025659228
86	0xbc10ae1e	-0.008830575
87	0x3cd17f26	0.025573324
88	0x3f857e04	1.0429082
89	0xbd16ea70	-0.03684467
90	0x3cc77820	0.024349272
91	0x3a6fb467	0.00091440085
92	0xbc5a6427	-0.013329542
93	0x3c9bc795	0.019016067
94	0xbd1b06bf	-0.03784823
95	0xbd743aff	-0.059626576
96	0x3ca17d1b	0.019712975
97	0x3ccad240	0.024758458
98	0x3d898367	0.06714516
99	0x3bca48d6	0.0061732335
100	0xbd48fcd8	-0.049069256
101	0x3cd494f9	0.025949942
102	0x3cb9a79e	0.022662934
103	0x3cb21cfa	0.021742333
104	0xbf448ffe	-0.76782215
105	0x3e6b705d	0.22992082
106	0xbe22d023	-0.1589971
107	0xbd39e5f1	-0.045385305
108	0xbd198b79	-0.037486527
109	0xbcc8fdf4	-0.024535157
110	0xbd123905	-0.03569891
111	0x3d070882	0.032967098
112	0xbbdfcc42	-0.0068297694
113	0xbc9613c0	-0.018319964
114	0xb9a188ad	-0.00030810144
115	0xbf76ffcf	-0.9648408
116	0xbbfed3f8	-0.0077767335
117	0x3d1f3af6	0.03887459
118	0x3ce21b18	0.02760081
119	0x3d67309c	0.056442842
120	0x3d1eabe3	0.038738143
121	0xbc56d659	-0.013112628
122	0xbc21661a	-0.009851003
123	0x3fb1e0a9	1.3896686
124	0xbbfc66a0	-0.0077026635
125	0x3cae0612	0.021243129
126	0xbd2c9eeb	-0.042143743
127	0x3ca42186	0.020035516
128	0x3ed465fa	0.41484052
129	0x3e86e93c	0.2634982
130	0x3f5893c8	0.84600496
131	0x3a2f3ceb	0.00066847977
132	0x3c61ee65	0.013789748
133	0x3c56fdbf	0.013122021
134	0x3d82777a	0.063704446
135	0x3caacf80	0.020850897
136	0xbb343c3c	-0.0027501723
137	0xbc816f2c	-0.015800081
138	0x3d35c070	0.044372976
139	0x3b044e6a	0.002018834
140	0xbca92180	-0.020645857
141	0x3bc215fb	0.0059230304
142	0x3f287055	0.65796405
143	0xbc019eec	-0.007911425
144	0x3d54dd42	0.05196882
145	0xbc3a7144	-0.011379544
146	0x3cb9635e	0.02263039
147	0x3da92ed1	0.08260883
148	0x3cb0d873	0.021587586
149	0x3f1d1077	0.6135325
150	0x3a92a14d	0.0011186987
151	0x3c698fdc	0.01425549
152	0x3ce0d5f9	0.02744578
153	0xbb2b00a4	-0.002609291
154	0xbbf87d17	-0.0075832712
155	0x3d3c2ee0	0.04594314
156	0x3d061533	0.03273506
157	0xbd8568a7	-0.065141015
158	0x3c2e6bc0	0.010645807
159	0x3c0a4b77	0.008440844
160	0x3c63e9ae	0.013910694
161	0xbcc9bf03	-0.024627214
162	0x3d2ecdce	0.04267674
163	0x3c33a43a	0.010964448
164	0x3c658b04	0.014010195
165	0x3ee10577	0.43949482
166	0x3ccef53b	0.02526342
167	0xbc998a40	-0.01874268
168	0xbcb8e4b8	-0.02257
169	0x3cee8697	0.029116912
170	0x3f8691d1	1.051325
171	0xbcccca08	-0.02499868
172	0x3c955f90	0.018234044
173	0xbd851a80	-0.06499195
174	0x3f0d020d	0.55081254
175	0x3f6034e4	0.87580705
176	0xbcaf28f9	-0.021381842
177	0x3cd93d5a	0.026518513
178	0x3ea643c3	0.32473573
179	0xbc11a639	-0.008889728
180	0x3ca0a89f	0.019611655
181	0x3f01a7c4	0.50646615
182	0xbc072136	-0.008247664
183	0x3d5c62af	0.05380505
184	0xbd223aeb	-0.03960697
185	0xbc253b6c	-0.010084968
186	0x3d09de03	0.033658992
187	0xbd0e337a	-0.03471706
188	0x3c444b51	0.011980847
189	0x3d34f038	0.044174403
190	0x3d62ee81	0.055403236
191	0x3d118501	0.035527233
192	0x3bd88d2b	0.0066086254
193	0xbd10ae4a	-0.035322465
194	0xbd038795	-0.032111723
195	0xbc5d7c60	-0.013518423
196	0x3caa322d	0.020775879
197	0x3ef7a213	0.4836584
198	0xbd5b0480	-0.05347109
199	0x3ce45a17	0.02787499
200	0x3c3d8a13	0.011568564
201	0x3d7f985e	0.062401168
202	0x3ccaac33	0.024740314
203	0x3c51fd41	0.012816728
204	0x3cebb5c7	0.028773202
205	0xbc664ffb	-0.014057155
206	0x3c224183	0.0099033145
207	0xbf1b3b6c	-0.60637546
208	0xbb6a586d	-0.0035758272
209	0x3f4724aa	0.7779032
210	0xbd93b933	-0.07213058
211	0xbd73481c	-0.05939494
212	0x3cadf842	0.021236543
213	0xbce4a378	-0.02790998
214	0x3ee0628c	0.43825185
215	0xbd541191	-0.051774565
216	0x3ed7d03a	0.42151052
217	0xbd5c3d02	-0.05376912
218	0xbc0f8a0b	-0.008760939
219	0x3ea2902a	0.31750613
220	0x3f49ee13	0.788789
221	0x3bf2ac86	0.0074058203
222	0x3cc46b79	0.023977028
223	0xbf34add0	-0.70577717
224	0x3c471ed7	0.012153349
225	0x3d035201	0.032060627
226	0x3f60c64a	0.87802565
227	0xbf2e4f47	-0.6808972
228	0x3d4dff55	0.05029233
229	0x3cf919e0	0.030407846
230	0xbc08ed36	-0.008357337
231	0x3f875abb	1.0574564
232	0xbd14c285	-0.03631832
233	0xbc5ce151	-0.013481454
234	0x3c0a7a1d	0.008451966
235	0xbd08496f	-0.033273157
236	0xbd544760	-0.05182588
237	0x3e85d5a9	0.26139572
238	0x3ef4d3be	0.47817796
239	0x3cceeecb	0.02526035
240	0xbc513461	-0.012768836
241	0xbc2bf6ab	-0.010495822
242	0xbd6c22ba	-0.057650305
243	0x4001fd3f	2.031082
244	0x3c6f0a60	0.014589876
245	0x3cc8f609	0.024531381
246	0xbb8eca23	-0.0043575927
247	0x3cb625eb	0.022234878
248	0xbc642202	-0.013924124
249	0xbe101e8d	-0.14074154
250	0xbe520553	-0.20509844
251	0x3b433219	0.00297845
252	0xbd0a6eb3	-0.033796977
253	0xbbb18ff4	-0.005418772
254	0x3cca84a7	0.024721457
255	0x3d5b0872	0.05347485

q.layers.2.bias f4 [8]
0	0x3f7fdccc	0.99946284
1	0x3f744db6	0.9543108
2	0x3f2c1cea	0.6723162
3	0x3f242021	0.64111525
4	0x3f4e166b	0.8050296
5	0x3faefde8	1.3671236
6	0x3fb1119a	1.3833497
7	0x3fabb82c	1.341558
