pyt_save/model_best_so_far.pt (torch_old, 491957 bytes, 6 tensors)

q.layers.0.weight f4 [400, 2]
0	0xbd2255a3	-0.03963245
1	0x3cc55fc1	0.02409351
2	0xbd2089e8	-0.039194018
3	0xbd7d4875	-0.06183668
4	0xbd8046fa	-0.06263538
5	0x3d937f67	0.072020344
6	0xbe9b373e	-0.30315584
7	0x3db064cb	0.08612975
8	0xbd2ec57e	-0.042668812
9	0x3d021304	0.031756416
10	0xbe5ee291	-0.21766116
11	0x3d6e060a	0.058111228
12	0xbd227be0	-0.039668918
13	0xbd3a1c4d	-0.045437146
14	0xbe10e6c7	-0.14150535
15	0xbcdbe915	-0.02684454
16	0x3d977f52	0.07397331
17	0x3e88e6b1	0.26738504
18	0xbe6279ca	-0.22116771
19	0xb9d61e0a	-0.00040839642
20	0x3c96dca6	0.01841576
21	0x3db5622d	0.08856616
22	0xbd00a7a6	-0.031409882
23	0x3d93dc01	0.07219697
24	0xbcac0203	-0.020997053
25	0x3d37adc7	0.04484346
26	0x3e2da877	0.16958795
27	0xbd022505	-0.031773586
28	0xbe9c0331	-0.30471185
29	0xbcc631ad	-0.02419361
30	0x3d0d6cfe	0.03452777
31	0x3edcced5	0.4312655
32	0xbe47cbad	-0.1951129
33	0x3cda249e	0.026628789
34	0xbd3ee202	-0.046602257
35	0xbd65e3f9	-0.056125615
36	0x3a938fba	0.0011258044
37	0x3ef26eb3	0.47350082
38	0x3e274405	0.16334541
39	0x3d272e51	0.040815655
40	0xbbab1946	-0.0052215187
41	0xbd89ee2d	-0.067348816
42	0xbbd811f2	-0.006593936
43	0xbaa5d4d9	-0.0012651935
44	0xbd5fda03	-0.05465127
45	0xbbc0cdc3	-0.0058839037
46	0x3d2fcc50	0.042919457
47	0x3cf7d34b	0.03025212
48	0xb9fb8339	-0.0004797222
49	0x3b69cfd7	0.003567686
50	0x3d879c52	0.066216126
51	0x3e51befd	0.20483012
52	0x3dc6a439	0.09699292
53	0x3be8da5d	0.007106109
54	0x3d46a386	0.04849579
55	0xbd5c87bd	-0.053840388
56	0x3cb7d6d7	0.02244131
57	0xbd049b6f	-0.032374796
58	0xbcade55e	-0.021227535
59	0x3a8e9995	0.0010879511
60	0x3d94a4c3	0.07257988
61	0x3d367f75	0.044555146
62	0xbe91dab4	-0.2848717
63	0x3b174184	0.0023079822
64	0x3d09df26	0.033660077
65	0x3c7d2518	0.015450738
66	0xbd0c1408	-0.03419879
67	0x3ca43263	0.020043558
68	0x3a3c4ef8	0.0007183398
69	0x3f13f080	0.5778885
70	0xbd234ca0	-0.039867997
71	0xbbe8e666	-0.0071075438
72	0x3ce274bd	0.027643556
73	0x3e95ad34	0.29233706
74	0x3daff90d	0.085924245
75	0x3d8d078d	0.06886206
76	0x3d139561	0.03603113
77	0xbd277121	-0.040879373
78	0xbb85c966	-0.0040828465
79	0xbd83e0da	-0.064393714
80	0xbd23befb	-0.039977055
81	0x3e6daf9a	0.23211518
82	0xbbbdf653	-0.0057971864
83	0xbd0785ee	-0.03308671
84	0x3cd7ef29	0.026359158
85	0xbcfba58f	-0.030718593
86	0xbceb9eac	-0.028762184
87	0xbd210a48	-0.039316446
88	0x3d43f7a7	0.0478436
89	0xbd32826c	-0.04358141
90	0x3b1209c3	0.002228365
91	0x3cc40967	0.023930265
92	0x3d38e081	0.04513598
93	0x3d0e52b1	0.03474683
94	0xbdf53b63	-0.11974218
95	0xbca79db5	-0.020460943
96	0x3dfa685e	0.12226938
97	0xbd08fb1c	-0.0334426
98	0xbe18755b	-0.14888518
99	0xbd08fc20	-0.03344357
100	0xbc30f623	-0.010800871
101	0x3ea4847f	0.32132336
102	0xbe86ca02	-0.26325995
103	0x3d6cebc1	0.05784202
104	0xbed2db5b	-0.4118298
105	0xbc9430fb	-0.018089762
106	0xbb75bb22	-0.0037495573
107	0xbd865c95	-0.06560627
108	0x3cc2cbb3	0.023778772
109	0x3cad26c7	0.021136655
110	0xbd581b8d	-0.05276065
111	0x3dc09a06	0.09404378
112	0x3c5f7a44	0.01363999
113	0x3e632940	0.22183704
114	0xbc424f4c	-0.011859726
115	0xbd175d4b	-0.036954205
116	0xbd5c8039	-0.05383322
117	0xbd24e405	-0.04025652
118	0x3d467d22	0.04845918
119	0x3d98c5af	0.0745958
120	0x3dccf1cb	0.10007056
121	0xbd012d03	-0.031537067
122	0x3d3fafcd	0.046798516
123	0x3e4d01b2	0.20020178
124	0xbe1ed75f	-0.15511845
125	0xbce1688f	-0.027515678
126	0xbd863eba	-0.06554933
127	0xbdbc5fc9	-0.09197957
128	0xbd57740d	-0.05260091
129	0xbd6b6467	-0.057468798
130	0xbd46f2a1	-0.048571233
131	0x3dc597f3	0.09648123
132	0xbe8aad13	-0.2708517
133	0x3b044db4	0.0020187916
134	0x3e859b9f	0.26095292
135	0x3cd81f8b	0.026382228
136	0x3dabaeca	0.08382948
137	0x3bcda19f	0.0062753703
138	0xbc61adc4	-0.013774339
139	0x3ddbdb5c	0.10735199
140	0x3f01cea0	0.5070591
141	0x3e2ff81e	0.17184493
142	0x3f0b7443	0.54474276
143	0xbbc5d3ef	-0.0060372273
144	0xbeaa3ade	-0.33248037
145	0xbcc0bb4f	-0.023526816
146	0x3e9f81c1	0.31153682
147	0x3c609950	0.013708428
148	0xbdd7a377	-0.10529225
149	0x3b8b7fd5	0.004257182
150	0xbdbdeeef	-0.092740886
151	0xbd652e87	-0.055952575
152	0xbb5ab2aa	-0.0033370652
153	0x3c70db2f	0.014700695
154	0xbbe36f5b	-0.006940765
155	0xbd3a91e4	-0.04554929
156	0x3c1276b1	0.008939431
157	0xbccfa746	-0.025348317
158	0xbd13d34a	-0.036090173
159	0xbd46fc2d	-0.048580337
160	0xbc1d6a96	-0.009607932
161	0xbc967952	-0.018368397
162	0xbdcad852	-0.09904541
163	0x3c62e1c6	0.013847774
164	0xbd44b9e7	-0.048028853
165	0xbd2aa3d0	-0.04166013
166	0xbbba69b3	-0.00568887
167	0x3dab4445	0.08362631
168	0xbee17381	-0.44033435
169	0xbd320ae8	-0.043467432
170	0x3e963c3d	0.29342833
171	0x3a858472	0.0010186567
172	0x3ed68db3	0.41904983
173	0x3b4e5588	0.0031484086
174	0x3dbaa46c	0.09113392
175	0x3ec4b9c1	0.3842297
176	0xbd006cdf	-0.031353828
177	0xbd4c9f94	-0.049956873
178	0x3d4866e4	0.04892625
179	0xbd5ce66a	-0.053930677
180	0x3e24fdf6	0.16112503
181	0x3ca12d03	0.019674784
182	0x3df42289	0.119206496
183	0x3c5d455d	0.013505307
184	0x3d201dc9	0.039090905
185	0xbd2be97d	-0.04197072
186	0xbd2a7a4a	-0.04162053
187	0xbd25db8f	-0.04049259
188	0xbe49d263	-0.19709162
189	0x3d138f59	0.03602538
190	0x3e0d2725	0.13784464
191	0xbc1ad039	-0.009449058
192	0xbe72582e	-0.2366645
193	0xbcfe4ec7	-0.031043423
194	0xbe8455fa	-0.25846845
195	0x3a43c052	0.00074673176
196	0xbcffe0b0	-0.031235069
197	0x3dd1b9d1	0.1024052
198	0xbec74139	-0.38916948
199	0xbcde7798	-0.027156636
200	0xbe9824e6	-0.2971565
201	0x3cb9cc6e	0.022680487
202	0xbd298e86	-0.041395687
203	0xbd434a3d	-0.04767822
204	0x3d051a2e	0.03249567
205	0x3e8fe1c2	0.28101927
206	0x3d6ed1c9	0.058305535
207	0x3dc3265a	0.09528799
208	0x3e00e467	0.12587129
209	0xbcd6e7b2	-0.026233528
210	0x3e55b06c	0.20868081
211	0x3d2e5d2f	0.042569336
212	0x3c4ed4a9	0.012623944
213	0xbc5005bc	-0.01269668
214	0x3caf2961	0.021382036
215	0x3bfd6429	0.0077328873
216	0xbd42cd4f	-0.04755908
217	0xbd4ee2e1	-0.050509337
218	0x3e25b066	0.16180572
219	0xbca87815	-0.020565072
220	0xb873b734	-5.8106336e-05
221	0x3d5301d6	0.051515423
222	0x3d3f4355	0.046695072
223	0xbd2f76d8	-0.042837948
224	0xbeec7bf6	-0.46188325
225	0xbada36ca	-0.0016648408
226	0xbe4a6434	-0.19764787
227	0x3cdacd06	0.02670909
228	0xbd1ad62b	-0.037801903
229	0xbd1c6902	-0.03818608
230	0x3a4f59f0	0.0007909825
231	0x3d3cb2bb	0.04606889
232	0x3d39c269	0.04535142
233	0x3e9016d8	0.28142428
234	0x3ec20ae1	0.37898925
235	0xbdd15843	-0.10221913
236	0x3d02191b	0.031762224
237	0xbe2009a1	-0.15628673
238	0xbdd64bd3	-0.10463681
239	0xbbecbdbc	-0.0072247665
240	0xbcdbe250	-0.026841313
241	0x3e1d1e03	0.1534348
242	0xb9851184	-0.00025380787
243	0x3b38e8b1	0.0028214867
244	0xbba5cd34	-0.0050598625
245	0xbd207385	-0.039172668
246	0x3c02bfee	0.00798033
247	0xbc18c9f2	-0.009325491
248	0xbda1408f	-0.07873642
249	0xba3f4f8a	-0.0007297924
250	0xbe2e6245	-0.17029674
251	0xbc9faddb	-0.01949208
252	0x3e3d8e5e	0.1851134
253	0x3ad8c204	0.0016537313
254	0xbde4004f	-0.11132871
255	0xbcbe4701	-0.023227217

q.layers.0.bias f4 [400]
0	0x3f9cc55c	1.2247729
1	0xc00783fe	-2.1174312
2	0xbfb49bee	-1.4110086
3	0x3f640252	0.8906604
4	0xbf57e449	-0.8433271
5	0x3b106258	0.0022031274
6	0xbfe2c663	-1.7716793
7	0xbfd5ff75	-1.6718584
8	0xbf75dc41	-0.96039206
9	0xbb0c69f1	-0.002142545
10	0xbf4a3ba5	-0.7899726
11	0xbf26e86f	-0.65198416
12	0xbf87bed2	-1.0605109
13	0xbfcf4216	-1.6192043
14	0xbf582519	-0.84431607
15	0xbfac20f6	-1.3447559
16	0xbef0caab	-0.47029623
17	0xc007e7f0	-2.1235313
18	0xbf07f5f4	-0.5310967
19	0xbe951794	-0.2911955
20	0xbfd9b8f5	-1.700957
21	0xbe0e5804	-0.13900763
22	0xbf774394	-0.9658749
23	0xbfa634a9	-1.2984821
24	0xbd0d535f	-0.034503337
25	0xbf860647	-1.0470666
26	0x3fadace2	1.3568385
27	0xc006dce7	-2.1072328
28	0xbfb60f72	-1.4223464
29	0xbea16021	-0.31518653
30	0xbfa8448d	-1.314592
31	0xbf3c5df4	-0.7358086
32	0x3e908ef7	0.28234074
33	0x3f87e386	1.061631
34	0xbc56f238	-0.013119273
35	0xbf56e886	-0.8394855
36	0xbf79b59c	-0.9754274
37	0xbfd5cbb6	-1.6702793
38	0xbfc4fe46	-1.5390098
39	0xbfe66b02	-1.8001406
40	0xbeee87cb	-0.46587977
41	0xbf47e8e3	-0.7808973
42	0xbfaf0ca7	-1.3675736
43	0xbfc21227	-1.516179
44	0xbfe98bda	-1.8245804
45	0x3f94bf4d	1.162088
46	0x3fd79a5b	1.684398
47	0xbf9aee07	-1.210389
48	0x3fdb101b	1.711429
49	0xbfd5f62e	-1.6715753
50	0xbe6255bf	-0.22103022
51	0xbd43a6ec	-0.04776661
52	0xbf6fd642	-0.93686306
53	0xc000b4bf	-2.0110319
54	0x3f92c1b1	1.146536
55	0xbfbe8e05	-1.4887091
56	0xbeb35a4e	-0.35029835
57	0xbf8d5ce3	-1.1043972
58	0xbfd8f2bb	-1.6949075
59	0x3e8a412b	0.27002844
60	0xbfcf0cd3	-1.6175789
61	0xbf0a035c	-0.53911376
62	0xbfc31170	-1.5239697
63	0x3f2642ea	0.6494585
64	0xbffcd3c4	-1.9752126
65	0xbfafab7a	-1.3724205
66	0x3f64304f	0.89136213
67	0x3f17fc1e	0.59369075
68	0xbf926735	-1.1437746
69	0xbeec44c9	-0.4614623
70	0x3f596e07	0.84933513
71	0x3e27e51e	0.16395995
72	0xbfaa860c	-1.3322158
73	0x3f2ce813	0.6754162
74	0xbf986e30	-1.1908627
75	0xbfe0905c	-1.7544055
76	0xbe25223a	-0.16126338
77	0xbf41f7f7	-0.7576899
78	0xbf8addb2	-1.0848906
79	0xbfe25196	-1.7681148
80	0x3f34d827	0.7064232
81	0xbf9276c5	-1.1442496
82	0xbfce066a	-1.6095707
83	0xbf44b283	-0.7683489
84	0x3f889669	1.0670902
85	0xbf3a744d	-0.7283371
86	0x3fba8b37	1.4573735
87	0xbf507e62	-0.81442845
88	0xbfe22a09	-1.7669078
89	0xbffefebf	-1.9921492
90	0xbfc6cc64	-1.5531125
91	0x3fe04549	1.7521144
92	0xbfd1246c	-1.633924
93	0xbfca091c	-1.578403
94	0xbfbcbef9	-1.474578
95	0xbfcb9f3e	-1.5907972
96	0xbf8b4227	-1.0879563
97	0xbb95211a	-0.004551065
98	0xbf9e8d36	-1.2386844
99	0x3f95e8d9	1.1711684
100	0x3f74bd63	0.9560148
101	0xbfec3285	-1.8452917
102	0xbed06fa7	-0.40710184
103	0xbe86c8e8	-0.26325154
104	0xbfa75aa1	-1.3074533
105	0xbde811c8	-0.113315165
106	0x3f1974f1	0.59944063
107	0xbf64d3d5	-0.8938573
108	0xbff5041f	-1.9141883
109	0xbfa7ef76	-1.3119953
110	0x3f9fd5aa	1.248708
111	0xbfdbd301	-1.7173768
112	0xbf1cec3d	-0.6129797
113	0xbd9f812b	-0.07788309
114	0xbfc1957c	-1.5123744
115	0x3f805c2b	1.0028127
116	0x3f0334a6	0.5125221
117	0x3ecaf8cb	0.3964294
118	0x3eaf6dfd	0.34263602
119	0xbf40bb1d	-0.7528551
120	0xbfc87547	-1.566079
121	0xbcf25969	-0.02958365
122	0xbf01f764	-0.50768113
123	0xbf070175	-0.527366
124	0xbf8cbf87	-1.099595
125	0xbfabbb16	-1.3416469
126	0xbaacc52a	-0.0013181318
127	0xbf930c85	-1.1488196
128	0x3ff4d49d	1.9127384
129	0xbfce3124	-1.6108747
130	0xbec0620e	-0.3757481
131	0xbfad546b	-1.3541387
132	0x3f2b60fd	0.6694487
133	0xbfa86a05	-1.3157355
134	0x3fdcdedc	1.7255511
135	0xbfe6a3e8	-1.801877
136	0x3ee250bb	0.44202217
137	0xbf7dc2d8	-0.9912543
138	0x3df9664e	0.12177716
139	0x3f929033	1.1450256
140	0xbfab1d9e	-1.3368413
141	0xbc2aef18	-0.010432981
142	0xbebb8155	-0.3662211
143	0xbfa38618	-1.2775297
144	0x3f67d41f	0.90558046
145	0xbf3824f4	-0.71931386
146	0x3f2076e8	0.62681437
147	0xbfde8d8d	-1.7386948
148	0xbf65be0b	-0.8974311
149	0xbfded8dc	-1.740993
150	0x3fdde77a	1.7336266
151	0x3fd97099	1.6987487
152	0xbf3fd8db	-0.7494027
153	0xbf1bf18f	-0.60915464
154	0x3f5b7012	0.8571788
155	0x3e88044a	0.26565772
156	0xbfc26f0e	-1.5190141
157	0xbf87f72c	-1.0622306
158	0xbfc6d70b	-1.5534376
159	0xbf8d70d3	-1.1050056
160	0x3f8c4bf1	1.0960675
161	0xbf883657	-1.0641583
162	0xbe0101ea	-0.12598386
163	0xbf8731ce	-1.0562074
164	0xbe66f246	-0.22553357
165	0xc00019ec	-2.0015821
166	0x3c8a62dd	0.016892845
167	0x3ff8b6a6	1.943074
168	0xbfa4f312	-1.2886679
169	0xbfa6bcf4	-1.3026414
170	0xbfc528ac	-1.5403037
171	0xbfa67d01	-1.3006898
172	0xbf8582de	-1.0430562
173	0x3e40c9dc	0.18827003
174	0x3fdf01da	1.742244
175	0x3daf6b94	0.08565441
176	0x3ec8892a	0.39167148
177	0xbf348cb2	-0.70527184
178	0xbf9aa689	-1.2082072
179	0x3fd3f5c1	1.6559373
180	0xbff7d66d	-1.9362313
181	0xbfadc06c	-1.3574347
182	0xbf114996	-0.5675291
183	0xc0133644	-2.300187
184	0xbf62930c	-0.88505626
185	0xbf684216	-0.9072584
186	0xbffc3165	-1.9702574
187	0xbe4743f3	-0.19459514
188	0xbf4d5ef0	-0.8022299
189	0xbedbb36e	-0.4291033
190	0xbfc20d1e	-1.5160253
191	0xbeeff8d3	-0.46869525
192	0xbf1920c3	-0.59815615
193	0xbf54c763	-0.8311674
194	0xbf828348	-1.0196314
195	0xbfa02769	-1.2512027
196	0xbf78af2a	-0.9714228
197	0xbb996c50	-0.0046821013
198	0xbea48d70	-0.32139158
199	0xbef56b64	-0.47933495
200	0xbf2a02ea	-0.66410697
201	0xbf1e2999	-0.61782223
202	0xbfcc735c	-1.5972705
203	0xbf33c150	-0.70216846
204	0xbf4ae8c4	-0.7926142
205	0x3db5bf90	0.08874428
206	0xbf8faead	-1.1225182
207	0xbe325c01	-0.17417909
208	0x3f05af8e	0.52221
209	0x3f1f8fd0	0.62328815
210	0xbff6e623	-1.9288982
211	0x3f91af95	1.1381708
212	0x3e6b7f3c	0.22997755
213	0xbed4d683	-0.4156991
214	0xbfa83e5b	-1.3144029
215	0x3f54c291	0.83109385
216	0xbf7177d9	-0.943235
217	0xbe6b39b6	-0.22971234
218	0xbf6f2e9e	-0.9343051
219	0xbeed2f3a	-0.46325094
220	0xbf22ee21	-0.63644606
221	0x3f49625e	0.7866572
222	0xbf2ed009	-0.68286186
223	0xbc56d749	-0.013112851
224	0x3e650ea1	0.22368862
225	0x3ec6fc51	0.38864377
226	0x3e28fe9f	0.1650338
227	0xbe6c81a5	-0.2309633
228	0x3f8484d8	1.0353041
229	0xbf1b8567	-0.6075043
230	0xbf4c5834	-0.7982209
231	0xbdbc108f	-0.09182846
232	0xbf82f9c5	-1.0232474
233	0xbfcde6e1	-1.6086084
234	0xbf760b94	-0.96111417
235	0xbf80f886	-1.0075843
236	0x3f58e737	0.84727806
237	0xbfd3b35f	-1.6539115
238	0xbff49ae0	-1.9109764
239	0xbf0fefa2	-0.56225026
240	0xbfd6dd5f	-1.6786307
241	0xbf043416	-0.51641977
242	0xbee46dd4	-0.44615042
243	0xbe5f6fcb	-0.2181999
244	0xbfac3b5b	-1.3455614
245	0x3fe5db08	1.7957468
246	0x3c2d0b0e	0.010561718
247	0x3f2f3dfa	0.68453944
248	0xc0034bc7	-2.0515
249	0xbf1b11a4	-0.6057379
250	0x3e8b066e	0.27153343
251	0xbefa146b	-0.48843703
252	0xbf3ae4e6	-0.7300552
253	0xbf9f8e7c	-1.2465358
254	0xbfa374ed	-1.2770058
255	0xbfc1e9ae	-1.5149438

q.layers.1.weight f4 [300, 400]
0	0x3c7c54a8	0.015401043
1	0xbb9685bd	-0.0045935796
2	0x3d2b3ce6	0.041806124
3	0xbd557218	-0.05211076
4	0xbcfc5902	-0.030804161
5	0xbd82636f	-0.06366622
6	0xbd9942d6	-0.07483451
7	0x3c2807bc	0.01025575
8	0xbbef8078	-0.007309016
9	0xbd90e36c	-0.07074627
10	0xbccd72e3	-0.025079196
11	0xbcf38eca	-0.029731173
12	0x3c931d67	0.017958356
13	0xbd51bf5e	-0.051207893
14	0xbdae64e8	-0.0851534
15	0xbd234943	-0.03986479
16	0xbcb7eb81	-0.022451164
17	0xbc9f07c5	-0.019412884
18	0xbcb5180d	-0.022106195
19	0x3c1bcdba	0.009509498
20	0x3c64ceb3	0.013965297
21	0xbc67ed20	-0.014155656
22	0xbd58ffb5	-0.052978236
23	0x3a506ef5	0.0007951104
24	0xbd367820	-0.044548154
25	0x3cbe25b0	0.02321133
26	0xbd196209	-0.03744701
27	0x3c9e6371	0.019334527
28	0x3c1c9e47	0.009559221
29	0xbd9bd87c	-0.076096505
30	0x3d1bf6dd	0.038077224
31	0x3d23c132	0.039979167
32	0xbcc7d9be	-0.02439582
33	0xbc9b5499	-0.018961238
34	0x3cbd088e	0.023075368
35	0xbd9f467f	-0.07777118
36	0x3c895bb2	0.016767357
37	0x3c0f4f01	0.008746863
38	0x3c43ddbe	0.011954723
39	0xbd86a202	-0.06573869
40	0xbd3e5a47	-0.046472814
41	0x3c63a8c2	0.0138952155
42	0x3c51bc3b	0.012801225
43	0xbda1de17	-0.079036884
44	0xbd1b242e	-0.0378763
45	0xbd47ee1e	-0.04881107
46	0xbd1ffe23	-0.039060723
47	0xbd734159	-0.059388492
48	0x3d1a96db	0.037741523
49	0xbd5fc2a7	-0.054628994
50	0x3cd4dffc	0.02598571
51	0x3c1c486b	0.00953875
52	0xbc7ae432	-0.015313195
53	0xbdc21c94	-0.09478107
54	0x3cf0ca70	0.029393405
55	0x3ce37e64	0.027770229
56	0x3d424025	0.047424454
57	0xbd6d0c79	-0.057873223
58	0xbbdd040e	-0.006744868
59	0x3d1222bf	0.035677668
60	0xbd4e2d90	-0.05033642
61	0x3a9af327	0.0011821733
62	0x3bbf2499	0.00583322
63	0xbd9e4095	-0.07727162
64	0xbc8efa24	-0.01745326
65	0x3ca1b1c0	0.019738078
66	0xbcd4d02c	-0.02597817
67	0x3d38fb06	0.04516127
68	0x3ce1295d	0.027485544
69	0x3d2304ff	0.039799687
70	0xbc13ae97	-0.009013793
71	0x3d19e2b1	0.037569705
72	0xbdab1db6	-0.08355276
73	0xbcfe8638	-0.03106986
74	0xbd4ec999	-0.050485227
75	0xbd84f7d2	-0.064925805
76	0x3d40583b	0.046959143
77	0x3c4d7c71	0.012541876
78	0x3cc2085e	0.02368563
79	0x3a556542	0.0008140394
80	0xbdb7bbd5	-0.08971373
81	0xbd689d9c	-0.056790933
82	0xbcc0e7f8	-0.023548111
83	0x3c11e322	0.00890425
84	0xbc5989e1	-0.013277502
85	0xbcc73069	-0.024315076
86	0xbc9786f1	-0.018496962
87	0x3d12be8a	0.035826243
88	0xbd327042	-0.04356409
89	0xbd2af4b1	-0.041737262
90	0x3cb85989	0.022503631
91	0x3cf9773d	0.030452365
92	0xbc946722	-0.018115584
93	0xbd688664	-0.05676879
94	0xbd2f3921	-0.04277909
95	0xbd3655b9	-0.044515345
96	0xbc9ded6d	-0.019278252
97	0xbd8bd1ed	-0.068271495
98	0x3d07102d	0.03297441
99	0xbda1f527	-0.07908087
100	0xbc343fb1	-0.011001513
101	0xbd49f6bb	-0.049307566
102	0x3cb1db25	0.021710942
103	0x3d35ee7d	0.044416893
104	0x3cf8debd	0.030379647
105	0xb90265e8	-0.00012435729
106	0xbd0ad131	-0.033890907
107	0xbd211436	-0.039325915
108	0xbdb1c70b	-0.086805426
109	0xbb9e2af2	-0.004826897
110	0x3d23227d	0.039827812
111	0xbc5a2e02	-0.013316633
112	0xbc1797bb	-0.009252484
113	0xbd9b4fa6	-0.07583551
114	0xbcbafcdd	-0.022825653
115	0x3cdcb4c8	0.026941672
116	0xbd51fa44	-0.051264063
117	0xbd30caef	-0.043162283
118	0x3cd816b2	0.02637801
119	0x3be911e3	0.007112728
120	0xbbbf8859	-0.0058451113
121	0xbcf87059	-0.030327009
122	0xbc9ebb2f	-0.019376365
123	0xbd3084da	-0.043095447
124	0xbd8a62ad	-0.06757102
125	0xbba86267	-0.0051386836
126	0xbc2907e3	-0.010316822
127	0xbd646078	-0.055756062
128	0xbd0e84df	-0.034794684
129	0xbd8d00cf	-0.0688492
130	0xbc9c52af	-0.019082395
131	0xbd388d91	-0.045056883
132	0x3cfa8e12	0.030585323
133	0x3c8bf9bd	0.017086858
134	0xbcebeba6	-0.02879889
135	0xbd8951db	-0.06705066
136	0xbbb40969	-0.005494286
137	0xbd79ed85	-0.061017532
138	0x3bf4f911	0.00747598
139	0x3c7cc75b	0.015428389
140	0xbd62fc64	-0.05541648
141	0x3c035b18	0.008017324
142	0x3a92c99a	0.0011198998
143	0x3d23cfcb	0.03999309
144	0xbd6c33eb	-0.0576667
145	0xbc9e2081	-0.019302608
146	0x3d1d72b0	0.038439453
147	0xbd980818	-0.07423419
148	0xbb836d44	-0.004010828
149	0x3d2e5af9	0.042567227
150	0xbd60f28a	-0.054918803
151	0x3c9da7b9	0.019245015
152	0x3cd66d86	0.026175272
153	0x3d303a0b	0.043024104
154	0xbc16cd1a	-0.009204173
155	0x3bb7191c	0.00558771
156	0xbcee60ff	-0.029098986
157	0xbca57fa6	-0.02020247
158	0xbc9ad999	-0.018902587
159	0x3bdd7798	0.0067586415
160	0x3cadcee7	0.021216823
161	0x3c1abdd3	0.009444672
162	0xbd0a4dfa	-0.03376577
163	0x3cba82b5	0.022767404
164	0x3c11aa08	0.008890636
165	0xbcc505db	-0.024050644
166	0x3caaf4ad	0.020868624
167	0xbd2da141	-0.04239011
168	0xbd2ae562	-0.041722663
169	0x3d18879a	0.037238695
170	0xbd8b7259	-0.068089195
171	0x3cf0bd6a	0.029387195
172	0xbd1eae94	-0.03874071
173	0xbc410391	-0.011780635
174	0xbd08142b	-0.03322236
175	0x3c2f9ca7	0.010718501
176	0x3b8a95c1	0.004229278
177	0x3c472dbc	0.0121569
178	0x3b795f99	0.0038051365
179	0xbc661cc6	-0.014044946
180	0x3be457a8	0.0069684573
181	0xbd17a684	-0.037024036
182	0xbb9ab911	-0.0047217687
183	0xbcd849f9	-0.02640246
184	0x3b906067	0.0044060233
185	0x3d1db181	0.03849936
186	0xbd14abaa	-0.036296524
187	0xbd61bf6c	-0.055114195
188	0xbd0b07c2	-0.033942945
189	0x3d065b69	0.03280202
190	0xbbfbee99	-0.007688355
191	0x3d358c75	0.044323403
192	0x3cd37a1d	0.025815064
193	0x3d276dc2	0.040876158
194	0x3d4886d2	0.0489567
195	0xbd3da8ff	-0.046303745
196	0xbd16980c	-0.036766097
197	0xbcd43d45	-0.025908122
198	0x3ca9281a	0.020649005
199	0x3b91ae2f	0.004445813
200	0x3a097760	0.00052439235
201	0xbd02504e	-0.031814866
202	0xbd65e9c1	-0.05613113
203	0x3c8374d9	0.016046928
204	0x3ca3ee06	0.02001096
205	0xbd10a87f	-0.03531694
206	0x3cf6a535	0.030108074
207	0xbd73bc9d	-0.059506048
208	0xbca3e4fb	-0.020006647
209	0xbcf65680	-0.030070543
210	0xbc5b280c	-0.013376247
211	0xbc685144	-0.0141795315
212	0x3cbf3545	0.02334083
213	0x3c3c5be5	0.011496519
214	0x3d1f00fe	0.038819306
215	0xbc80eb17	-0.0157371
216	0x3cd193f5	0.025583247
217	0xbdb44a26	-0.08803205
218	0xbd3f1001	-0.046646122
219	0xbb2b3763	-0.0026125542
220	0xbd5271bc	-0.051377997
221	0xbd1ccc2c	-0.03828065
222	0xbcdcf8ce	-0.026974108
223	0xbce7e700	-0.028308392
224	0xbd971e3a	-0.07378812
225	0x3af29c75	0.0018509763
226	0x3cfdfcd6	0.03100435
227	0x3ced3869	0.028957563
228	0xbcdd0571	-0.026980134
229	0xbdae3f00	-0.0850811
230	0xbda26228	-0.07928878
231	0xbc8ce541	-0.01719916
232	0x3d015433	0.03157444
233	0xbd208f9a	-0.03919945
234	0xbd86ad67	-0.065760426
235	0xbcefe90b	-0.029285928
236	0xbc135e23	-0.008994612
237	0xbd828f64	-0.06375006
238	0xbd79c99e	-0.060983293
239	0x3d37aaa2	0.044840463
240	0xbd87dec3	-0.06634285
241	0xbcf262f1	-0.029588195
242	0xbce2a8aa	-0.027668316
243	0xbd3f8828	-0.046760708
244	0xbcfdf99e	-0.031002816
245	0xbcc026b6	-0.023455959
246	0xbcf601d8	-0.030030176
247	0xbbd3e034	-0.006465936
248	0xbd133263	-0.035936724
249	0xbd587d60	-0.052853942
250	0x3cf9a57e	0.03047442
251	0x3d1aebf1	0.037822668
252	0x3cef6c1b	0.029226353
253	0xbc9e58dd	-0.019329483
254	0x3cb80f52	0.022468243
255	0xbd32de85	-0.043669242

q.layers.1.bias f4 [300]
0	0xbcf8a8ce	-0.03035393
1	0xbd0fa2c1	-0.035067324
2	0xbd46b4df	-0.048512336
3	0xbc72a605	-0.01481009
4	0x3f4dea7d	0.80435926
5	0x00000000	0.0
6	0xbd375302	-0.044756897
7	0xbd207a4e	-0.03917914
8	0xbe13b349	-0.1442386
9	0xbd12b6a8	-0.035818726
10	0x3df6e4f0	0.12055385
11	0x3d00dd48	0.03146103
12	0x3f3c3e83	0.73532885
13	0x3eed15f0	0.463058
14	0xbbfc1afd	-0.007693647
15	0xbc4345db	-0.01191851
16	0x3f1b67df	0.6070537
17	0xbd1ca181	-0.03823996
18	0x3f3f0b3d	0.74626523
19	0x3f0d0f22	0.55101216
20	0xbd17bd51	-0.03704578
21	0xbcfe7bd5	-0.031064907
22	0xbd020223	-0.03174032
23	0xbcfa316b	-0.030541142
24	0xbd1708b3	-0.03687353
25	0xbba43504	-0.005011203
26	0xbb35d024	-0.002774247
27	0x3eea27af	0.457334
28	0xbc086e78	-0.008327119
29	0xbcf1ca3f	-0.029515384
30	0x3f0b275e	0.54356945
31	0x3f22d5d7	0.63607544
32	0xbd0369b4	-0.03208323
33	0xbd2c4577	-0.042058434
34	0xbd4f215e	-0.05056893
35	0xb9e1c8e1	-0.0004306501
36	0x3c3333a9	0.01093761
37	0x3f43996c	0.7640598
38	0xbd0a03e9	-0.033695135
39	0xbc5ddea4	-0.013541851
40	0x3cb923e6	0.022600126
41	0xbe955222	-0.29164225
42	0xbd149c37	-0.03628179
43	0x3a55d083	0.0008156376
44	0xbcff4221	-0.031159462
45	0xbd7c77b9	-0.061637614
46	0xbcd35fca	-0.025802512
47	0x3f03aa40	0.51431656
48	0x3f3e858b	0.7442252
49	0xbe5ef2f7	-0.21772371
50	0xbbc4c9b5	-0.0060054907
51	0xbc74eedb	-0.014949526
52	0xbd3c0bce	-0.045909695
53	0xbc6bb639	-0.014386707
54	0x3b0848ae	0.0020795274
55	0x3f1b0025	0.60547096
56	0x3ed67268	0.4188416
57	0xbdfdaec5	-0.1238685
58	0xbc605b94	-0.013693709
59	0xbd41af70	-0.04728645
60	0x3f2888a0	0.65833473
61	0xbe51efa6	-0.20501575
62	0x3f3bfbe6	0.7343124
63	0xbb51dc46	-0.0032022162
64	0x3f3eda34	0.745517
65	0xbd326fab	-0.043563526
66	0x3f3ed6f5	0.7454675
67	0xbd2d4878	-0.04230544
68	0xbdab61c7	-0.08368259
69	0xbd37164f	-0.04469901
70	0xbca78b71	-0.020452233
71	0xbd158f3d	-0.036513556
72	0xbceaa2ee	-0.028642144
73	0xbd1a77dd	-0.037711967
74	0xbd216cf0	-0.03941053
75	0x3f49d6b5	0.7884324
76	0xbbf639d9	-0.00751422
77	0xbbc93cd8	-0.0061412863
78	0xbcacb0dc	-0.021080427
79	0xbcf77ee7	-0.030211879
80	0xbcfb134b	-0.030648848
81	0xbce57834	-0.028011419
82	0x3f480e17	0.781465
83	0xbd01e8aa	-0.031716026
84	0x3f3b8845	0.73254806
85	0xbe84bbd0	-0.2592454
86	0x3dd69520	0.10477662
87	0xbd73f66a	-0.05956117
88	0xbdf8341b	-0.12119313
89	0x3f4e14f7	0.8050074
90	0x3f38ca85	0.7218402
91	0xbcbd6515	-0.023119489
92	0xbd01f91f	-0.03173172
93	0xbd45c4ef	-0.048283514
94	0xbe55bbc5	-0.2087241
95	0xbbaf91ac	-0.0053579416
96	0x3ee9e4de	0.45682424
97	0xbcdbad3a	-0.026816
98	0xbe953737	-0.29143688
99	0xbbc4b2fb	-0.0060027814
100	0xbcc1ac6a	-0.023641784
101	0x3f37b1f4	0.7175591
102	0xbbafa7e1	-0.005360589
103	0xbd1b555f	-0.037923213
104	0xbbcd58f4	-0.0062667076
105	0xbb9d852b	-0.0048071346
106	0x3f05e7ec	0.5230701
107	0x3b05a18b	0.0020390477
108	0xbd1a1ab1	-0.03762311
109	0xbb9ea189	-0.004841034
110	0xbba31351	-0.004976668
111	0xbce5040a	-0.027956028
112	0x3f3afe73	0.7304451
113	0xbbab4cea	-0.0052276747
114	0x3f26a057	0.6508841
115	0xbb99a6b8	-0.004689064
116	0xbc969568	-0.01838179
117	0xbca2fc18	-0.019895598
118	0xbb8a8c44	-0.0042281467
119	0xbae3fa76	-0.0017393369
120	0xbce5779c	-0.028011136
121	0x3e9eecd9	0.31040075
122	0xbd9f7ac0	-0.077870846
123	0x3f32ab6b	0.69792813
124	0xbc849da6	-0.016188454
125	0xb9d643c5	-0.00040867753
126	0xbd2b5bb4	-0.0418355
127	0xbe4889b3	-0.19583778
128	0xbcd997f0	-0.026561707
129	0xbd0b0c12	-0.033947058
130	0xbd83fa0f	-0.06444179
131	0x3ef11be5	0.47091594
132	0xbba401eb	-0.0050051115
133	0x00000000	0.0
134	0xbe5b8255	-0.21436436
135	0xbc2a9313	-0.010411042
136	0x3f2fa7f5	0.6861566
137	0x3ebb9967	0.36640474
138	0xbc7bfb37	-0.0153797185
139	0xbd812820	-0.06306481
140	0xbd785927	-0.060631897
141	0xbbc62917	-0.0060473788
142	0xbd85e0ee	-0.065370426
143	0x3f6d3539	0.92659336
144	0xbc063856	-0.0081921425
145	0xbccf7884	-0.025326021
146	0xbbb3df74	-0.005489284
147	0xbc34a849	-0.01102645
148	0xbbc4c9ca	-0.0060055004
149	0xbb0e9422	-0.0021755775
150	0xbbcceae9	-0.0062535894
151	0x3f11d7f8	0.5697017
152	0xbd1a6fea	-0.037704386
153	0xbcc7e4e7	-0.024401141
154	0xbc980094	-0.018554963
155	0x39091ef6	0.00013076872
156	0xbd147530	-0.03624457
157	0xbbc4c915	-0.006005416
158	0xbbc4c2fb	-0.006004689
159	0xbdb6e75e	-0.089308485
160	0xbd1857eb	-0.03719322
161	0x3b1d4a5f	0.0024000627
162	0xbc7e21c9	-0.015510985
163	0xbc841fbb	-0.016128412
164	0xbb77df22	-0.0037822207
165	0xbbb669b7	-0.0055668014
166	0xbd163f0c	-0.03668122
167	0xbc812b96	-0.015767854
168	0xbd6af04f	-0.057358082
169	0x3f123308	0.5710912
170	0x00000000	0.0
171	0x3c3f5df6	0.011680117
172	0xbbb6b673	-0.005575949
173	0xbcd4ee15	-0.025992433
174	0x3f32062a	0.69540656
175	0x3ed3d28c	0.41371572
176	0xbc14bba5	-0.009077941
177	0xbd49f06a	-0.049301542
178	0xbd274350	-0.04083568
179	0xbc92528c	-0.017861627
180	0x3ed26d4e	0.41099018
181	0x3edd16cb	0.43181452
182	0x3f12883e	0.5723914
183	0xbc95b1db	-0.018273285
184	0xbce330bc	-0.0277332
185	0xbd91473d	-0.07093666
186	0x3f0e019a	0.55471194
187	0xbc59b359	-0.013287389
188	0xbd20d347	-0.03926399
189	0xbbb0f9cb	-0.0054008714
190	0xbd1406ed	-0.036139417
191	0xbb81e112	-0.003963598
192	0xbcac41cf	-0.021027474
193	0x3ebd4aa3	0.36971006
194	0xbe1e2302	-0.15443042
195	0xbbb6cd71	-0.0055786897
196	0xbbeaa4cb	-0.007160758
197	0x3f02bd2c	0.51069903
198	0xbd203785	-0.039115448
199	0x3c35826a	0.011078456
200	0x3f128243	0.57230014
201	0xbddc2295	-0.107487835
202	0xbcf53c17	-0.02993588
203	0xbbf597b5	-0.0074948915
204	0xbd19c944	-0.037545457
205	0xbcefd627	-0.02927692
206	0xbd35fa1f	-0.044427987
207	0xbd8551c2	-0.06509735
208	0xbb8e96df	-0.0043514813
209	0xbba4f548	-0.0050341226
210	0x3f92a7cd	1.1457459
211	0xbbf5d162	-0.007501767
212	0xbd89cf68	-0.06729013
213	0x3f1c61b6	0.61086595
214	0xbc29a7c1	-0.010354937
215	0x3f26e43e	0.6519202
216	0xbbc4c9b9	-0.0060054925
217	0xbd2a50cf	-0.04158097
218	0xbd06c9ca	-0.032907285
219	0x3f2e50ed	0.6809223
220	0x3f80a25c	1.0049548
221	0xbc5f0ebb	-0.013614352
222	0xbbac6ffb	-0.0052623725
223	0xbb52d1e9	-0.0032168573
224	0x3f8038cf	1.0017337
225	0x3f536f6a	0.8259188
226	0xbd062e1d	-0.03275882
227	0xbd667400	-0.05626297
228	0x3c4bd9d3	0.01244207
229	0x3ef65bdb	0.48116955
230	0xbd174b62	-0.036937125
231	0xbd55c941	-0.052193884
232	0xbd422b89	-0.0474048
233	0xbcf8830d	-0.030335927
234	0xbcdbbbfb	-0.026823035
235	0x3f18f287	0.5974507
236	0xbc89eb91	-0.01683596
237	0xbc6ef4f5	-0.0145847695
238	0xbcec5d68	-0.028853133
239	0xbcf6ae73	-0.03011248
240	0x3f2bba7b	0.6708142
241	0xbc6d4d55	-0.014483769
242	0xbcff86c4	-0.031192191
243	0xbd38f7e8	-0.045158297
244	0xbc41a5d7	-0.011819324
245	0x00000000	0.0
246	0xbd0fdcae	-0.035122566
247	0x3ce7ee68	0.028311923
248	0xbc7c5e7b	-0.015403385
249	0xbd23578a	-0.039878406
250	0xbc877f1a	-0.016540099
251	0x3f154134	0.5830262
252	0xbce9d0e2	-0.028541986
253	0xbe0a5659	-0.13509502
254	0xbb4d55a0	-0.0031331554
255	0xbd282a52	-0.041055985

q.layers.2.weight f4 [4, 300]
0	0xbc77c2a6	-0.015122091
1	0x3c6f7bb6	0.014616897
2	0x3c228950	0.009920433
3	0x3aefc79c	0.0018293741
4	0x3d830c06	0.06398778
5	0xbcad81b2	-0.021180008
6	0x3b94b7f6	0.0045385314
7	0x3cf91dd1	0.030409725
8	0xbd00c752	-0.031440087
9	0x3c3348b3	0.010942626
10	0xbd41d653	-0.047323536
11	0xbc9c2e88	-0.019065157
12	0xbec263c9	-0.37966755
13	0x3f2ab65e	0.6668452
14	0x3bb08dd0	0.005387999
15	0x3b3cb1f0	0.0028792582
16	0x3f5d7b70	0.86516476
17	0xbd138dc9	-0.03602389
18	0x3e5058c0	0.20346355
19	0x3d1ddfc5	0.03854348
20	0x3b980314	0.004639039
21	0xbd4e58c5	-0.050377626
22	0x3c0194c8	0.007909007
23	0x3c19c57d	0.009385464
24	0xbc1d580c	-0.009603512
25	0x3c0e0733	0.008668709
26	0xbae53569	-0.0017487231
27	0xbec7595f	-0.38935372
28	0x3d26f9bc	0.04076551
29	0x3ca408e2	0.020023767
30	0x3f4401ca	0.7656523
31	0x3dd34e81	0.10317708
32	0x3bf8354b	0.0075747124
33	0xbc28eca3	-0.010310325
34	0x3c349962	0.011022897
35	0x3d099251	0.033586804
36	0xbb94a6fe	-0.0045365086
37	0xbc2be6b3	-0.010492015
38	0xbc935817	-0.01798634
39	0xbbcc9734	-0.0062436108
40	0x3c88868f	0.016665725
41	0xbc5baa9d	-0.013407377
42	0x3d2fbc79	0.04290435
43	0x3d0dad5f	0.034589168
44	0x3b53ddee	0.0032328325
45	0x3cb91737	0.022594078
46	0x3c3fa757	0.011697612
47	0xbd8334f4	-0.064065844
48	0x3dca92c1	0.09891272
49	0xbca57de8	-0.020201638
50	0xbc8a7ad4	-0.016904272
51	0x3acaa634	0.0015460909
52	0xbba145bf	-0.0049216445
53	0x3d429dd4	0.047513798
54	0xbd2d8faf	-0.042373355
55	0x3eae3438	0.34024215
56	0x3ccffd3d	0.025389308
57	0xbbcb3ed8	-0.00620256
58	0x3bc568a2	0.006024436
59	0xb9e50f9e	-0.0004368992
60	0x3e34471a	0.17605248
61	0xbaf82e6a	-0.0018934731
62	0xbc87c1de	-0.016571935
63	0x3a7642b2	0.00093940936
64	0x3f4344b4	0.7627671
65	0x3b95be0d	0.004569775
66	0x3e0db28b	0.1383764
67	0xbc910958	-0.01770465
68	0xbd10e679	-0.035376046
69	0xbc9faed0	-0.019492537
70	0x3b3710fb	0.0027933705
71	0xbd596701	-0.053076748
72	0x3cd89b97	0.026441379
73	0xbd352a02	-0.044229515
74	0xbd9ebc66	-0.07750778
75	0xbea30a40	-0.31843758
76	0xbbec4f48	-0.0072115995
77	0x3c855156	0.016274136
78	0xba839466	-0.0010038733
79	0xbc4daa72	-0.012552844
80	0xbc4b89ea	-0.012423018
81	0x3c999fee	0.018753018
82	0x3ea2b838	0.31781173
83	0xbbc4c253	-0.0060046106
84	0xbeaec5d3	-0.34135303
85	0xbb2f2355	-0.002672394
86	0xbd3bc98f	-0.045846518
87	0x3c9218e4	0.017834134
88	0x3c571dcf	0.0131296655
89	0x3e878cda	0.2647465
90	0xbe1a83b6	-0.15089306
91	0x3cb6868d	0.022280956
92	0x3b0e1399	0.0021679162
93	0x3d14d1ae	0.03633278
94	0xbd032f06	-0.032027267
95	0x3c1253e7	0.008931137
96	0x3f4c4a84	0.798012
97	0x3d0a3b07	0.0337477
98	0x3d2e1c1b	0.042507272
99	0xbd5b25a2	-0.053502686
100	0x3d0ff539	0.035145972
101	0x3c47f3a8	0.012204088
102	0x3c26d52d	0.010182661
103	0xbd378dbb	-0.0448129
104	0xbd19004c	-0.0373538
105	0x3bed02fa	0.007233021
106	0xbefab5c3	-0.48966798
107	0xbd0ba18e	-0.034089617
108	0x3ccbc8d7	0.024876041
109	0x3cb35e23	0.021895474
110	0xbd2d9330	-0.042376697
111	0x3c23b7ff	0.009992599
112	0x3f153ece	0.5829896
113	0x3cb6398c	0.022244237
114	0x3ed7220d	0.42018166
115	0x3d1d8b35	0.038462836
116	0xbc3e34e5	-0.011609291
117	0x3c5be9b9	0.013422423
118	0x3d4c6d64	0.04990901
119	0x3d333b5c	0.04375778
120	0xbcd44dec	-0.025916062
121	0x3f296be0	0.6618023
122	0x3cefd236	0.029275041
123	0x3ceb1785	0.028697738
124	0xbca1ea00	-0.0197649
125	0x3cfcbbb9	0.030851232
126	0xbdaa7d40	-0.08324671
127	0x3c3b3431	0.011426018
128	0x3c5c3ef0	0.01344274
129	0xbb12c265	-0.00223937
130	0x3b7e7476	0.003882674
131	0xbcc0bf21	-0.023528637
132	0x3d6565f1	0.056005422
133	0xbd6594c0	-0.056050062
134	0xbcf7f0b1	-0.030266138
135	0xbd09d8b0	-0.033653915
136	0x3e027f5a	0.12743893
137	0xbf8ed800	-1.1159668
138	0xbc8254db	-0.015909603
139	0x3d0da6b8	0.034582824
140	0xbc1cfbd6	-0.009581527
141	0xbc9be10c	-0.01902821
142	0x3c763b26	0.0150287505
143	0x3dfe4329	0.124151535
144	0x3d0761ae	0.03305214
145	0xbd4fa293	-0.050692152
146	0xbcc90d24	-0.024542399
147	0x3c261b56	0.010138353
148	0xbd0d79d6	-0.03454002
149	0x3cada317	0.021195931
150	0x3c809805	0.015697489
151	0x3db2075e	0.086928114
152	0xbbb07a37	-0.005385663
153	0xbbd4f431	-0.0064988364
154	0xbc892e00	-0.016745567
155	0x3c3abde8	0.011397816
156	0x3d1ba692	0.03800065
157	0x3d32010e	0.043458037
158	0x3c762253	0.015022832
159	0xbca0029e	-0.019532498
160	0xbc7779f6	-0.015104761
161	0xbcd54531	-0.02603397
162	0x3d146ea2	0.03623832
163	0xb9807f37	-0.00024508845
164	0xbca49c2f	-0.020094005
165	0xbd18e312	-0.037325926
166	0xbd0f4780	-0.034980297
167	0xbd773a42	-0.060358293
168	0xbb4e5f81	-0.003149003
169	0xbe4d4651	-0.20046355
170	0x3d6bd4da	0.057576038
171	0x3c1ac9bf	0.009447514
172	0xbc16db95	-0.009207626
173	0x3d306bb9	0.043071482
174	0xbdcd14c1	-0.10013724
175	0xbdea5291	-0.114415295
176	0x3cb83f60	0.022491157
177	0x3c22c6be	0.009935079
178	0x3caf23e1	0.021379413
179	0x3bece26b	0.0072291396
180	0x3c8f650d	0.01750424
181	0x3f2e74ce	0.6814698
182	0xbd2daf44	-0.042403474
183	0x3d3e3e26	0.046445988
184	0xbc68beb5	-0.014205624
185	0x3d90f923	0.07078769
186	0x3d1b6d86	0.037946247
187	0x3cd54116	0.026032012
188	0xbd2782bd	-0.040896166
189	0xbabd0532	-0.0014421104
190	0x3c288073	0.010284531
191	0xbd1e62c2	-0.0386684
192	0x3cb57af0	0.022153348
193	0x3c1ac3c2	0.009446086
194	0xbd1c46c0	-0.03815341
195	0x3d0a418e	0.033753924
196	0x3cc85e32	0.024458978
197	0x3dc86f06	0.09786801
198	0x3aacdd8c	0.0013188585
199	0x3d1c48b6	0.03815528
200	0xbe608905	-0.21927269
201	0xbc518dd7	-0.012790165
202	0xbd37cdfc	-0.044874176
203	0x3aa32a20	0.0012448467
204	0xbc031e04	-0.008002762
205	0xbc7dc395	-0.015488525
206	0xbc8479e3	-0.016171401
207	0xbc81db2c	-0.01585158
208	0x3d3d2f82	0.046187885
209	0x3ce09066	0.027412605
210	0x3e4016cd	0.18758698
211	0xbcc15f59	-0.023605036
212	0xbc1f4ed7	-0.009723387
213	0x3ee9939e	0.45620435
214	0x3d37c1a2	0.044862397
215	0x3debbb96	0.115103886
216	0x3c99cc68	0.018774226
217	0x3d8cec25	0.068809785
218	0x3d5e9ec2	0.054350622
219	0x3f043165	0.5163787
220	0x3e2dead0	0.16984105
221	0x3c470d6b	0.012149195
222	0x3cadf6de	0.02123588
223	0xbcdc1e87	-0.026870025
224	0x3e05f410	0.13081384
225	0xbd93142f	-0.07181584
226	0xbc6c0567	-0.014405585
227	0xbb869844	-0.004107507
228	0xbc84485c	-0.016147785
229	0xbf34566c	-0.7044437
230	0xbc58c02b	-0.01322941
231	0xba5d55e1	-0.0008443278
232	0x3d88494c	0.06654605
233	0x3c9baac0	0.019002318
234	0x3bcc4c4e	0.006234682
235	0xbf3128d0	-0.692029
236	0xbd25cfc4	-0.040481344
237	0xbd4cfea2	-0.050047524
238	0x3cac915d	0.021065408
239	0x3b552ddb	0.0032528553
240	0x3ddc5bac	0.107596725
241	0x3b9177ee	0.0044393456
242	0x3d1f0f95	0.03883322
243	0x3d9676e5	0.07346896
244	0x3b885014	0.0041599367
245	0x3d0708b8	0.0329673
246	0xbcf764f5	-0.030199507
247	0xbca68453	-0.020326769
248	0x3ca3730b	0.019952318
249	0xbaa3dca3	-0.0012501668
250	0xbd6834fa	-0.056691147
251	0xbeaeee44	-0.34166157
252	0x3cfce693	0.030871665
253	0xbb956648	-0.004559312
254	0x3cff1dfc	0.031142227
255	0xbbfcb6fd	-0.0077122436

q.layers.2.bias f4 [4]
0	0x3f26aa19	0.651033
1	0x3f1ceb89	0.612969
2	0x3f28ddca	0.65963423
3	0x3f841453	1.0318702
