pyt_save/model_working_4moves.pt (torch_old, 491957 bytes, 6 tensors)

q.layers.0.weight f4 [400, 2]
0.00045332118 0.025540834 -0.039093748 -0.03907789 -0.06263538 0.072020344 -0.037642136 0.042381883
-0.042668812 0.031756416 -0.080369346 0.023663633 -0.027170943 -0.034560017 -0.06595731 -0.022384234
0.0771606 0.13234024 -0.004494146 0.0024651554 -0.014201725 0.05839552 -0.012737728 0.05117166
-0.020997053 0.04484346 0.13045421 0.0087882625 -0.07574415 0.014776632 -0.00014405831 0.19554466
-0.045873467 0.08374986 -0.034818117 -0.04129079 0.0013577803 0.07824341 0.026975948 0.010272651
0.0010698204 -0.04192447 -0.006593936 -0.0012651935 -0.05465127 -0.0058839037 0.042919457 0.03025212
-0.0004797222 0.003567686 5.927552e-06 0.14295204 0.07163545 0.010890077 0.051822428 -0.03525582
0.021480465 -0.0270816 -0.021227535 0.0010879511 0.07257988 0.044555146 -0.11193476 -0.023727477
-0.011447701 0.02183291 0.0004939391 0.02149921 0.0036383914 0.56196725 -0.039867997 -0.0071075438
0.017432595 0.14826623 0.085924245 0.06886206 0.037849087 -0.02639099 -0.002053599 -0.043826155
-0.00023905297 0.073966086 -0.0033906752 -0.0192373 0.02888969 -0.024049737 -0.024294237 -0.02907555
0.04673145 -0.030521229 0.0019963486 0.025731223 0.035648607 0.028416006 -0.07491573 -0.006872206
0.10960936 -0.027777111 -0.14229356 0.0032888548 0.0003115053 0.053976253 -0.13368788 -0.007864467
-0.15982418 -0.0059579164 -0.0034292245 -0.04815751 0.010577118 0.022670342 -0.05276065 0.09404378
0.0005286384 0.062117636 -0.00038543312 -0.025961936 -0.03167709 -0.031609282 -0.020988537 0.042171046
0.07987334 -0.01620847 0.017097672 0.03956882 -0.11418732 0.038618762 -0.00091075536 0.0003283245
-0.0008299751 -0.046332162 -0.048571233 0.09648123 0.0021242348 0.026620533 -0.00049186987 0.0013906619
0.08382948 0.0062753703 -0.0006879505 0.05086297 0.12607774 0.03351674 0.28581807 -0.0027140563
-0.18445149 0.009050697 0.028059747 0.038557556 -0.09885207 0.000505594 -0.015242174 -0.03752237
-0.0033370652 0.014700695 -0.005207652 -0.017994449 0.0043083145 -0.022342313 -0.03182441 -0.032145455
-0.0020961913 0.0016175802 -0.07546672 0.01305971 -0.027554087 -0.03076594 -0.00568887 0.08362631
-0.06634818 0.0005216346 0.07282293 0.006414777 0.3250982 0.014603001 0.0065040803 0.098680325
-0.03623295 -0.03264602 0.042191748 -0.035428457 0.11897375 0.030895917 0.09687112 0.012216396
0.033344883 -0.029641641 -0.025337063 -0.030821636 -0.33647802 0.04055794 0.13302371 0.0870148
-0.09838906 0.009742726 -0.046833057 0.056723416 -0.031235069 0.1024052 -0.075075276 -0.0058491384
-0.17610899 0.035437 -0.03100463 -0.03600159 -0.00045349015 0.077488795 0.0010281204 0.04769787
0.11101359 0.0023337728 0.02610956 0.032893535 5.9602284e-05 0.0031819525 0.021382036 0.0077328873
-0.030429283 -0.037969995 0.09145865 -0.005216946 -0.0038234799 0.045124166 0.041871406 -0.029524636
-0.30186838 -0.0187182 -0.0036480094 0.010715287 -0.024051068 -0.029842548 -0.007668996 0.03371924
0.012308913 0.035374235 -9.801712e-06 0.011843288 -0.00010610786 0.0015924735 -0.06291765 0.007803124
-0.026841313 0.1534348 -0.00025380787 0.0028214867 0.008355599 -0.010143408 0.00798033 -0.009325491
-0.07873642 -0.0007297924 -0.021944946 -0.031473108 8.4480074e-05 0.0175526 -0.09349762 0.0045265113
00000000: bdab ed39 033b d13c c420 20bd 2310 20bd
00000010: fa46 80bd 677f 933d a42e 1abd a098 2d3d
00000020: 7ec5 2ebd 0413 023d af98 a4bd 3cda c13c
00000030: 9995 debc ce8e 0dbd a014 87bd 245f b7bc
00000040: 6006 9e3d 3384 073e a143 93bb 728e 213b
00000050: 5aae 68bc 2430 6f3d e7b1 50bc 6099 513d
00000060: 0302 acbc c7ad 373d ca95 053e a5fc 0f3c
00000070: c01f 9bbd b019 723c 5c0e 17b9 dc3c 483e
00000080: d1e5 3bbd 0c85 ab3d 719d 0ebd 8820 29bd
00000090: 8cf7 b13a 153e a03d aafc dc3c 9f4e 283c
000000a0: 3739 8c3a feb8 2bbd f211 d8bb d9d4 a5ba
000000b0: 03da 5fbd c3cd c0bb 50cc 2f3d 4bd3 f73c
000000c0: 3983 fbb9 d7cf 693b 49e5 c636 0562 123e
000000d0: 9bb5 923d 4b6c 323c c143 543d 6868 10bd
000000e0: cdf7 af3c 3bda ddbc 5ee5 adbc 9599 8e3a
000000f0: c3a4 943d 757f 363d 0d3e e5bd 2060 c2bc
00000100: 238f 3bbc eeda b23c b17b 013a 1c1f b03c
00000110: 1472 6e3b 16dd 0f3f a04c 23bd 66e6 e8bb
00000120: cdce 8e3c 1ad3 173e 0df9 af3d 8d07 8d3d
00000130: a507 1b3d eb31 d8bc ad95 06bb 0e83 33bd
00000140: 4baa 7ab9 887b 973d 1736 5ebb 8b97 9dbc
00000150: 12aa ec3c f403 c5bc b504 c7bc d92f eebc
00000160: 7a69 3f3d a807 fabc 2cd5 023b 49ca d23c
00000170: 4604 123d afc8 e83c 6b6d 99bd 3e30 e1bb
00000180: df7a e03d d38c e3bc 67b5 11be d489 573b
00000190: 8951 a339 3416 5d3d 7ae5 08be f7d9 00bc
000001a0: f3a8 23be a03a c3bb d7bc 60bb cf40 45bd
000001b0: a64b 2d3c 27b7 b93c 8d1b 58bd 069a c03d
000001c0: 5394 0a3a 106f 7e3d f513 cab9 20ae d4bc
000001d0: d6bf 01bd bc78 01bd 27f0 abbc 8cbb 2c3d
000001e0: a294 a33d a0c7 84bc 6b10 8c3c ea12 223d
000001f0: 0bdb e9bd b52e 1e3d c2bf 6eba f822 ac39
00000200: b092 59ba cbc6 3dbd a1f2 46bd f397 c53d
00000210: bf36 0b3b 4e13 da3c d4f0 00ba df46 b63a
00000220: caae ab3d 9fa1 cd3b 9457 34ba b155 503d
00000230: 861a 013e d948 093d bf56 923e 4fde 31bb
00000240: dae0 3cbe 6049 143c 8edd e53c 87ee 1d3d
00000250: f472 cabd d789 043a 50ba 79bc 0fb1 19bd
00000260: aab2 5abb 2fdb 703c f4a4 aabb 1869 93bc
00000270: c32c 8d3b 3a07 b7bc 505a 02bd f4aa 03bd
00000280: 4160 09bb fc04 d43a 4c8e 9abd 65f8 553c
00000290: 1cb9 e1bc da08 fcbc b369 babb 4544 ab3d
000002a0: 8ee1 87bd 4ebe 083a 3024 953d 0d33 d23b
000002b0: 4573 a63e 6d41 6f3c 2e20 d53b e918 ca3d
000002c0: 0069 14bd d5b7 05bd 41d1 2c3d 6e1d 11bd
000002d0: 82a8 f33d 6f19 fd3c 5e64 c63d 4727 483c
000002e0: a594 083d 07d3 f2bc ac8f cfbc a87d fcbc
000002f0: d946 acbe 1520 263d 5e37 083e d134 b23d
00000300: 3480 c9bd f49f 1f3c 05d4 3fbd d056 683d
00000310: b0e0 ffbc d1b9 d13d 11c1 99bd 21aa bfbb
00000320: ea55 34be 6326 113d 6cfd fdbc 6776 13bd
00000330: 6bc2 edb9 72b2 9e3d ffc1 863a d75e 433d
00000340: 185b e33d 36f2 183b b7e3 d53c 5fbb 063d
00000350: 77fd 7938 4e88 503b 6129 af3c 2964 fd3b
00000360: d546 f9bc 6d86 1bbd ac4e bb3d eaf2 aabb
00000370: 5993 7abb 1ed4 383d 5a81 2b3d a6dd f1bc
00000380: 7e8e 9abe e956 99bc 7113 6fbb 2c8f 2f3c
00000390: bf06 c5bc 5c78 f4bc 344c fbbb 301d 0a3d
000003a0: 53ab 493c 93e4 103d 0872 24b7 5a0a 423c
000003b0: 3986 deb8 8bba d03a f8da 80bd 59b1 ff3b
000003c0: 50e2 dbbc 031e 1d3e 8411 85b9 b1e8 383b
000003d0: ece5 083c 8930 26bc eebf 023c f2c9 18bc
000003e0: 8f40 a1bd 8a4f 3fba e3c5 b3bc f2e9 00bd
000003f0: e52a b138 78ca 8f3c ae7b bfbd 2153 943b

q.layers.0.bias f4 [400]
1.0839977 -2.2203145 -1.4110086 0.922001 -0.8433271 0.42105 -1.8423421 -1.8301363
-1.1667705 -0.075871885 -0.8212062 -0.67486954 -1.0605109 -1.8047819 -1.0890172 -1.5846213
-0.9373729 -2.2067764 -0.6511469 -0.44100976 -1.8184139 -0.13900763 -0.9658749 -1.2984821
-0.034503337 -1.1620429 1.3426586 -2.1984766 -1.4275669 -0.31518653 -1.314592 -0.906588
0.7963454 0.89999694 0.022703232 -0.8394855 -1.4596682 -1.6702793 -1.6053134 -1.9153953
-0.6055242 -0.8717881 -1.4022678 -1.594643 -1.9109684 1.1322197 1.6467274 -1.331781
1.7080431 -1.9343451 -0.45339838 -0.22524692 -1.16588 -2.1235833 1.0925918 -1.4887091
-0.5095303 -1.1800014 -1.7588817 0.57408947 -1.7377899 -0.6720785 -1.8658922 -0.05851224
-2.0827224 -1.3724205 0.562096 -0.022211703 -1.1437746 -0.52240217 0.89733493 0.009249965
-1.5472828 0.55885094 -1.3162557 -1.8815087 -0.16126338 -0.85586995 -1.0878807 -1.8581165
-0.04593969 -1.1682212 -1.6822008 -0.7683489 0.74206495 -1.0019268 1.2296038 -0.8819506
-1.8596469 -2.0730622 -1.802345 1.7385539 -1.6888139 -1.6392403 -1.3300023 -1.8316197
-1.37085 0.78970104 -1.2386844 0.8575205 0.7969069 -1.9278566 -0.64074564 -0.40341535
-1.4718808 -0.34375528 -0.03089969 -0.8938573 -2.0086298 -1.4502572 1.1450729 -1.7884077
-0.5835548 -0.14125964 -1.5765508 0.96895754 0.6019659 0.036901705 -0.014990619 -0.8875049
-1.566079 -0.02958365 -0.5373419 -0.527366 -1.099595 -1.6380678 -0.14215654 -1.2897735
1.8197528 -1.9416361 -0.38115287 -1.3541387 -0.0105869705 -1.3157355 1.5577456 -1.8657391
0.42234457 -1.2243562 -0.004015598 1.0159011 -1.3368413 -0.011710572 -0.43812233 -1.2775297
0.7265269 -0.9020162 0.5864262 -1.8334234 -0.8974311 -1.8236451 1.7222917 1.7012445
-1.2819953 -0.60915464 0.4585148 -0.1369406 -1.5688838 -1.1411674 -1.8459674 -1.162477
1.0456473 -1.4385397 -0.46240613 -1.3859155 -0.22553357 -2.0856214 -0.15879805 1.9465991
-1.4326721 -1.341302 -1.6034423 -1.3006898 -1.4802504 0.47532162 1.6906618 -0.09850218
0.53069574 -0.70527184 -1.514686 1.6336261 -2.0194824 -1.7051287 -0.86968815 -2.3816812
-0.91876423 -0.9440401 -2.0676885 -0.19459514 -1.0793258 -0.8376157 -1.9112145 -0.85793614
-0.59815615 -0.8311674 -1.0196314 -1.2546995 -1.0888729 -0.03664396 -0.32139158 -0.70985866
-1.0015651 -0.9319973 -1.6484597 -0.8514053 -0.7926142 -0.013948773 -1.5394658 -0.17417909
-0.012649706 0.70968467 -2.016646 0.9586002 -0.07703604 -0.4156991 -1.3144029 0.7083305
-1.4234989 -0.22971234 -1.6158643 -0.46325094 -1.0491437 0.8068426 -0.8691289 0.3449225
-0.025262194 0.5352439 0.3224362 -0.4599109 0.86452734 -0.80849713 -0.8396506 -0.09182846
-1.0232474 -1.6621687 -1.3114982 -1.2289664 0.612761 -1.7892073 -1.939033 -0.7203903
-1.7780564 -0.8028524 -0.44615042 -0.30408725 -1.3837547 1.7920887 -0.207496 0.71710527
-2.1442816 -0.7897722 -0.052269973 -0.7054228 -0.84263355 -1.2465358 -1.2770058 -1.6536409
00000000: 70c0 8a3f a219 0ec0 ee9b b4bf 4208 6c3f
00000010: 49e4 57bf de93 d73e ded1 ebbf e841 eabf
00000020: bc58 95bf b862 9bbd 923a 52bf 40c4 2cbf
00000030: d2be 87bf 1803 e7bf ea64 8bbf dfd4 cabf
00000040: acf7 6fbf d33b 0dc0 90b1 26bf 08cc e1be
00000050: c9c1 e8bf 0458 0ebe 9443 77bf a934 a6bf
00000060: 5f53 0dbd d2bd 94bf 3ddc ab3f d7b3 0cc0
00000070: 83ba b6bf 2160 a1be 8d44 a8bf 2716 68bf
00000080: 4bdd 4b3f 3366 663f 21fc b93c 86e8 56bf
00000090: 68d6 babf b6cb d5bf e97a cdbf ac2b f5bf
000000a0: a203 1bbf 812d 5fbf 837d b3bf 431d ccbf
000000b0: 9d9a f4bf 93ec 903f f7c7 d23f cd77 aabf
000000c0: 28a1 da3f 9f98 f7bf d523 e8be 21a7 66be
000000d0: 8e3b 95bf cae8 07c0 0cda 8b3f 058e bebf
000000e0: 9470 02bf 490a 97bf 0923 e1bf 87f7 123f
000000f0: e66f debf 560d 2cbf 8ed5 eebf 88aa 6fbd
00000100: 534b 05c0 7aab afbf 86e5 0f3f 51f5 b5bc
00000110: 3567 92bf 26bc 05bf beb7 653f 2a8d 173c
00000120: 5d0d c6bf db10 0f3f 117b a8bf 47d5 f0bf
00000130: 3a22 25be 4b1a 5bbf ad3f 8bbf c3d6 edbf
00000140: 422b 3cbd 4688 95bf 5b52 d7bf 83b2 44bf
00000150: f8f7 3d3f 233f 80bf a863 9d3f 84c7 61bf
00000160: e908 eebf 0dad 04c0 3eb3 e6bf ef88 de3f
00000170: 0e2b d8bf a0d2 d1bf 843d aabf 8472 eabf
00000180: 0378 afbf d929 4a3f 368d 9ebf 7786 5b3f
00000190: 1702 4c3f 01c4 f6bf e807 24bf 758c cebe
000001a0: 9766 bcbf b100 b0be 5921 fdbc d5d3 64bf
000001b0: 648d 00c0 07a2 b9bf c091 923f 8bea e4bf
000001c0: d963 15bf 5ea6 10be 6bcc c9bf 9a0d 783f
000001d0: 701a 1a3f 3e26 173d 379b 75bc 8533 63bf
000001e0: 4775 c8bf 6959 f2bc 3d8f 09bf 7501 07bf
000001f0: 87bf 8cbf 35ac d1bf 7c91 11be 4c17 a5bf
00000200: a9ed e83f 8887 f8bf 7826 c3be 6b54 adbf
00000210: f974 2dbc 056a a8bf 3564 c73f 8ad0 eebf
00000220: 8c3d d83e b4b7 9cbf 4795 83bb 0c09 823f
00000230: 9e1d abbf b3dd 3fbc 9251 e0be 1886 a3bf
00000240: abfd 393f 89ea 66bf 0720 163f 9ead eabf
00000250: 0bbe 65bf 346d e9bf 0e74 dc3f 61c2 d93f
00000260: 6c18 a4bf 8ff1 1bbf 74c2 ea3e 283a 0cbe
00000270: 2fd1 c8bf c611 92bf a948 ecbf 0ccc 94bf
00000280: c5d7 853f 1222 b8bf 7fc0 ecbe ae65 b1bf
00000290: 46f2 66be d27a 05c0 f59b 22be 292a f93f
000002a0: cd61 b7bf c9af abbf 993d cdbf 017d a6bf
000002b0: d878 bdbf 5b5d f33e 9b67 d83f 83bb c9bd
000002c0: addb 073f b28c 34bf 3be1 c1bf a91a d13f
000002d0: 333f 01c0 a841 dabf e2a3 5ebf 776d 18c0
000002e0: 2234 6bbf 9dac 71bf 0255 04c0 f343 47be
000002f0: 5927 8abf fc6d 56bf ada2 f4bf b4a1 5bbf
00000300: c320 19bf 63c7 54bf 4883 82bf fe99 a0bf
00000310: 3060 8bbf fa17 16bd 708d a4be 4cb9 35bf
00000320: 4933 80bf 6097 6ebf ba00 d3bf b3f5 59bf
00000330: c4e8 4abf 6589 64bc 370d c5bf 015c 32be
00000340: b640 4fbc e5ad 353f ba10 01c0 d366 753f
00000350: 12c5 9dbd 83d6 d4be 5b3e a8bf 2655 353f
00000360: 3635 b6bf b639 6bbe a4d4 cebf 3a2f edbe
00000370: 574a 86bf 3d8d 4e3f 3b7f 5ebf af99 b03e
00000380: a9f2 cebc bf05 093f 5c16 a53e 7179 ebbe
00000390: aa51 5d3f abf9 4ebf 57f3 56bf 8f10 bcbd
000003a0: c5f9 82bf f2c1 d4bf 2cdf a7bf c54e 9dbf
000003b0: e8dd 1c3f bf04 e5bf 3c32 f8bf 806b 38bf
000003c0: 5a97 e3bf bc87 4dbf d46d e4be 53b1 9bbe
000003d0: e01e b1bf 2a63 e53f d579 54be 3694 373f
000003e0: e93b 09c0 832e 4abf 0a19 56bd 9796 34bf
000003f0: d5b6 57bf 7c8e 9fbf ed74 a3bf 81aa d3bf

q.layers.1.weight f4 [300, 400]
0.015401043 -0.0045935796 0.041806124 -0.05211076 -0.030804161 -0.06366622 -0.07483451 0.01025575
-0.007309016 -0.07074627 -0.025079196 -0.029731173 0.017958356 -0.051207893 -0.0851534 -0.03986479
-0.022451164 -0.019412884 -0.022106195 0.009509498 0.013965297 -0.014155656 -0.052978236 0.0007951104
-0.044548154 0.02321133 -0.03744701 0.019334527 0.009559221 -0.076096505 0.038077224 0.039979167
-0.02439582 -0.018961238 0.023075368 -0.07777118 0.016767357 0.008746863 0.011954723 -0.06573869
-0.046472814 0.0138952155 0.012801225 -0.079036884 -0.0378763 -0.04881107 -0.039060723 -0.059388492
0.037741523 -0.054628994 0.02598571 0.00953875 -0.015313195 -0.09478107 0.029393405 0.027770229
0.047424454 -0.057873223 -0.006744868 0.035677668 -0.05033642 0.0011821733 0.00583322 -0.07727162
-0.01745326 0.019738078 -0.02597817 0.04516127 0.027485544 0.039799687 -0.009013793 0.037569705
-0.08355276 -0.03106986 -0.050485227 -0.064925805 0.046959143 0.012541876 0.02368563 0.0008140394
-0.08971373 -0.056790933 -0.023548111 0.00890425 -0.013277502 -0.024315076 -0.018496962 0.035826243
-0.04356409 -0.041737262 0.022503631 0.030452365 -0.018115584 -0.05676879 -0.04277909 -0.044515345
-0.019278252 -0.068271495 0.03297441 -0.07908087 -0.011001513 -0.049307566 0.021710942 0.044416893
0.030379647 -0.00012435729 -0.033890907 -0.039325915 -0.086805426 -0.004826897 0.039827812 -0.013316633
-0.009252484 -0.07583551 -0.022825653 0.026941672 -0.051264063 -0.043162283 0.02637801 0.007112728
-0.0058451113 -0.030327009 -0.019376365 -0.043095447 -0.06757102 -0.0051386836 -0.010316822 -0.055756062
-0.034794684 -0.0688492 -0.019082395 -0.045056883 0.030585323 0.017086858 -0.02879889 -0.06705066
-0.005494286 -0.061017532 0.00747598 0.015428389 -0.05541648 0.008017324 0.0011198998 0.03999309
-0.0576667 -0.019302608 0.038439453 -0.07423419 -0.004010828 0.042567227 -0.054918803 0.019245015
0.026175272 0.043024104 -0.009204173 0.00558771 -0.029098986 -0.02020247 -0.018902587 0.0067586415
0.021216823 0.009444672 -0.03376577 0.022767404 0.008890636 -0.024050644 0.020868624 -0.04239011
-0.041722663 0.037238695 -0.068089195 0.029387195 -0.03874071 -0.011780635 -0.03322236 0.010718501
0.004229278 0.0121569 0.0038051365 -0.014044946 0.0069684573 -0.037024036 -0.0047217687 -0.02640246
0.0044060233 0.03849936 -0.036296524 -0.055114195 -0.033942945 0.03280202 -0.007688355 0.044323403
0.025815064 0.040876158 0.0489567 -0.046303745 -0.036766097 -0.025908122 0.020649005 0.004445813
0.00052439235 -0.031814866 -0.05613113 0.016046928 0.02001096 -0.03531694 0.030108074 -0.059506048
-0.020006647 -0.030070543 -0.013376247 -0.0141795315 0.02334083 0.011496519 0.038819306 -0.0157371
0.025583247 -0.08803205 -0.046646122 -0.0026125542 -0.051377997 -0.03828065 -0.026974108 -0.028308392
-0.07378812 0.0018509763 0.03100435 0.028957563 -0.026980134 -0.0850811 -0.07928878 -0.01719916
0.03157444 -0.03919945 -0.065760426 -0.029285928 -0.008994612 -0.06375006 -0.060983293 0.044840463
-0.06634285 -0.029588195 -0.027668316 -0.046760708 -0.031002816 -0.023455959 -0.030030176 -0.006465936
-0.035936724 -0.052853942 0.03047442 0.037822668 0.029226353 -0.019329483 0.022468243 -0.043669242
00000000: a854 7c3c bd85 96bb e63c 2b3d 1872 55bd
00000010: 0259 fcbc 6f63 82bd d642 99bd bc07 283c
00000020: 7880 efbb 6ce3 90bd e372 cdbc ca8e f3bc
00000030: 671d 933c 5ebf 51bd e864 aebd 4349 23bd
00000040: 81eb b7bc c507 9fbc 0d18 b5bc bacd 1b3c
00000050: b3ce 643c 20ed 67bc b5ff 58bd f56e 503a
00000060: 2078 36bd b025 be3c 0962 19bd 7163 9e3c
00000070: 479e 1c3c 7cd8 9bbd ddf6 1b3d 32c1 233d
00000080: bed9 c7bc 9954 9bbc 8e08 bd3c 7f46 9fbd
00000090: b25b 893c 014f 0f3c bedd 433c 02a2 86bd
000000a0: 475a 3ebd c2a8 633c 3bbc 513c 17de a1bd
000000b0: 2e24 1bbd 1eee 47bd 23fe 1fbd 5941 73bd
000000c0: db96 1a3d a7c2 5fbd fcdf d43c 6b48 1c3c
000000d0: 32e4 7abc 941c c2bd 70ca f03c 647e e33c
000000e0: 2540 423d 790c 6dbd 0e04 ddbb bf22 123d
000000f0: 902d 4ebd 27f3 9a3a 9924 bf3b 9540 9ebd
00000100: 24fa 8ebc c0b1 a13c 2cd0 d4bc 06fb 383d
00000110: 5d29 e13c ff04 233d 97ae 13bc b1e2 193d
00000120: b61d abbd 3886 febc 99c9 4ebd d2f7 84bd
00000130: 3b58 403d 717c 4d3c 5e08 c23c 4265 553a
00000140: d5bb b7bd 9c9d 68bd f8e7 c0bc 22e3 113c
00000150: e189 59bc 6930 c7bc f186 97bc 8abe 123d
00000160: 4270 32bd b1f4 2abd 8959 b83c 3d77 f93c
00000170: 2267 94bc 6486 68bd 2139 2fbd b955 36bd
00000180: 6ded 9dbc edd1 8bbd 2d10 073d 27f5 a1bd
00000190: b13f 34bc bbf6 49bd 25db b13c 7dee 353d
000001a0: bdde f83c e865 02b9 31d1 0abd 3614 21bd
000001b0: 0bc7 b1bd f22a 9ebb 7d22 233d 022e 5abc
000001c0: bb97 17bc a64f 9bbd ddfc babc c8b4 dc3c
000001d0: 44fa 51bd efca 30bd b216 d83c e311 e93b
000001e0: 5988 bfbb 5970 f8bc 2fbb 9ebc da84 30bd
000001f0: ad62 8abd 6762 a8bb e307 29bc 7860 64bd
00000200: df84 0ebd cf00 8dbd af52 9cbc 918d 38bd
00000210: 128e fa3c bdf9 8b3c a6eb ebbc db51 89bd
00000220: 6909 b4bb 85ed 79bd 11f9 f43b 5bc7 7c3c
00000230: 64fc 62bd 185b 033c 9ac9 923a cbcf 233d
00000240: eb33 6cbd 8120 9ebc b072 1d3d 1808 98bd
00000250: 446d 83bb f95a 2e3d 8af2 60bd b9a7 9d3c
00000260: 866d d63c 0b3a 303d 1acd 16bc 1c19 b73b
00000270: ff60 eebc a67f a5bc 99d9 9abc 9877 dd3b
00000280: e7ce ad3c d3bd 1a3c fa4d 0abd b582 ba3c
00000290: 08aa 113c db05 c5bc adf4 aa3c 41a1 2dbd
000002a0: 62e5 2abd 9a87 183d 5972 8bbd 6abd f03c
000002b0: 94ae 1ebd 9103 41bc 2b14 08bd a79c 2f3c
000002c0: c195 8a3b bc2d 473c 995f 793b c61c 66bc
000002d0: a857 e43b 84a6 17bd 11b9 9abb f949 d8bc
000002e0: 6760 903b 81b1 1d3d aaab 14bd 6cbf 61bd
000002f0: c207 0bbd 695b 063d 99ee fbbb 758c 353d
00000300: 1d7a d33c c26d 273d d286 483d ffa8 3dbd
00000310: 0c98 16bd 453d d4bc 1a28 a93c 2fae 913b
00000320: 6077 093a 4e50 02bd c1e9 65bd d974 833c
00000330: 06ee a33c 7fa8 10bd 35a5 f63c 9dbc 73bd
00000340: fbe4 a3bc 8056 f6bc 0c28 5bbc 4451 68bc
00000350: 4535 bf3c e55b 3c3c fe00 1f3d 17eb 80bc
00000360: f593 d13c 264a b4bd 0110 3fbd 6337 2bbb
00000370: bc71 52bd 2ccc 1cbd cef8 dcbc 00e7 e7bc
00000380: 3a1e 97bd 759c f23a d6fc fd3c 6938 ed3c
00000390: 7105 ddbc 003f aebd 2862 a2bd 41e5 8cbc
000003a0: 3354 013d 9a8f 20bd 67ad 86bd 0be9 efbc
000003b0: 235e 13bc 648f 82bd 9ec9 79bd a2aa 373d
000003c0: c3de 87bd f162 f2bc aaa8 e2bc 2888 3fbd
000003d0: 9ef9 fdbc b626 c0bc d801 f6bc 34e0 d3bb
000003e0: 6332 13bd 607d 58bd 7ea5 f93c f1eb 1a3d
000003f0: 1b6c ef3c dd58 9ebc 520f b83c 85de 32bd

q.layers.1.bias f4 [300]
-0.03035393 -0.035067324 -0.048512336 -0.01481009 0.86249566 0.0 -0.044756897 -0.03917914
-0.1442386 -0.035818726 0.12055385 0.03146103 0.7850677 0.39159125 -0.007693647 -0.01191851
0.61463845 -0.03823996 0.6353991 0.5419808 -0.03704578 -0.031064907 -0.03174032 -0.030541142
-0.03687353 -0.036352206 -0.002774247 0.40196392 -0.008327119 -0.029515384 0.4804287 0.6701427
-0.03208323 -0.042058434 -0.05056893 -0.0004306501 -0.020703504 0.7621206 -0.033695135 -0.013541851
0.022600126 -0.29164225 -0.03628179 0.0008156376 -0.031159462 -0.061637614 -0.057492457 0.30711752
0.77055186 -0.21772371 -0.0060054907 -0.014949526 -0.045909695 -0.014386707 0.0020795274 0.6859067
0.38858914 -0.1238685 -0.013693709 -0.04728645 0.65884775 -0.20501575 0.7921982 -0.03492136
0.8034761 -0.043563526 0.7991392 -0.04230544 -0.08368259 -0.04469901 -0.020452233 -0.036513556
-0.028642144 -0.037711967 -0.03941053 0.82650316 -0.00751422 -0.0061412863 -0.021080427 -0.030211879
-0.030648848 -0.028011419 0.83427805 -0.031716026 0.743877 -0.2592454 0.10477662 -0.05956117
-0.12119313 0.8553457 0.6194311 -0.023119489 -0.03173172 -0.048283514 -0.2087241 -0.0053579416
0.4470247 -0.026816 -0.29143688 -0.03774049 -0.023641784 0.66594946 -0.005360589 -0.037923213
-0.029838871 -0.0048071346 0.45706257 -0.03152462 -0.03762311 -0.03654763 -0.004976668 -0.027956028
0.79095286 -0.036929186 0.70117503 -0.004689064 -0.01838179 -0.05156213 -0.0042281467 -0.0017393369
-0.028011136 0.31040075 -0.077870846 0.74439305 -0.016188454 -0.00040867753 -0.0418355 -0.19583778
-0.026561707 -0.033947058 -0.06444179 0.28202248 -0.0050051115 0.0 -0.21436436 -0.010411042
0.7294132 0.19980505 -0.0153797185 -0.06306481 -0.060631897 -0.013091329 -0.065370426 0.96869695
-0.0081921425 -0.025326021 -0.005489284 -0.01102645 -0.0060055004 -0.02972873 -0.030791126 0.62441134
-0.037704386 -0.024401141 -0.018554963 -0.029477399 -0.03624457 -0.006005416 -0.006004689 -0.089308485
-0.03719322 -0.014997693 -0.047228027 -0.016128412 -0.0037822207 -0.037286613 -0.03668122 -0.015767854
-0.057358082 0.38531488 -0.030917939 -0.020035988 -0.005575949 -0.025992433 0.73253196 0.3658517
-0.009077941 -0.049301542 -0.04083568 -0.017861627 0.3184662 0.3599083 0.39272353 -0.018273285
-0.0277332 -0.07093666 0.49834856 -0.013287389 -0.03926399 -0.037075024 -0.036139417 -0.003963598
-0.021027474 0.23147415 -0.15443042 -0.0055786897 -0.007160758 0.5522499 -0.039115448 0.011078456
0.43981168 -0.107487835 -0.02993588 -0.038541533 -0.037545457 -0.02927692 -0.044427987 -0.06509735
-0.03603487 -0.0050341226 1.2150732 -0.007501767 -0.06729013 0.60160476 -0.049774338 0.69066256
-0.0060054925 -0.04158097 -0.032907285 0.7235452 1.0674323 -0.013614352 -0.036689274 -0.0032168573
1.0527157 0.89463365 -0.03275882 -0.05626297 0.01244207 0.39721197 -0.036937125 -0.052193884
-0.0474048 -0.030335927 -0.026823035 0.52279073 -0.04695912 -0.0145847695 -0.028853133 -0.03011248
0.62195283 -0.014483769 -0.031192191 -0.045158297 -0.011819324 -0.031725366 -0.035122566 0.028311923
-0.015403385 -0.039878406 -0.016540099 0.5959855 -0.028541986 -0.13509502 -0.0031331554 -0.041055985
00000000: cea8 f8bc c1a2 0fbd dfb4 46bd 05a6 72bc
00000010: 84cc 5c3f 0000 0000 0253 37bd 4e7a 20bd
00000020: 49b3 13be a8b6 12bd f0e4 f63d 48dd 003d
00000030: 32fa 483f a67e c83e fd1a fcbb db45 43bc
00000040: f258 1d3f 81a1 1cbd 84a9 223f 41bf 0a3f
00000050: 51bd 17bd d57b febc 2302 02bd 6b31 fabc
00000060: b308 17bd 0de6 14bd 24d0 35bb 37ce cd3e
00000070: 786e 08bc 3fca f1bc c0fa f53e 798e 2b3f
00000080: b469 03bd 7745 2cbd 5e21 4fbd e1c8 e1b9
00000090: 659a a9bc 561a 433f e903 0abd a4de 5dbc
000000a0: e623 b93c 2252 95be 379c 14bd 83d0 553a
000000b0: 2142 ffbc b977 7cbd 367d 6bbd 823e 9d3e
000000c0: e342 453f f7f2 5ebe b5c9 c4bb dbee 74bc
000000d0: ce0b 3cbd 39b6 6bbc ae48 083b 9597 2f3f
000000e0: 28f5 c63e c5ae fdbd 945b 60bc 70af 41bd
000000f0: 3faa 283f a6ef 51be 80cd 4a3f b309 0fbd
00000100: 9cb0 4d3f ab6f 32bd 6394 4c3f 7848 2dbd
00000110: c761 abbd 4f16 37bd 718b a7bc 3d8f 15bd
00000120: eea2 eabc dd77 1abd f06c 21bd b695 533f
00000130: d939 f6bb d83c c9bb dcb0 acbc e77e f7bc
00000140: 4b13 fbbc 3478 e5bc 3f93 553f aae8 01bd
00000150: b96e 3e3f d0bb 84be 2095 d63d 6af6 73bd
00000160: 1b34 f8bd f0f7 5a3f 0993 1e3f 1565 bdbc
00000170: 1ff9 01bd efc4 45bd c5bb 55be ac91 afbb
00000180: 6ce0 e43e 3aad dbbc 3737 95be c695 1abd
00000190: 6aac c1bc aa7b 2a3f e1a7 afbb 5f55 1bbd
000001a0: a670 f4bc 2b85 9dbb 1b04 ea3e f61f 01bd
000001b0: b11a 1abd f8b2 15bd 5113 a3bb 0a04 e5bc
000001c0: e37b 4a3f 0f43 17bd 3580 333f b8a6 99bb
000001d0: 6895 96bc d032 53bd 448c 8abb 76fa e3ba
000001e0: 9c77 e5bc d9ec 9e3e c07a 9fbd 8b90 3e3f
000001f0: a69d 84bc c543 d6b9 b45b 2bbd b389 48be
00000200: f097 d9bc 120c 0bbd 0ffa 83bd 4065 903e
00000210: eb01 a4bb 0000 0000 5582 5bbe 1393 2abc
00000220: d3ba 3a3f b299 4c3e 37fb 7bbc 2028 81bd
00000230: 2759 78bd 037d 56bc eee0 85bd 86fc 773f
00000240: 5638 06bc 8478 cfbc 74df b3bb 49a8 34bc
00000250: cac9 c4bb aa89 f3bc ac3d fcbc 6cd9 1f3f
00000260: ea6f 1abd e7e4 c7bc 9400 98bc 967a f1bc
00000270: 3075 14bd 15c9 c4bb fbc2 c4bb 5ee7 b6bd
00000280: eb57 18bd e2b8 75bc 2d72 41bd bb1f 84bc
00000290: 22df 77bb d9b9 18bd 0c3f 16bd 962b 81bc
000002a0: 4ff0 6abd fe47 c53e 9e47 fdbc 8322 a4bc
000002b0: 73b6 b6bb 15ee d4bc 3787 3b3f ea50 bb3e
000002c0: a5bb 14bc 6af0 49bd 5043 27bd 8c52 92bc
000002d0: 000e a33e e745 b83e 0f13 c93e dbb1 95bc
000002e0: bc30 e3bc 3d47 91bd 8b27 ff3e 59b3 59bc
000002f0: 47d3 20bd fbdb 17bd ed06 14bd 12e1 81bb
00000300: cf41 acbc 8f07 6d3e 0223 1ebe 71cd b6bb
00000310: cba4 eabb 4060 0d3f 8537 20bd 6a82 353c
00000320: ff2e e13e 9522 dcbd 173c f5bc badd 1dbd
00000330: 44c9 19bd 27d6 efbc 1ffa 35bd c251 85bd
00000340: 4d99 13bd 48f5 a4bb 8587 9b3f 62d1 f5bb
00000350: 68cf 89bd c502 1a3f 2de0 4bbd 43cf 303f
00000360: b9c9 c4bb cf50 2abd cac9 06bd 423a 393f
00000370: 9fa1 883f bb0e 5fbc 7e47 16bd e9d1 52bb
00000380: 63bf 863f b606 653f 1d2e 06bd 0074 66bd
00000390: d3d9 4b3c 5e5f cb3e 624b 17bd 41c9 55bd
000003a0: 892b 42bd 0d83 f8bc fbbb dbbc 9dd5 053f
000003b0: 3558 40bd f5f4 6ebc 685d ecbc 73ae f6bc
000003c0: 4d38 1f3f 554d 6dbc c486 ffbc e8f7 38bd
000003d0: d7a5 41bc 75f2 01bd aedc 0fbd 68ee e73c
000003e0: 7b5e 7cbc 8a57 23bd 1a7f 87bc 8192 183f
000003f0: e2d0 e9bc 5956 0abe a055 4dbb 522a 28bd

q.layers.2.weight f4 [4, 300]
-0.015122091 0.014616897 0.009920433 0.0018293741 0.069373816 -0.021180008 0.0045385314 0.030409725
-0.031440087 0.010942626 -0.047323536 -0.019065157 -0.36623892 0.5820015 0.005387999 0.0028792582
0.79436135 -0.03602389 0.13330854 0.17115791 0.004639039 -0.050377626 0.007909007 0.009385464
-0.009603512 -0.016090082 -0.0017487231 -0.37190107 0.04076551 0.020023767 0.5271665 0.10531302
0.0075747124 -0.010310325 0.011022897 0.033586804 -0.0045365086 -0.017273007 -0.01798634 -0.0062436108
0.016665725 -0.013407377 0.04290435 0.034589168 0.0032328325 0.022594078 0.011697612 0.19123814
0.10797605 -0.020201638 -0.016904272 0.0015460909 -0.0049216445 0.047513798 -0.042373355 0.11548692
-0.45176083 -0.00620256 0.006024436 -0.0004368992 0.32773048 -0.0018934731 0.002188036 0.00093940936
0.7217422 0.004569775 0.14372765 -0.01770465 -0.035376046 -0.019492537 0.0027933705 -0.053076748
0.026441379 -0.044229515 -0.07750778 -0.30384812 -0.0072115995 0.016274136 -0.0010038733 -0.012552844
-0.012423018 0.018753018 0.30383077 -0.0060046106 -0.3317134 -0.002672394 -0.045846518 0.017834134
0.0131296655 0.22861345 -0.1480587 0.022280956 0.0021679162 0.03633278 -0.032027267 0.008931137
0.72437483 0.0337477 0.042507272 -0.053502686 0.035145972 0.29154268 0.010182661 -0.0448129
-0.03998422 0.007233021 -0.5016212 0.00067278615 0.024876041 -0.009568354 -0.042376697 0.009992599
0.541756 0.036397222 0.4044507 0.038462836 -0.011609291 0.013422423 0.04990901 0.04375778
-0.025916062 0.6618023 0.029275041 0.25568536 -0.0197649 0.030851232 -0.08324671 0.011426018
0.01344274 -0.00223937 0.003882674 -0.19416611 0.056005422 -0.056050062 -0.030266138 -0.033653915
0.12813984 -0.98204845 -0.015909603 0.034582824 -0.009581527 -0.027050072 0.0150287505 0.12510812
0.03305214 -0.050692152 -0.024542399 0.010138353 -0.03454002 -0.012614 0.0027165997 0.15867886
-0.005385663 -0.0064988364 -0.016745567 0.014906036 0.03800065 0.043458037 0.015022832 -0.019532498
-0.015104761 0.005887056 0.03623832 -0.00024508845 -0.020094005 -0.037325926 -0.034980297 -0.060358293
-0.003149003 -0.13092896 0.057576038 0.009447514 -0.009207626 0.043071482 -0.07475822 0.6150502
0.022491157 0.009935079 0.021379413 0.0072291396 0.34622526 0.59072566 -0.23517908 0.046445988
-0.014205624 0.07078769 0.021453498 0.026032012 -0.040896166 -0.0014421104 0.010284531 -0.0386684
0.022153348 -0.3549393 -0.03815341 0.033753924 0.024458978 -0.047640454 0.0013188585 0.03815528
-0.116015464 -0.012790165 -0.044874176 0.0012448467 -0.008002762 -0.015488525 -0.016171401 -0.01585158
0.046187885 0.027412605 0.20127179 -0.023605036 -0.009723387 0.2977204 -0.0029987518 0.10823879
0.018774226 0.068809785 0.054350622 0.45654124 0.18467778 0.012149195 -0.005978389 -0.026870025
0.1411303 -0.06469835 -0.014405585 -0.004107507 -0.016147785 -0.6756736 -0.01322941 -0.0008443278
0.06654605 0.019002318 0.006234682 -0.7068255 -0.040481344 -0.050047524 0.021065408 0.0032528553
0.13941118 0.0044393456 0.03883322 0.07346896 0.0041599367 0.0329673 -0.030199507 -0.020326769
0.019952318 -0.0012501668 -0.056691147 -0.31865472 0.030871665 -0.004559312 0.031142227 -0.0077122436
00000000: a6c2 77bc b67b 6f3c 5089 223c 9cc7 ef3a
00000010: dc13 8e3d b281 adbc f6b7 943b d11d f93c
00000020: 52c7 00bd b348 333c 53d6 41bd 882e 9cbc
00000030: ab83 bbbe 0dfe 143f d08d b03b f0b1 3c3b
00000040: 445b 4b3f c98d 13bd 0982 083e 0544 2f3e
00000050: 1403 983b c558 4ebd c894 013c 7dc5 193c
00000060: 0c58 1dbc 59cf 83bc 6935 e5ba d169 bebe
00000070: bcf9 263d e208 a43c 62f4 063f 5aae d73d
00000080: 4b35 f83b a3ec 28bc 6299 343c 5192 093d
00000090: fea6 94bb 1f80 8dbc 1758 93bc 3497 ccbb
000000a0: 8f86 883c 9daa 5bbc 79bc 2f3d 5fad 0d3d
000000b0: eedd 533b 3717 b93c 57a7 3f3c eed3 433e
000000c0: 8c22 dd3d e87d a5bc d47a 8abc 34a6 ca3a
000000d0: bf45 a1bb d49d 423d af8f 2dbd 6884 ec3d
000000e0: 324d e7be d83e cbbb a268 c53b 9e0f e5b9
000000f0: 4acc a73e 6a2e f8ba 2765 0f3b b242 763a
00000100: 19c4 383f 0dbe 953b 572d 133e 5809 91bc
00000110: 79e6 10bd d0ae 9fbc fb10 373b 0167 59bd
00000120: 979b d83c 022a 35bd 66bc 9ebd fb91 9bbe
00000130: 484f ecbb 5651 853c 6694 83ba 72aa 4dbc
00000140: ea89 4bbc ee9f 993c b58f 9b3e 53c2 c4bb
00000150: 57d6 a9be 5523 2fbb 8fc9 3bbd e418 923c
00000160: cf1d 573c a519 6a3e b39c 17be 8d86 b63c
00000170: 9913 0e3b aed1 143d 062f 03bd e753 123c
00000180: a170 393f 073b 0a3d 1b1c 2e3d a225 5bbd
00000190: 39f5 0f3d 1545 953e 2dd5 263c bb8d 37bd
000001a0: 7ec6 23bd fa02 ed3b 3f6a 00bf ea5d 303a
000001b0: d7c8 cb3c 96c4 1cbc 3093 2dbd ffb7 233c
000001c0: 85b0 0a3f 4115 153d 2a14 cf3e 358b 1d3d
000001d0: e534 3ebc b9e9 5b3c 646d 4c3d 5c3b 333d
000001e0: ec4d d4bc e06b 293f 36d2 ef3c 31e9 823e
000001f0: 00ea a1bc b9bb fc3c 407d aabd 3134 3b3c
00000200: f03e 5c3c 65c2 12bb 7674 7e3b 7bd3 46be
00000210: f165 653d c094 65bd b1f0 f7bc b0d8 09bd
00000220: 1737 033e 8767 7bbf db54 82bc b8a6 0d3d
00000230: d6fb 1cbc 1d98 ddbc 263b 763c 581c 003e
00000240: ae61 073d 93a2 4fbd 240d c9bc 561b 263c
00000250: d679 0dbd f3aa 4ebc fb08 323b b67c 223e
00000260: 377a b0bb 31f4 d4bb 002e 89bc 7238 743c
00000270: 92a6 1b3d 0e01 323d 5322 763c 9e02 a0bc
00000280: f679 77bc 34e8 c03b a26e 143d 377f 80b9
00000290: 2f9c a4bc 12e3 18bd 8047 0fbd 423a 77bd
000002a0: 815f 4ebb 3e12 06be dad4 6b3d bfc9 1a3c
000002b0: 95db 16bc b96b 303d d61a 99bd ee73 1d3f
000002c0: 603f b83c bec6 223c e123 af3c 6be2 ec3b
000002d0: 7044 b13e cc39 173f c9d2 70be 263e 3e3d
000002e0: b5be 68bc 23f9 903d 3fbf af3c 1641 d53c
000002f0: bd82 27bd 3205 bdba 7380 283c c262 1ebd
00000300: f07a b53c 9bba b5be c046 1cbd 8e41 0a3d
00000310: 325e c83c a322 43bd 8cdd ac3a b648 1c3d
00000320: 8499 edbd d78d 51bc fccd 37bd 202a a33a
00000330: 041e 03bc 95c3 7dbc e379 84bc 2cdb 81bc
00000340: 822f 3d3d 6690 e03c 311a 4e3e 595f c1bc
00000350: d74e 1fbc cf6e 983e b586 44bb 4cac dd3d
00000360: 68cc 993c 25ec 8c3d c29e 5e3d c6bf e93e
00000370: 2c1c 3d3e 6b0d 473c 5de6 c3bb 871e dcbc
00000380: 7684 103e 9280 84bd 6705 6cbc 4498 86bb
00000390: 5c48 84bc f2f8 2cbf 2bc0 58bc e155 5dba
000003a0: 4c49 883d c0aa 9b3c 4e4c cc3b 84f2 34bf
000003b0: c4cf 25bd a2fe 4cbd 5d91 ac3c db2d 553b
000003c0: cec1 0e3e ee77 913b 950f 1f3d e576 963d
000003d0: 1450 883b b808 073d f564 f7bc 5384 a6bc
000003e0: 0b73 a33c a3dc a3ba fa34 68bd b626 a3be
000003f0: 93e6 fc3c 4866 95bb fc1d ff3c fdb6 fcbb

q.layers.2.bias f4 [4]
0.7291607 0.7080694 0.7412359 1.1098197
00000000: 47aa 3a3f 0944 353f a3c1 3d3f 920e 8e3f
