pyt_save/model_working_8moves.pt (torch_old, 496773 bytes, 6 tensors)

q.layers.0.weight f4 [400, 2]
0	0x3c1cc6be	0.009568868
1	0x3c67e2dd	0.0141532095
2	0x3bc707ea	0.0060739415
3	0xbd28f6f6	-0.041251145
4	0xbd98a145	-0.07452635
5	0xbbe04d74	-0.0068451706
6	0x3c0a4d8f	0.008441343
7	0x3bddd376	0.006769593
8	0x3a7ba898	0.00096000126
9	0x3d0b1d14	0.033963278
10	0x3bb08e7b	0.0053880787
11	0xbcdef4be	-0.027216312
12	0xbcbf3638	-0.023341283
13	0xbcbee4e4	-0.023302503
14	0xbd3bf310	-0.0458861
15	0xbc68c877	-0.014207951
16	0xbb0bf9e3	-0.002135866
17	0x3d808618	0.06275576
18	0x3c423ee0	0.011855811
19	0x3d2af282	0.04173518
20	0xba55aff3	-0.00081515237
21	0x39b0a96f	0.00033695574
22	0xbc3d6e2f	-0.011561914
23	0x3d160e7c	0.036634907
24	0x3bc94b2a	0.0061429935
25	0x3bebeb4e	0.0071996814
26	0x3e1c20d0	0.15246892
27	0xbd5dc6b0	-0.05414456
28	0xba1651ca	-0.00057342334
29	0xb7c27c6c	-2.318454e-05
30	0xbc6b2a6b	-0.014353375
31	0x3bc0945f	0.005877062
32	0xbcc0e9db	-0.023549011
33	0xbce5266e	-0.027972426
34	0xbe2b6cfd	-0.16740794
35	0x3c89ed82	0.016836885
36	0xbb41cb55	-0.0029570658
37	0x3cd66ad4	0.026173986
38	0xbc971c3b	-0.018446079
39	0xbc3a51de	-0.011372058
40	0xbb886b59	-0.0041631875
41	0xbd3a4894	-0.045479372
42	0x3ac9e99a	0.0015404702
43	0xbc434258	-0.011917673
44	0x3a686fff	0.00088667864
45	0x3a210d1d	0.00061436166
46	0x3c980dcf	0.018561272
47	0x3b16e0e0	0.002302222
48	0xbd3451b6	-0.044023238
49	0x3ca3d063	0.019996827
50	0x3d1b0f53	0.03785641
51	0x3cf9c02a	0.030487139
52	0x3d8fbb47	0.07018142
53	0x39fd141c	0.00048270903
54	0xbc87fcb3	-0.016599989
55	0xbcbaff1c	-0.022826724
56	0xbc588ef2	-0.013217675
57	0xbd221ebc	-0.03958009
58	0x39a604e3	0.00031665628
59	0xb9427aa4	-0.00018546969
60	0x3d087d0b	0.033322375
61	0x3ccf793c	0.025326364
62	0xbd46d79b	-0.04854546
63	0xba19c3b8	-0.0005865651
64	0x3d47e9a1	0.04880679
65	0xba7631a3	-0.0009391552
66	0xbb9d7118	-0.0048047416
67	0x3cbd5a57	0.023114366
68	0x3dd29f57	0.10284298
69	0x3cf9f845	0.030513892
70	0xbc4d67db	-0.012536968
71	0x3c400294	0.011719365
72	0xb9ada2ce	-0.0003311843
73	0x3a723694	0.00092397
74	0x3dd738ee	0.10508905
75	0x3e56b492	0.2096732
76	0xba93c6c5	-0.0011274448
77	0xbd50ca46	-0.050974153
78	0x3c3723cc	0.011177968
79	0x3cac9f0f	0.021071939
80	0xbab7e9fa	-0.0014031522
81	0x3c4cdb6c	0.012503486
82	0x390eb261	0.00013608627
83	0x3a03e7ea	0.00050318113
84	0x3bf87ea6	0.007583457
85	0x3aa562df	0.0012617967
86	0xbb9aaf6c	-0.004720619
87	0xbd2a24a9	-0.041538868
88	0xb9c18b48	-0.000369156
89	0x3b0f40a2	0.0021858593
90	0xb9ad2e23	-0.00033031506
91	0x3d422e84	0.047407642
92	0xbbe8b635	-0.007101799
93	0xbbeeff39	-0.0072936085
94	0xba6f682f	-0.0009132651
95	0x38d6558a	0.00010220248
96	0x3d50f5f7	0.05101582
97	0x3d0ab229	0.033861313
98	0xbceebfeb	-0.029144248
99	0xbc4e7d6a	-0.012603143
100	0x3e0c8e0b	0.1372606
101	0x3e2f8ac5	0.1714278
102	0x3b6ab2fe	0.0035812254
103	0x3cea9074	0.028633334
104	0xbf0e405b	-0.5556695
105	0xbb28f0cd	-0.0025778294
106	0x3ba197b4	0.0049314145
107	0x3c7e04d5	0.015504082
108	0x3cbed287	0.023293747
109	0x3bf11fa3	0.0073585077
110	0xbccad3a6	-0.024759125
111	0x3c7934ba	0.015210325
112	0xba2c0968	-0.0006562681
113	0x3b3deabe	0.0028979029
114	0x3a8e30b8	0.001084826
115	0x39a76404	0.0003192724
116	0xbd8a15a7	-0.06742411
117	0x3beba637	0.007191445
118	0x3a885cda	0.0010403648
119	0x3c7a258a	0.015267739
120	0x3da4362a	0.080181435
121	0x3b5f2c46	0.0034053489
122	0x3a871421	0.0010305681
123	0x3cb852c2	0.0225004
124	0xbcb567bf	-0.022144197
125	0xbc256e9b	-0.010097171
126	0x398487aa	0.0002527808
127	0x39890dda	0.00026140996
128	0xbb9358fa	-0.004496691
129	0xbd4b520f	-0.049638804
130	0x39eeac87	0.0004552344
131	0x3a2e3e01	0.00066468125
132	0xbca2bce0	-0.019865453
133	0x3cfbe488	0.03074862
134	0x3d158745	0.036505956
135	0x3cee7732	0.029109571
136	0x3cf91fc3	0.030410653
137	0x3a06778d	0.0005129509
138	0x3a38a44f	0.0007043527
139	0x3d01ef19	0.031722162
140	0x3bdcc413	0.006737241
141	0x3c1cba52	0.009565907
142	0x3c6be8de	0.014398782
143	0x3ca15cc3	0.019697553
144	0xb9b84dc8	-0.00035153166
145	0xb93598e8	-0.00017318467
146	0xbbd83bc4	-0.0065989215
147	0x3cb3a5fc	0.021929733
148	0xbc8816bb	-0.016612401
149	0xbd011c4f	-0.031521138
150	0xbe66ee85	-0.22551925
151	0xbe1e291f	-0.15445374
152	0x3b75457c	0.003742545
153	0x3d479a8e	0.04873138
154	0x39ba875e	0.0003557754
155	0xbd7a6d26	-0.06113925
156	0x3ab5f015	0.0013880754
157	0x3cb9ef12	0.022697005
158	0x3aed37b7	0.0018098269
159	0xbd2108cb	-0.039315026
160	0xbd1476a0	-0.036245942
161	0xbc2139da	-0.009840453
162	0xbc844e62	-0.016150657
163	0x3bfc2199	0.007694435
164	0xbd951cb6	-0.07280867
165	0xbb3eec1b	-0.002913243
166	0xbb4d9577	-0.0031369606
167	0x3cade350	0.021226555
168	0xbda4ac8e	-0.08040725
169	0x3c8ef8f3	0.017452693
170	0xbaeb53db	-0.0017954068
171	0x3c9d24a6	0.019182514
172	0x3ed8ea71	0.42366365
173	0x3bbf4b4d	0.005837834
174	0xbb8e82c0	-0.0043490827
175	0x3cc8153f	0.024424193
176	0xbabc82c5	-0.0014382234
177	0xbd304885	-0.04303791
178	0x3bc89bb0	0.006122075
179	0xbb20d673	-0.0024541884
180	0xbc1fe270	-0.009758577
181	0xbbf33cf8	-0.0074230395
182	0x3d8e2f76	0.06942646
183	0x3c56f86f	0.013120755
184	0xbc9e5f8c	-0.01933267
185	0xbbe5266e	-0.0069931066
186	0xbbe040e3	-0.0068436726
187	0xbcd9f6b9	-0.026606904
188	0xbc780045	-0.015136783
189	0x3c696893	0.014246124
190	0x3c0489f7	0.008089534
191	0xbb165ab0	-0.0022942238
192	0xbce9871e	-0.028506812
193	0x3a73de02	0.0009302796
194	0x3ab74c9f	0.0013984627
195	0xb8dc7102	-0.00010511467
196	0xbb82f14e	-0.003996051
197	0x3d3adfee	0.045623712
198	0xbadf868e	-0.001705365
199	0xb8e18c4f	-0.000107549706
200	0x3c4c41f4	0.012466896
201	0x3bc0946a	0.0058770673
202	0xbd01960d	-0.03163724
203	0x3b8fc119	0.0043870327
204	0x3b65d24a	0.003506797
205	0x3cda2a4f	0.026631502
206	0xbceb4784	-0.028720625
207	0x3af47691	0.0018651058
208	0x3da65d6c	0.081232876
209	0xba87e3c2	-0.001036756
210	0x38e53590	0.00010929548
211	0xb9087f70	-0.00013017445
212	0x3b006099	0.0019588827
213	0x3cca54f8	0.02469872
214	0xbbf1fe9c	-0.007385088
215	0x3c790d68	0.01520095
216	0xbac0b4bb	-0.0014702299
217	0xbd219cd3	-0.0394562
218	0x3c1ab3b5	0.00944226
219	0xbd05a7f7	-0.032630887
220	0xbcc8c625	-0.024508545
221	0x3f42bf03	0.7607271
222	0x3db0985c	0.0862281
223	0x3b1b0b16	0.002365773
224	0xbe1d6ff9	-0.15374745
225	0x3df91aa6	0.12163286
226	0xb983a4ea	-0.00025109138
227	0x39eee143	0.0004556273
228	0xbc20c834	-0.009813357
229	0xbcdb5f15	-0.026778737
230	0x3b27da73	0.0025612384
231	0x3d1e4e4e	0.038648896
232	0xbb7c2951	-0.0038476775
233	0x3ca8bbae	0.020597305
234	0x3a0ed0a3	0.00054479594
235	0x3adef23b	0.0017009446
236	0x3b83eb0e	0.0040258234
237	0xbd0123d9	-0.031528328
238	0x3aacbfe1	0.0013179743
239	0x3cb95e5b	0.022628
240	0x3b2958fe	0.0025840397
241	0x3d191460	0.037372947
242	0xbd03c375	-0.032168824
243	0xba77af60	-0.0009448435
244	0x3c008f53	0.007846671
245	0xbc4bb0a0	-0.012432247
246	0x3d09b4e4	0.033619776
247	0xbc3b189b	-0.011419441
248	0x3bfdbe90	0.007743664
249	0xbc654a99	-0.013994836
250	0xbd51c19b	-0.051210027
251	0xbc57c0d5	-0.013168533
252	0xbcbed2ed	-0.023293937
253	0x3da889cd	0.082294084
254	0xb91354c7	-0.00014050594
255	0xb8c9fa80	-9.631086e-05

q.layers.0.bias f4 [400]
0	0x3f7efaf2	0.9960166
1	0xc009b553	-2.1516922
2	0x3fb8d87d	1.4441067
3	0x3f95c9bd	1.1702191
4	0xbf8e33c2	-1.1109545
5	0xbfc57806	-1.5427253
6	0xc0036d98	-2.053564
7	0xc0063c1a	-2.0974183
8	0xc00d9eb3	-2.2128112
9	0xbfc0f5ec	-1.5075049
10	0xbd5c5cea	-0.053799547
11	0xbfac3a86	-1.345536
12	0x3f8ea4e6	1.1144073
13	0x3ddab5c2	0.10679199
14	0xbd09a71f	-0.033606645
15	0xbf0b155a	-0.54329455
16	0xbfef24ad	-1.8683068
17	0xc006c891	-2.1059916
18	0xbf8c40c9	-1.0957271
19	0x3fad8810	1.3557148
20	0xc015302f	-2.331066
21	0xbf2e2d02	-0.68037426
22	0xbd310ba1	-0.04322398
23	0xbf0570f1	-0.5212546
24	0x3fc064db	1.5030779
25	0xbfd89121	-1.691929
26	0xbffb1a60	-1.9617424
27	0xbfc9717b	-1.5737756
28	0xc01879f7	-2.3824441
29	0xbcc32411	-0.023820909
30	0x3e8b6b10	0.2723012
31	0xbf9d6919	-1.2297698
32	0x4002cbd9	2.0436919
33	0x3f898ac5	1.0745474
34	0xbfb98044	-1.4492269
35	0xbf2f2285	-0.6841205
36	0xbd230c06	-0.03980639
37	0xbf1a73d9	-0.6033302
38	0xc030757c	-2.7571707
39	0x3f0793a6	0.5295967
40	0xbef440f1	-0.47705796
41	0xbce8d556	-0.028422039
42	0x3faa8876	1.3322895
43	0xc00882e1	-2.1329882
44	0xbd9812b7	-0.074254446
45	0xbfc85134	-1.5649781
46	0xbf09fd5f	-0.5390224
47	0xbd2fe4f8	-0.04294297
48	0xc005810e	-2.0860019
49	0xbfcb7a8b	-1.5896772
50	0x3f2959ea	0.6615282
51	0x3f2d38d8	0.6766486
52	0x3f25fb38	0.64836454
53	0xbf301943	-0.68788546
54	0xbfaf40f0	-1.3691692
55	0xbf82dd06	-1.0223701
56	0xbe0a2ad1	-0.13492896
57	0xbd264da1	-0.040601376
58	0xbff6adab	-1.9271749
59	0xbf026fc2	-0.5095178
60	0xc000ef35	-2.0146
61	0x3fbd631a	1.4795868
62	0xbfeb33e2	-1.8375208
63	0xbd02c089	-0.031921897
64	0xc01c1724	-2.4389124
65	0xbd847220	-0.0646708
66	0x3ebca393	0.36843547
67	0xbfd0ab5c	-1.6302295
68	0x3fc01f46	1.5009544
69	0xbf911089	-1.1333171
70	0x3f06af95	0.52611667
71	0x3eab395f	0.33442208
72	0xbce4c094	-0.02792386
73	0x3e248556	0.16066489
74	0xbff162a8	-1.8858232
75	0xbeaf9f5c	-0.3430127
76	0xbfc9c5db	-1.5763506
77	0xc0288d32	-2.6336179
78	0x3f35f545	0.71077377
79	0xc0117a4d	-2.2730896
80	0xbfbe1b01	-1.4851991
81	0xbf468b57	-0.77556366
82	0x3fccea78	1.6009054
83	0xbf494030	-0.7861357
84	0x3f95787f	1.1677397
85	0x3ec660de	0.3874578
86	0x3ee16fd3	0.44030628
87	0x3f72aa33	0.94790953
88	0xc0172dbd	-2.3621666
89	0xbe8dde00	-0.27708435
90	0xbf13dc7b	-0.577583
91	0xc0065018	-2.0986385
92	0x3fc36c66	1.5267456
93	0xbfb68f3d	-1.4262463
94	0xbf873dd0	-1.0565739
95	0xbea9d286	-0.3316843
96	0xbf3c50f5	-0.7356103
97	0xbd305196	-0.043046556
98	0x3f8a7f3c	1.0820079
99	0xbd74ae56	-0.059736572
100	0x3f8d196d	1.1023384
101	0xbfacbda9	-1.349538
102	0x3fc4f2bb	1.5386575
103	0xbf60a4ab	-0.87751263
104	0xc0043115	-2.0654957
105	0xbc8110e1	-0.015755119
106	0x3f919173	1.1372513
107	0x3f9badbd	1.2162396
108	0xbff63119	-1.9233733
109	0xbfe4bbc1	-1.7869798
110	0x3f3d11a0	0.7385502
111	0xc00e6f53	-2.2255447
112	0x3e724445	0.23658855
113	0xbd3d3016	-0.046188436
114	0xbfcbd899	-1.5925475
115	0x3fb465a2	1.4093516
116	0x3fbafb76	1.460799
117	0xbd873924	-0.066026956
118	0xbfd5f649	-1.6715785
119	0x3f81cd8a	1.014085
120	0xbfdc8326	-1.7227523
121	0xc0093ac4	-2.1442118
122	0xbf89434d	-1.0723664
123	0x3ee0e6c5	0.43926063
124	0xbf5a2fb3	-0.85229033
125	0xc01319c7	-2.2984483
126	0xbfd44eed	-1.6586586
127	0xbcba73ef	-0.02276036
128	0xbf84820b	-1.0352186
129	0xbcb5d28f	-0.022195129
130	0xbd2c8dc5	-0.04212739
131	0xbe62e864	-0.22158962
132	0xbd3c85d5	-0.04602607
133	0x3f064b16	0.5245832
134	0xc01be500	-2.435852
135	0xbfe85b9d	-1.8152958
136	0xbf485b4a	-0.78264296
137	0xbfeecf7e	-1.8657072
138	0xc009ec24	-2.1550379
139	0xbfdfe238	-1.7490911
140	0xbfde2d6a	-1.7357609
141	0xbeed9709	-0.46404293
142	0x3e5e22ca	0.21692958
143	0x3fb1208a	1.3838055
144	0xc003a801	-2.0571291
145	0x3f5e2b02	0.86784375
146	0x3fdbcb23	1.7171367
147	0xbcd8d2d1	-0.026467713
148	0xbcecc073	-0.02890036
149	0x3eb23f62	0.34813982
150	0xbd1c3bb6	-0.038142882
151	0xbff7a476	-1.9347064
152	0xc0186b51	-2.38155
153	0xc00ba00d	-2.1816437
154	0x3fdcf6b3	1.7262787
155	0xbe87a63e	-0.2649402
156	0xbf8c83e4	-1.097775
157	0xbd92f5ff	-0.07175826
158	0xbf3e84a3	-0.7442114
159	0xc002e6ae	-2.0453296
160	0xbfd72335	-1.6807619
161	0xbf250635	-0.64462596
162	0xbed6cf52	-0.41955048
163	0xc010a07e	-2.2597957
164	0xc00617b0	-2.0951958
165	0xc00cdf33	-2.201123
166	0x3f00db6a	0.503348
167	0xbdebc5cc	-0.11512336
168	0xbe9abcf2	-0.3022228
169	0xbf4a0ddd	-0.78927404
170	0xbd086cbb	-0.03330682
171	0xbfae36a6	-1.3610427
172	0xbf93bcc1	-1.1541978
173	0xbfecee03	-1.8510135
174	0xbe5a8fe3	-0.21343951
175	0xbffba3ec	-1.96594
176	0xbff67a3f	-1.9256057
177	0xbfa05a6f	-1.2527598
178	0xbfcbeed2	-1.5932257
179	0xbfd66f08	-1.6752634
180	0xbf3b6062	-0.73193944
181	0xbf9834a9	-1.1891071
182	0xbff785a2	-1.9337656
183	0xbff7b51b	-1.9352144
184	0xc0087d04	-2.1326303
185	0x3e884b49	0.26619938
186	0xbf78de68	-0.97214365
187	0xbcde951a	-0.027170707
188	0xbe80ce96	-0.25157613
189	0x3f537166	0.8259491
190	0xbfd04f7a	-1.6274254
191	0xbfeadac1	-1.8348008
192	0xbfd0e050	-1.6318455
193	0xbfe48101	-1.7851869
194	0x3fad3996	1.3533199
195	0xbfd3b4e5	-1.653958
196	0xbfcc6c36	-1.5970523
197	0xbdace777	-0.08442586
198	0x3f690035	0.9101594
199	0x3f7ef03f	0.99585336
200	0xc012a773	-2.2914703
201	0xbf4966fb	-0.7867276
202	0xc013dbc0	-2.3102875
203	0xbf0f2001	-0.5590821
204	0xbfa6c90f	-1.3030108
205	0xbea7f31e	-0.3280267
206	0x3ea5e253	0.32399234
207	0xbd29fbc3	-0.041499864
208	0xbfc730e8	-1.55618
209	0x3fc16242	1.5108111
210	0xbf86773a	-1.0505135
211	0x3f0d24ec	0.55134463
212	0xc0234075	-2.5508091
213	0xbcb3d1c1	-0.021950604
214	0x3f366a46	0.7125591
215	0xbf33f1ed	-0.70291024
216	0xc0282402	-2.6271977
217	0xbf9a9adb	-1.2078508
218	0xbd046477	-0.032322373
219	0xbfa71e5c	-1.305614
220	0xbfbb3ab7	-1.4627293
221	0xbfba2666	-1.4542968
222	0x3f16c995	0.5890134
223	0x3fa552f2	1.2915938
224	0x3e102851	0.1407788
225	0x3f415065	0.755133
226	0xbf803bc0	-1.0018234
227	0xbe5c973d	-0.21542068
228	0x3f8a2974	1.07939
229	0xbd2658bf	-0.04061198
230	0xbfde1653	-1.7350563
231	0x3f9bfff1	1.2187482
232	0xbffec974	-1.9905229
233	0xbf4cbc05	-0.79974395
234	0xc00935a7	-2.1438997
235	0xbe7a30e0	-0.24432707
236	0x4006ccd8	2.1062527
237	0xc03c54fd	-2.9426873
238	0x3e9b68e4	0.30353463
239	0xbf5c7ae6	-0.8612503
240	0xbe5a38d4	-0.2131074
241	0xbfc62d3c	-1.5482554
242	0x3f97dc06	1.1864021
243	0xbe11185c	-0.14169449
244	0xbd3d7a3e	-0.046259157
245	0x3fa7f68e	1.3122118
246	0xbf9c4c73	-1.221083
247	0x3f4de261	0.8042355
248	0xbffd7e9d	-1.9804264
249	0xbe46a420	-0.19398546
250	0x3ee66f3b	0.45006737
251	0xbdc0f16c	-0.094210476
252	0xbcef14f1	-0.02918479
253	0xbf617357	-0.8806662
254	0x3f321ae1	0.69572264
255	0xbfacb3b9	-1.3492347

q.layers.1.weight f4 [300, 400]
0	0xbd00aa2b	-0.031412285
1	0x3d079697	0.033102598
2	0x3c9e9bb0	0.019361347
3	0xbdb23744	-0.08701947
4	0xbd6669e9	-0.056253348
5	0xbd01cba1	-0.031688336
6	0xbd3e2367	-0.04642048
7	0x3c959605	0.018260011
8	0xbcc99e26	-0.024611544
9	0xbd460f2e	-0.04835432
10	0xbd3af5c5	-0.04564454
11	0xbd5399ee	-0.05166047
12	0xbdde0759	-0.10841245
13	0xbd30582f	-0.04305285
14	0xbd8963df	-0.06708502
15	0xbd82ac0b	-0.06380471
16	0x3c173ca8	0.00923077
17	0x3c964eef	0.018348185
18	0xbd1d6bd1	-0.0384329
19	0xbc39d47a	-0.011342162
20	0x3d0e6cf9	0.034771893
21	0x3b8294bb	0.003985015
22	0xbce93230	-0.028466314
23	0xbbec12e9	-0.0072044027
24	0xbcbf86d2	-0.023379717
25	0x3bcc33ec	0.0062317755
26	0xbd2fb886	-0.042900585
27	0x3ce655c6	0.028117072
28	0x3cd98585	0.026552925
29	0xbd45e9c4	-0.04831864
30	0x3cede299	0.029038714
31	0x3d17a362	0.03702105
32	0xbcb14b68	-0.021642402
33	0xbd99f656	-0.07517688
34	0x3bb07bfc	0.005385874
35	0xbd72177f	-0.05910444
36	0xba32c920	-0.0006820131
37	0xbab6d4d7	-0.0013948929
38	0x3cf4e3a2	0.0298937
39	0xbd479c99	-0.048733328
40	0xbd3cd7e4	-0.046104327
41	0x3cb97823	0.022640293
42	0x3c2d9032	0.010593461
43	0xbd4b63e5	-0.049655814
44	0xbcdcbe90	-0.026946336
45	0xbd82346b	-0.06357654
46	0xbd3cdd65	-0.046109576
47	0xbd269aa9	-0.04067484
48	0x3d1161a9	0.035493527
49	0xbcd7db84	-0.02634979
50	0x3c53524f	0.012898042
51	0x3cb77e46	0.022399079
52	0x3c088c8e	0.008334292
53	0xbd6d3fbe	-0.057922117
54	0x3b2fb492	0.002681051
55	0x3c39eeb2	0.011348413
56	0x3cfcdcaa	0.03086694
57	0xbd46502d	-0.048416305
58	0xbc2eae47	-0.010661668
59	0x3c0ad698	0.008474015
60	0xbcc389c5	-0.023869405
61	0x39d11dbb	0.00039885737
62	0x3cd89dbe	0.026442405
63	0xbd3661b5	-0.044526774
64	0x3c3fd2f2	0.011708008
65	0x3c8ef590	0.017451078
66	0xba6ae7e0	-0.00089609437
67	0x3d52d8bd	0.05147623
68	0x3c8faee0	0.017539442
69	0xba9a2a57	-0.0011761886
70	0xbcb22492	-0.021745954
71	0x3d32f0c4	0.043686643
72	0xbd8828f4	-0.06648436
73	0xbcd8a25b	-0.026444605
74	0xbc850161	-0.01623601
75	0xbce056fe	-0.027385231
76	0x3cd06a4a	0.025441308
77	0x3cd71921	0.0262571
78	0x3d03aba9	0.03214613
79	0x3d026f1a	0.031844236
80	0xbd46295e	-0.048379295
81	0xbca18a07	-0.019719137
82	0xbccea5df	-0.025225578
83	0x3c0e46e1	0.008683891
84	0x3c72e5df	0.014825313
85	0xbc96e9d0	-0.018422037
86	0xbcdda588	-0.02705647
87	0x3d28884b	0.041145604
88	0xbc6a62ab	-0.014305751
89	0xbd0a0656	-0.03369745
90	0x3d133efe	0.035948746
91	0x3ce8c661	0.028414907
92	0xbd33806a	-0.043823637
93	0xbca46d40	-0.020071626
94	0xbd13c3cf	-0.03607541
95	0xbd4fb9b1	-0.0507142
96	0xbc34c865	-0.011034106
97	0xbd2077c2	-0.03917671
98	0x3d0cc36c	0.034366056
99	0xbd6f67e7	-0.0584487
100	0xbd6a622c	-0.05722253
101	0xbc556ba9	-0.013026156
102	0x3c9eef0e	0.0194011
103	0x3cc768e9	0.024342017
104	0x3d12fe9d	0.03588735
105	0x3c3f5ffc	0.011680599
106	0xbcdac9d0	-0.02670756
107	0xbdc638e7	-0.09678822
108	0xbd79a08a	-0.060944118
109	0x3ba4b7a5	0.005026775
110	0x3c1af9f6	0.009459009
111	0x3cb320c2	0.021866206
112	0xbb564396	-0.0032694093
113	0xbd7780a7	-0.060425427
114	0xb9ec3f6f	-0.0004506069
115	0xbc72f0a0	-0.014827877
116	0xbdc42f56	-0.09579341
117	0xbd082005	-0.03323366
118	0x3d20cb62	0.03925646
119	0x3bc18935	0.005906249
120	0xbd07b5a4	-0.03313221
121	0xbc98c2ed	-0.018647635
122	0xbbd987c0	-0.006638497
123	0xbd0f854e	-0.03503924
124	0xbd3dd668	-0.04634705
125	0xbc74b416	-0.014935514
126	0xbb34f62f	-0.0027612557
127	0xbd17374c	-0.03691797
128	0xbca8dfa3	-0.02061445
129	0xbd1257f5	-0.035728414
130	0xbca036bf	-0.019557355
131	0xbd78479c	-0.060615167
132	0x3d249185	0.04017784
133	0x3c792bdc	0.015208211
134	0xbcb8c5cd	-0.022555256
135	0xbcdb519a	-0.02677231
136	0xbafb3f7b	-0.0019168699
137	0xbccaa1d2	-0.024735365
138	0x3c8c695c	0.017140083
139	0xbbe99d2e	-0.007129333
140	0xbd0cdc34	-0.03438969
141	0x3c0191cd	0.007908297
142	0xbd250ed4	-0.040297344
143	0x3d212626	0.03934302
144	0xbd0ed69a	-0.03487263
145	0xbc8dc724	-0.017306872
146	0x3d1f3ec4	0.038878217
147	0xbd4475c9	-0.04796389
148	0x3ba02aa7	0.004887897
149	0x3d456863	0.048195254
150	0xbd39c748	-0.045356065
151	0x3d230d2d	0.039807487
152	0x3d2c780e	0.04210668
153	0x3c0e492f	0.0086844405
154	0xbc00f1c1	-0.007870139
155	0x3cff1478	0.03113769
156	0xbc91b113	-0.01778463
157	0xbd1058da	-0.035240985
158	0xbb39e7e7	-0.0028366984
159	0x3d0758d8	0.033043712
160	0xbc8a5ab0	-0.016888946
161	0x3cd2f93b	0.025753608
162	0xbd3f3a04	-0.046686187
163	0x3d395b1b	0.0452529
164	0x3cacf618	0.02111344
165	0x3c75484b	0.014970849
166	0x3c1d3875	0.00959598
167	0xbca6ba06	-0.020352375
168	0xbd61a949	-0.055093084
169	0x3cce9d70	0.025221556
170	0xbd18ad9a	-0.037274934
171	0x3c9b4205	0.018952379
172	0xbd643456	-0.055713974
173	0xbcb18f0a	-0.021674652
174	0xbbef1b68	-0.0072969683
175	0xbbf4b062	-0.0074673155
176	0xbc3ed844	-0.011648241
177	0xbcc67192	-0.024224076
178	0xbc4cfdae	-0.012511654
179	0xbb20363f	-0.0024446396
180	0x3d28d4dc	0.041218624
181	0xbd17a0e9	-0.03701869
182	0xbcb4d2d1	-0.022073181
183	0xbc841efc	-0.016128056
184	0x3ce58087	0.028015388
185	0x3d19c971	0.037545625
186	0xbc8a1c6f	-0.016859261
187	0xbd1a0902	-0.037606247
188	0xbd4466ea	-0.04794971
189	0x3c9f5986	0.019451868
190	0xb93b9755	-0.00017890085
191	0x3cd4394e	0.025906231
192	0xbbde26ed	-0.0067795427
193	0x3cec9726	0.028880667
194	0x3d05c3a9	0.0326573
195	0xbced2258	-0.02894704
196	0x3a9d7882	0.0012014064
197	0xbccf2132	-0.025284383
198	0x3cb87d72	0.022520754
199	0xbc35dcad	-0.0110999765
200	0x3c99133c	0.01868593
201	0xbd42c67b	-0.047552567
202	0xbd29ca05	-0.041452426
203	0x3ba7e04e	0.0051231747
204	0x3a46de94	0.00075862673
205	0xbca8efb4	-0.020622112
206	0x3d1771bc	0.0369737
207	0xbd2ea3a5	-0.042636532
208	0x3be537c7	0.0069951746
209	0xbd9c247b	-0.076241456
210	0x3bdf1813	0.00680829
211	0xbd78f733	-0.060782623
212	0x3d1aad1b	0.037762742
213	0x3d1bc1ee	0.038026743
214	0x3d23bd53	0.039975476
215	0xbb2922ee	-0.0025808173
216	0x3d3fcd50	0.04682666
217	0xbd8bcca8	-0.068261445
218	0xbd13178f	-0.03591114
219	0x3c35a9af	0.011087819
220	0xbc527a25	-0.012846504
221	0xbd697e98	-0.057005495
222	0xbcda2a8f	-0.026631622
223	0xbcc9dcea	-0.024641473
224	0xbd5c9cb8	-0.053860396
225	0xbc4500cb	-0.012024115
226	0x3cbe092d	0.023197735
227	0x3c616a69	0.01375828
228	0xbda78d50	-0.0818125
229	0xbd939fb0	-0.07208192
230	0xbd80ace0	-0.06282973
231	0xbb8d0215	-0.0043032267
232	0x3c657a8b	0.014006267
233	0xbcbd6055	-0.023117224
234	0xbd46da43	-0.048547994
235	0xbd470df6	-0.0485973
236	0xbc219c18	-0.009863876
237	0xbd5811df	-0.05275142
238	0xbd41c160	-0.047303557
239	0x3d371a3c	0.044702753
240	0xbd2b71d8	-0.041856617
241	0xbc067b4a	-0.008208105
242	0xbd459a59	-0.0482429
243	0xbd68c989	-0.056832824
244	0xbc7d4f35	-0.015460779
245	0xbdff1b0b	-0.1245633
246	0xbc9499a7	-0.018139673
247	0xbb6fcbaa	-0.00365899
248	0xbc8002f0	-0.0156264
249	0xbd7c0792	-0.061530657
250	0x3d09722a	0.03355614
251	0x3cbe889a	0.023258496
252	0x3d12dc72	0.035854764
253	0xbd130fe2	-0.03590382
254	0x3cac5508	0.02103664
255	0xbd7f8db6	-0.062391005

q.layers.1.bias f4 [300]
0	0xbdea87a9	-0.11451656
1	0x3bd0873f	0.006363779
2	0xbc246fd5	-0.010036428
3	0xbcb37af5	-0.021909216
4	0xbd0deca9	-0.034649525
5	0xbd01a73b	-0.031653624
6	0x3f1f815a	0.6230675
7	0xb9138e8d	-0.00014072117
8	0x3f1f468a	0.6221701
9	0xbd1a3f5f	-0.03765809
10	0x3d9be045	0.076111354
11	0x3f4f5aeb	0.80998105
12	0xbd88035d	-0.066412665
13	0x3c41e8c4	0.011835281
14	0x3ee85dad	0.4538397
15	0x3f4393bd	0.76397306
16	0x3c9b4bf2	0.018957112
17	0xbd21ce84	-0.03950359
18	0xbd3739d9	-0.044732902
19	0x3e7aeaa6	0.24503574
20	0xbc739b51	-0.014868573
21	0xbd5c0a98	-0.05372104
22	0x00000000	0.0
23	0x3f4408b7	0.765758
24	0xbd2aae62	-0.04167021
25	0xbc4b15ea	-0.012395361
26	0xbc886c8c	-0.016653322
27	0xbe51969d	-0.2046761
28	0xbd4c3895	-0.04985865
29	0xbc469f66	-0.0121229645
30	0x3e491316	0.19636187
31	0xbd07e02d	-0.033172775
32	0xbd1ae916	-0.037819944
33	0xbccef468	-0.025263026
34	0x3f0ee107	0.55812114
35	0xbd653eb5	-0.055968005
36	0x3d477455	0.048694927
37	0xbca1ed57	-0.019766493
38	0xbcc102ea	-0.02356096
39	0xbd203fea	-0.039123453
40	0xbd270125	-0.040772576
41	0xbd0f323a	-0.03496001
42	0x3e314569	0.17311634
43	0x3f864a15	1.0491358
44	0xbc330ac4	-0.01092786
45	0x3a0faa19	0.00054803636
46	0x3ee1229d	0.4397172
47	0x3d5c2aa1	0.05375159
48	0xbe98a68f	-0.29814574
49	0x3f022cbe	0.5084952
50	0x3c221d9d	0.009894756
51	0x3fa9bc02	1.32605
52	0x3f167b92	0.58782303
53	0xbce5f85d	-0.02807253
54	0xbd25775e	-0.04039704
55	0xbc3965db	-0.011315788
56	0xbea4bccc	-0.3217529
57	0xbce621f3	-0.02809236
58	0x3f3edbad	0.7455395
59	0xbc95a7c4	-0.018268473
60	0xbd67574f	-0.05647975
61	0xbdebadd6	-0.11507766
62	0x3f05f487	0.52326244
63	0xbcb00250	-0.021485478
64	0xbc03830a	-0.008026848
65	0x3b4534d9	0.0030091314
66	0x3b45cc9f	0.0030181778
67	0xbb90fd88	-0.0044247545
68	0x3f033a06	0.5126041
69	0x3c40dc94	0.01177134
70	0xbd21f264	-0.039537802
71	0xbb709db1	-0.0036715085
72	0xbc17fc0c	-0.009276401
73	0xbc0354f9	-0.0080158645
74	0xbcf5d5b6	-0.030009132
75	0x3f369f8f	0.7133722
76	0xbd0084d4	-0.031376675
77	0xbbaf63f6	-0.0053524924
78	0xbc121c6e	-0.008917911
79	0x3f41187c	0.75427985
80	0xbd2377cc	-0.03990917
81	0xbd1f8540	-0.038945436
82	0xbd66d552	-0.05635578
83	0xbcfd2d0d	-0.030905271
84	0xbbd54180	-0.0065080523
85	0x3e9e011a	0.30860215
86	0xbc221765	-0.009893273
87	0x3eb27917	0.3485801
88	0xbd127ea2	-0.035765298
89	0xbe8ae429	-0.27127197
90	0xbc68159a	-0.014165306
91	0x3f1ad94a	0.60487807
92	0xbd089bde	-0.03335177
93	0x3ee03248	0.43788362
94	0xbcddd125	-0.027077267
95	0x3f43c05a	0.7646538
96	0xbd0cc183	-0.034364235
97	0x3f00f7f0	0.5037832
98	0x3d09388b	0.03350119
99	0x3bc4af7e	0.0060023656
100	0xbd11f285	-0.035631675
101	0x3f55c7af	0.8350782
102	0x3d035f1f	0.032073136
103	0x3f263fb7	0.6494097
104	0x3d04bfe1	0.032409552
105	0xbc211d09	-0.009833583
106	0xbe49d1da	-0.19708958
107	0xbbcfba8e	-0.0063393777
108	0xbd1f869b	-0.03894673
109	0xbd8eed37	-0.06978839
110	0xbcce2705	-0.02516509
111	0xbbc4c810	-0.0060052946
112	0x3c888bf5	0.0166683
113	0xbd1a7d5f	-0.03771722
114	0x3eb892e2	0.36049563
115	0x3ca108ad	0.019657457
116	0x3eec21ca	0.4611953
117	0xbcd3012d	-0.025757397
118	0xbeeadf71	-0.45873597
119	0x3f416842	0.7554971
120	0xbcf3808c	-0.029724382
121	0xbe2c7598	-0.16841733
122	0xbd0ee729	-0.03488842
123	0x3eee35e4	0.4652549
124	0xbc21306d	-0.009838206
125	0x3f34cc1d	0.7062395
126	0xbcbf9a52	-0.023389015
127	0x3cabe044	0.020980962
128	0xbd16f62e	-0.03685587
129	0xbc112136	-0.008858016
130	0xbf10f154	-0.5661824
131	0xbd1b6658	-0.0379394
132	0x3f0a936c	0.541312
133	0xbd002134	-0.031281665
134	0xbdb89962	-0.090136304
135	0x3f66541a	0.8997208
136	0xbe4025a7	-0.18764363
137	0xbe6d0f04	-0.2315026
138	0x3ef093ef	0.46987864
139	0xbd1a9dc7	-0.037748124
140	0xbbeb4062	-0.007179306
141	0x3e31aa88	0.17350209
142	0x3df55a9d	0.11980174
143	0x3f1e1f81	0.6176682
144	0x3ea286db	0.31743512
145	0xbd1292a2	-0.03578437
146	0xbd11fd00	-0.03564167
147	0xbd1ab0aa	-0.037766136
148	0xbd0a3fce	-0.033752255
149	0xbc67adf6	-0.014140597
150	0x3e1d9a2c	0.15390843
151	0xbd2a3eec	-0.041563913
152	0x3f138da7	0.5763802
153	0xbdf81454	-0.12113252
154	0x3f556a22	0.8336507
155	0x3ecdc359	0.401881
156	0x3f56f9a2	0.8397466
157	0xbc07f8cf	-0.008299067
158	0xbd2883b5	-0.04114123
159	0x3cd34da4	0.025793858
160	0xbcd843bb	-0.026399484
161	0x3f4963e9	0.78668076
162	0xbd1a465d	-0.03766476
163	0x3dc8cd5b	0.098047934
164	0xbd10376d	-0.03520911
165	0x3f5a84e7	0.8535904
166	0x3c78a01a	0.01517489
167	0xbd15d284	-0.036577716
168	0x3ece0e63	0.4024535
169	0xbe2c4a99	-0.16825332
170	0xbd01f583	-0.03172828
171	0xbc0bfc03	-0.008543971
172	0xbd1b4516	-0.037907682
173	0xbc133561	-0.0089848945
174	0x3edeb4fb	0.43497452
175	0xbe484523	-0.19557624
176	0xbc781f2f	-0.0151441535
177	0xbc096f0f	-0.008388295
178	0xbd0c3b66	-0.034236334
179	0xbeaed8e7	-0.34149858
180	0x3f3f6de8	0.7477708
181	0xbd03d34e	-0.032183938
182	0x3f02d8a7	0.51111835
183	0x3f5b20f3	0.8559715
184	0xbcfb0ac2	-0.030644778
185	0x3ee7f16c	0.45301378
186	0xbcf89205	-0.030343065
187	0xbc263fb6	-0.010147026
188	0xbd96f0f9	-0.07370181
189	0x3f7b3174	0.98122334
190	0xbd34fa26	-0.044183873
191	0xbd0301ed	-0.03198426
192	0xbce62c2e	-0.028097238
193	0xbccebe7c	-0.025237314
194	0x3e9bd085	0.30432525
195	0x3d8837c8	0.066512644
196	0xbbc4c9a0	-0.006005481
197	0x3e2ff7e0	0.171844
198	0xbbc06e10	-0.0058724955
199	0x3f6e7b41	0.9315682
200	0x3dc5bf99	0.09655685
201	0x3ac57a4f	0.0015066358
202	0x3ab51e7c	0.0013818289
203	0xbd36774c	-0.044547364
204	0xbd286bff	-0.041118618
205	0xbcdaeea3	-0.026725119
206	0xbd097bc3	-0.033565294
207	0xbd026ec6	-0.031843923
208	0xbe94c468	-0.29056096
209	0xbc0bbf24	-0.008529458
210	0x3f8ea830	1.1145077
211	0x3e037f02	0.12841418
212	0xbd1c23aa	-0.03811995
213	0xbd7b5a56	-0.061365448
214	0x3c8eb1e4	0.01741881
215	0xbdbdce9d	-0.09267924
216	0x3f465a2b	0.77481335
217	0x3e9374da	0.28800088
218	0xbba89ffc	-0.0051460247
219	0xbcc5aa63	-0.024129098
220	0x3eb5e3fe	0.35525507
221	0xbcf68800	-0.030094147
222	0xbc1247a2	-0.008928211
223	0x3f4fb7e3	0.81139964
224	0x3d03f26a	0.032213606
225	0x3f3384cd	0.7012451
226	0x3e19a38a	0.15003791
227	0xbcee95eb	-0.02912422
228	0x3f4da785	0.8033374
229	0xbcd42f80	-0.025901556
230	0x3fa154cf	1.2604007
231	0xbc9f83f4	-0.0194721
232	0xbc5e251d	-0.013558653
233	0xbd0b84a4	-0.034062043
234	0xbd0d9a80	-0.03457117
235	0x3f143a20	0.5790119
236	0x3d6e55dc	0.05818735
237	0xbd1d9100	-0.03846836
238	0x3e469b13	0.19395094
239	0x3f1ae0c9	0.60499245
240	0xbcce680d	-0.0251961
241	0x3f4b7892	0.7948085
242	0xbd03dd74	-0.032193616
243	0xbd0dceb6	-0.034620963
244	0x3d69f97f	0.057122704
245	0xbcf2f704	-0.029658802
246	0xbac45f1a	-0.0014981956
247	0x3d8c24f6	0.06842987
248	0xbc932a0c	-0.017964385
249	0xbd24b97c	-0.040215954
250	0xbd552dc9	-0.052045617
251	0x3c830af7	0.01599644
252	0xbd277391	-0.040881697
253	0x3f585b30	0.8451414
254	0x3eff84b3	0.4990593
255	0xbd1a44b9	-0.037663195

q.layers.2.weight f4 [8, 300]
0	0xbd452dc2	-0.04813934
1	0xbcb38421	-0.02191359
2	0x3d024e76	0.031813107
3	0xbd452065	-0.048126597
4	0xbce4298c	-0.027851842
5	0xbcad81b2	-0.021180008
6	0xbe0155b8	-0.12630355
7	0x3d5e8032	0.054321475
8	0xbe42486b	-0.18972938
9	0xbcb6a883	-0.02229715
10	0xbd1cbb3c	-0.038264498
11	0x3d380ee9	0.044936094
12	0xbd06a869	-0.032875452
13	0x3a9bbc33	0.0011881649
14	0x3c86974e	0.01642957
15	0x3f0aac4a	0.5416914
16	0x3d12626e	0.0357384
17	0xbd04a9ad	-0.032388378
18	0x3c415526	0.011800086
19	0xbd24b9e6	-0.04021635
20	0xbc982855	-0.01857392
21	0xbd7726da	-0.060339786
22	0x3d221756	0.039573036
23	0x3cf1a444	0.029497273
24	0xbc1db94d	-0.009626699
25	0x3ab0408a	0.0013446969
26	0xbb7e2eef	-0.0038785299
27	0xbc829394	-0.015939511
28	0x3cc529cf	0.024067787
29	0x3d9f3b00	0.07774925
30	0x3d0ef972	0.03490586
31	0x3c89477d	0.016757721
32	0x3c8ea95c	0.017414741
33	0xbc186fa6	-0.009303963
34	0x3df60684	0.120129615
35	0x3ca502ff	0.02014303
36	0x3c80e697	0.015734954
37	0xbbe16514	-0.0068785045
38	0x3c703127	0.014660156
39	0xbbab8685	-0.005234542
40	0x3b865b87	0.0041002664
41	0xbd110431	-0.035404388
42	0x3eaead97	0.34116814
43	0x3d36eff9	0.04466245
44	0x3d285a56	0.041101776
45	0x3c34c914	0.011034269
46	0x3bb8020b	0.005615478
47	0xbc9e1974	-0.019299246
48	0xbccd5e0c	-0.02506926
49	0x3eba8e97	0.36436912
50	0x3c974b54	0.018468536
51	0x3eb7173d	0.35759917
52	0x3dafa778	0.08576864
53	0x3d26648a	0.040623225
54	0xbc276c5b	-0.010218705
55	0x3cefd22a	0.029275019
56	0xbb1251c9	-0.002232658
57	0xbc31e109	-0.010856875
58	0xbdece5d3	-0.11567273
59	0x3ce95b71	0.028485985
60	0x3d6151e3	0.055009734
61	0x3b59fde6	0.0033262908
62	0x3db496d7	0.08817833
63	0x3cb0fa67	0.021603776
64	0x3d35d2c3	0.04439045
65	0xbd21b88f	-0.03948265
66	0x3cd2bcd7	0.025724811
67	0xbd176d5a	-0.03696952
68	0x3d9d9a0b	0.07695397
69	0xbcce201b	-0.025161793
70	0xbd204326	-0.039126538
71	0x3bea0a60	0.00714235
72	0x3d516730	0.051123798
73	0xbd3945b4	-0.04523249
74	0x3b8454f5	0.004038448
75	0x3e9dcef5	0.30821958
76	0xbd44705a	-0.04795871
77	0x3d07f99d	0.033197034
78	0xb9faab96	-0.00047811557
79	0x3ef8b6ec	0.48577058
80	0xbcaa8f5c	-0.020820312
81	0x3d2521bb	0.04031537
82	0x3c2b6d05	0.010463004
83	0x3cd11ce4	0.025526471
84	0xbba3ffac	-0.0050048437
85	0xbc4a2f3f	-0.012340366
86	0xbc2e65b7	-0.010644368
87	0xbb36754e	-0.0027840915
88	0x3c53398a	0.012892136
89	0xbbc9ed6b	-0.0061623356
90	0xbd3dd7fe	-0.046348564
91	0x3f5841cc	0.844754
92	0xbb370a44	-0.0027929703
93	0xbdc57762	-0.09641911
94	0xbd20d05d	-0.03926121
95	0x3e5703eb	0.20997588
96	0x3d24aeeb	0.040205877
97	0x3c70ce58	0.014697634
98	0x3cf7014b	0.030151984
99	0xbd428cc4	-0.047497526
100	0x3d119773	0.035544824
101	0x3de8d9d2	0.11369671
102	0x3ba94e55	0.0051668086
103	0x3e4e80f1	0.20166375
104	0xbb25737b	-0.0025245834
105	0xbc4287ae	-0.011873169
106	0x3ba8de7f	0.0051534767
107	0xbd2d3fe9	-0.042297278
108	0xbbfd92cd	-0.0077384473
109	0xbbc97261	-0.006147668
110	0xbd793b65	-0.06084766
111	0x3d1acb46	0.037791513
112	0x3d2e0178	0.04248187
113	0x3c850725	0.016238758
114	0xbd2d4d38	-0.04230997
115	0x3c0c9cfb	0.008582349
116	0xbeb6fe4a	-0.35740882
117	0xbb76ecc4	-0.0037677744
118	0x3c1967be	0.009363113
119	0xbec4bd2a	-0.3842557
120	0x3ba26b36	0.004956628
121	0x3ca40cb9	0.020025598
122	0x3c8562e3	0.016282504
123	0x3d29453c	0.041325793
124	0xbd44d103	-0.04805089
125	0xbf7bdda6	-0.98385084
126	0xbce67604	-0.028132446
127	0xbd3374c5	-0.043812532
128	0x3c57102c	0.013126414
129	0x3c3aff79	0.0114134485
130	0xbd92381c	-0.07139608
131	0x3d9728e3	0.073808454
132	0x3c7befb5	0.015376975
133	0xbccf9a35	-0.025342086
134	0xbd21f3f6	-0.0395393
135	0xbdd43246	-0.103611514
136	0x3d26ce4f	0.040724095
137	0x3c08f937	0.008360199
138	0x3bb817ee	0.005618087
139	0x3d6209f8	0.05518529
140	0xbd124d28	-0.035718113
141	0x3c1bbca0	0.009505421
142	0xbbca5f78	-0.0061759315
143	0x3e180c74	0.148485
144	0xbe0a03b6	-0.13477978
145	0xbd486683	-0.048925888
146	0xbd0f139a	-0.034930803
147	0x3cb15f89	0.021652
148	0xbd87b87c	-0.066269845
149	0x3c7ba802	0.01535988
150	0xbd034edd	-0.03205763
151	0xbb997795	-0.0046834447
152	0x3d469431	0.04848117
153	0xbd2908c7	-0.041268136
154	0x3e6c8bdb	0.23100226
155	0x3f077b17	0.52922195
156	0x3f2c05f1	0.67196566
157	0x3d2e8f6b	0.042617243
158	0x3c460a96	0.012087485
159	0x3c94416a	0.018097598
160	0xbd61e9ed	-0.05515473
161	0x3e3e6424	0.18592888
162	0x3d513954	0.051080063
163	0xbcf737e0	-0.03017801
164	0xbcca9eb0	-0.024733871
165	0xbe109087	-0.14117633
166	0xbd06842a	-0.032840885
167	0xbcf879c6	-0.030331504
168	0x3de9142b	0.113808
169	0xbcc214b7	-0.023691518
170	0x3d6bd4da	0.057576038
171	0x3c89926c	0.016793452
172	0xbc1a7d0d	-0.0094292285
173	0x3c5df25e	0.013546554
174	0x3ec6032a	0.3867429
175	0xbb8543ec	-0.004066935
176	0x3c96ff3c	0.018432252
177	0xbcd6df68	-0.026229575
178	0xbd413340	-0.047168016
179	0x3be709b4	0.0070507172
180	0x3c934ef1	0.017981978
181	0x3c13f3f0	0.009030327
182	0xbdc785a8	-0.0974229
183	0x3f2dfc4e	0.6796311
184	0xbb9e0c99	-0.004823279
185	0xbd846ef6	-0.064664766
186	0x3d0bdf57	0.03414854
187	0x3cf741e1	0.03018278
188	0xbbd8ea12	-0.0066197
189	0x3ea4f45f	0.3221769
190	0xbc0385fe	-0.008027552
191	0x3c026e54	0.007960875
192	0x3d3713da	0.044696666
193	0x3b7d4a4f	0.0038649028
194	0x3f036eeb	0.5134112
195	0x3bdd310b	0.006750231
196	0x3d13298a	0.035928287
197	0xbf41f191	-0.75759226
198	0xbd5d2db6	-0.05399867
199	0x3e95dd21	0.2927027
200	0xbe43c68d	-0.1911871
201	0x3c84f5de	0.01623052
202	0xbb9ae5aa	-0.004727085
203	0xbc87682f	-0.01652917
204	0xbd219ab0	-0.039454162
205	0x3c87e327	0.016587807
206	0xbce41a0d	-0.027844453
207	0x3c718c3f	0.01474291
208	0x3d2ae40a	0.04172138
209	0x3cf1c9b0	0.029515117
210	0x3e514463	0.20436244
211	0x3c170a7e	0.00921881
212	0xbc938d57	-0.018011732
213	0x3c118f3b	0.008884246
214	0x3d94c0e9	0.07263357
215	0x3c688ccd	0.014193726
216	0x3f4f0cf2	0.8087913
217	0x3d3576d3	0.044302773
218	0x3c8abc59	0.016935514
219	0x3d62b505	0.055348415
220	0x3ef6a2a1	0.4817095
221	0x3d33dd9e	0.043912522
222	0x3c5c7812	0.013456361
223	0x3ecc5fdc	0.39916885
224	0xbbbe61ed	-0.0058100135
225	0x3bdbcc19	0.00670768
226	0xbbca2d53	-0.006169954
227	0x3cb635d2	0.02224246
228	0x3e48b1ad	0.19599028
229	0xbb739336	-0.0037166602
230	0x3e7bee73	0.2460268
231	0xbc63dbca	-0.013907382
232	0x3bdf0590	0.006806083
233	0x3d379405	0.044818897
234	0xbc7464f7	-0.01491665
235	0xbdf93a00	-0.12169266
236	0xbc8d97d9	-0.01728432
237	0xbcb7e974	-0.022450186
238	0xbe1df7db	-0.1542658
239	0xbbdd2c15	-0.0067496398
240	0x3cc4936b	0.023996076
241	0x3dcda0e1	0.10040451
242	0x3d015de1	0.03158367
243	0x3aed6b08	0.0018113563
244	0x3d27280e	0.040809684
245	0x3d0708b8	0.0329673
246	0xbd33ee17	-0.043928232
247	0xbcc4a401	-0.024003984
248	0x3cb1cfe5	0.021705577
249	0x3d05a81f	0.032631036
250	0x3c49a30b	0.012306939
251	0xbcdd594b	-0.027020117
252	0xbc3c8788	-0.011506923
253	0x3f3e4082	0.7431718
254	0xbc5e30ef	-0.013561471
255	0x3b077d45	0.0020674032

q.layers.2.bias f4 [8]
0	0x3ec206c1	0.37895778
1	0x3eabdf56	0.3356883
2	0x3e8505b8	0.25980926
3	0x3e67c45d	0.226335
4	0x3eaaef40	0.33385658
5	0x3f1f5c54	0.62250257
6	0x3f350f45	0.70726424
7	0x3f2b053a	0.6680485
